reann2.0_20250825/test/t0/REANN.pth (torch, 463529 bytes, 162 tensors)

getdensity.contracted_coeff f4 [1, 3, 8, 108]
000000 b7 90 3e 3d 8c 45 81 3c db f3 de 3d c7 92 07 3e
       0.04652473 0.015780233 0.108863555 0.13239585
000010 33 b6 b0 3c a3 e5 43 3d 77 ea ba bd d0 7c cd 3b
       0.021571254 0.04782642 -0.09126752 0.0062709823
000020 da 11 0e 3d 92 63 e7 bd 18 3d c2 3d d9 0b 94 bc
       0.034684993 -0.112982884 0.09484309 -0.018072056
000030 af 2d 4b bd bf 47 6c bc 31 97 f4 3d 9f 2d ca 3c
       -0.049604114 -0.0144214025 0.119429 0.024679957
000040 6c d8 25 3d 54 d4 02 3e ce b4 ed bd ed 7c 59 3c
       0.0404896 0.12776309 -0.116067514 0.0132744135
000050 45 2f 20 3d ac 3f 86 3d b3 0b ad 3d 20 fc 01 3c
       0.03910758 0.06555113 0.08449497 0.007933646
000060 59 db 43 bc cf cd f1 bd 7e b2 93 bd e4 09 98 3c
       -0.011954152 -0.11806833 -0.07211779 0.018559404
000070 62 42 dd bd 78 31 86 bc c4 7a 34 3d 19 1f b2 3c
       -0.10803677 -0.01638101 0.04406239 0.021743344
000080 40 0d a8 3c f2 cf 69 bc 78 6e 49 3c 78 51 f7 3d
       0.02051413 -0.014270769 0.012294404 0.12076086
000090 98 85 45 bd 71 70 b2 3d 40 66 eb 3d f6 d9 89 3c
       -0.048223108 0.08712853 0.11494112 0.016827565
0000a0 69 d3 9a bc d2 5c fc 3d 38 d3 9a 3d 2b 9e 0a 3e
       -0.018899636 0.123223916 0.07559818 0.13536899
0000b0 84 5f 84 bd 87 12 3f 3d d2 ec f6 bd ee da 9c bd
       -0.06463531 0.04664853 -0.12056889 -0.07658945
0000c0 23 f7 d1 bc 25 c0 1b bd 67 e8 f6 bc 30 3a 35 bd
       -0.02563054 -0.03802504 -0.030140115 -0.044244945
0000d0 27 ca cb bd 90 4a f2 3d b8 11 fb 3d 3d 1c 10 bd
       -0.09950667 0.11830628 0.12259239 -0.03518318
0000e0 20 26 67 3d a8 48 90 3c 57 db 06 be ae d2 c5 3c
       0.056432843 0.01761277 -0.13169609 0.024148311
0000f0 8a e4 c9 3d 4f d9 16 3d f7 12 79 bc e6 0b 27 be
       0.098580435 0.036828335 -0.0152022755 -0.16313133
000100 cf cf 0a bd 73 fd a6 3d e4 1f 5f 3d 85 77 cd 3d
       -0.033889588 0.0815381 0.054473773 0.10032562
000110 45 3c c6 bd 50 6f d3 3b ff 78 eb bd d4 55 a2 3d
       -0.09679464 0.0064524785 -0.114976875 0.07926527
000120 74 e3 a4 3d f4 12 26 bd 38 0e e6 bd 0d aa c4 3c
       0.08051196 -0.04054542 -0.11233181 0.024006868
000130 f8 d8 04 3d 11 18 97 3c 88 00 8f bd b4 63 a4 bc
       0.03243348 0.018444093 -0.06982523 -0.020067073
000140 86 85 c0 3d 5b 94 8c 3d d9 25 c1 3d f4 5c 94 3b
       0.094004676 0.06864234 0.09431047 0.0045276824
000150 bf 91 03 3e 22 4b 97 3b c9 87 01 be 52 9e 90 3d
       0.12848566 0.004617111 -0.12649454 0.07061447
000160 d8 49 3c 3d cf 8a ee 3d b6 4b a0 bb ca 14 e9 3d
       0.04596886 0.116475694 -0.004891838 0.11380918
000170 4e 82 2b bc 1b 32 77 3d 4d 34 f6 bd fe 8d dc bd
       -0.010468079 0.06035052 -0.12021694 -0.1076927
000180 88 c2 09 3d 4c 5c e1 bc b9 15 d8 bc dc f6 f2 bb
       0.033632785 -0.02750983 -0.026377546 -0.007414682
000190 85 ad 4c 3b 9a ab 92 3d 28 4f c0 3d 4a 16 c0 bd
       0.0031231355 0.07161637 0.09390098 -0.09379251
0001a0 26 af 28 bc 85 08 65 bb a1 1d 96 3c 05 24 10 bc
       -0.010295665 -0.0034947705 0.018324675 -0.00879765
0001b0 88 f0 31 bd dd 49 7c bc 20 ec fc 3c fd ca d4 3b
       -0.04344228 -0.01539847 0.030874312 0.0064939247
0001c0 26 6d c0 3c 30 e2 0e be db 38 85 bd 0e 88 23 3d
       0.023489546 -0.13953471 -0.06504985 0.039924674
0001d0 00 5e 83 bc c2 27 19 bd a3 35 8e 3b 29 4e a9 3d
       -0.016036034 -0.03739143 0.00433989 0.08266861
0001e0 92 95 d0 be 1f 08 51 3d ab 5a d6 3c a0 92 c9 bb
       -0.40739113 0.051033136 0.02616628 -0.0061515123
0001f0 b9 ba 80 bd e9 68 1a 3d 0c a5 b1 3d 9d 07 ac 3d
       -0.062856145 0.037697706 0.08674058 0.083998896
000200 1e b1 40 bd 7b 30 a2 3b 21 7c b7 bc be 39 e8 bb
       -0.047043912 0.004949627 -0.022398056 -0.0070869615
000210 95 84 15 3d 54 53 37 bd 2b 53 98 bc f7 0d 2e bd
       0.036503393 -0.044757202 -0.018594345 -0.042493787
000220 65 c7 86 3c fa 71 81 3c d2 52 63 bc ba 48 04 3e
       0.0164525 0.015801419 -0.013874726 0.12918368
000230 d0 ba 71 bd a3 08 a0 bb b5 92 de bd 48 47 2b 3d
       -0.05901605 -0.004883842 -0.10867826 0.041816026
000240 aa 37 19 3d 32 df 69 3d 42 ff 0a 3c f9 28 22 bd
       0.0374066 0.05709762 0.00848371 -0.039589856
000250 d9 00 11 bd bd a9 17 3d da 2e 68 bd df 64 c3 3d
       -0.0354012 0.03702711 -0.056685306 0.09540724
000260 73 51 4b bd f6 0d f1 bd 70 b0 53 bd bb d3 31 be
       -0.049638223 -0.11770241 -0.051681936 -0.17365925
000270 da 9b 29 bc 9f fd 35 3c 55 df 70 3d 27 06 ba 3c
       -0.010352099 0.011107831 0.058806736 0.022708012
000280 0a 7a 53 bd 4c 6a 39 3c f2 94 af bc 59 8b 24 3d
       -0.051630057 0.011316847 -0.021433327 0.040171955
000290 46 69 ce bc 12 e5 f4 bd c2 18 2c bd 2f 21 f6 bd
       -0.025196683 -0.11957754 -0.0420158 -0.12018048
0002a0 e0 a4 a3 bd 91 f3 d9 bd 96 59 ae 3d b1 7f c1 bc
       -0.07990432 -0.1064216 0.08513181 -0.023620458
0002b0 4d 0c 57 3d b8 c7 51 ba 24 0f c7 bd 7d e2 80 3c
       0.052501965 -0.00080024777 -0.09719685 0.015732998
0002c0 be 5a de bd 5f c0 5f bd e8 95 c4 3c 4d 8d 79 3a
       -0.108571514 -0.05462682 0.023997262 0.00095196516
0002d0 79 6d d9 bd da dd 1c 3d 48 00 2e bd ec f0 67 bd
       -0.106165834 0.03829751 -0.042480737 -0.056626245
0002e0 ae 62 19 3d 0b f1 61 3e 55 14 69 3d fa a0 1c 3e
       0.037447624 0.22064607 0.056904156 0.15295783
0002f0 2b be a3 bc 8b 5a 61 bc 28 ec 07 3d 71 37 5a bd
       -0.01998814 -0.013754497 0.0331842 -0.05327553
000300 9e c8 04 3c 66 82 f8 3c b5 42 73 3a 94 60 12 3d
       0.0081044715 0.030335616 0.00092796545 0.035736635
000310 e6 d6 0f be 37 f2 9e 3c a6 3d 3e bd 2c f5 6f 3c
       -0.14046821 0.019402606 -0.04644551 0.014645856
000320 07 da 02 3e 26 f3 92 3c 5f cb ac bd 39 22 26 bd
       0.12778483 0.017938208 -0.084372275 -0.04055998
000330 57 30 ab bd d6 ba 87 bc 82 87 9f bd 10 1e 8b ba
       -0.083588295 -0.016568583 -0.07789518 -0.0010613818
000340 ea 06 b6 3d 1c 8c 61 3d d7 c1 df bb 2c 84 a3 bd
       0.088880375 0.05506526 -0.0068285274 -0.07984194
000350 82 19 37 bc ec 84 49 3d b7 f6 67 3b 0b 35 3f 3d
       -0.011175515 0.04919903 0.0035394856 0.046681445
000360 78 b5 82 3d a0 7e 23 3d f6 c2 43 3d 98 27 45 3d
       0.06382269 0.03991568 0.04779335 0.048133463
000370 15 07 a9 bd e3 71 e2 3d 3b 6d 04 bd b0 8c d9 bd
       -0.08253304 0.110568784 -0.032330733 -0.10622537
000380 6f 1a 72 3d 98 ba ee bd 86 c1 a1 3d 40 a7 2b bc
       0.05910724 -0.11656684 0.0789824 -0.010476887
000390 e3 7e 72 3b cc d4 a3 bd 17 9b cd 3d a8 0f f9 bd
       0.00370019 -0.07999572 0.10039347 -0.12161189
0003a0 d2 df 13 be d2 11 d3 3d f9 eb a8 bd 64 6c 73 3c
       -0.1444085 0.10306133 -0.08248133 0.014857385
0003b0 05 27 c2 3d 3a 7d 1c 3d ab 31 60 3d dd b4 45 bd
       0.09480099 0.038205363 0.054734867 -0.048268188
0003c0 78 f4 8a bd 26 cc 79 bd a6 7c 8d bd f8 22 13 3d
       -0.0678491 -0.060985707 -0.069085404 0.03592202
0003d0 cb 7a 90 bd 92 21 f5 bd d4 ad ae bd 70 ef 54 bd
       -0.07054671 -0.11969294 -0.08529249 -0.051986158
0003e0 be a2 d9 3d 36 7c aa 3d 3b f3 6d bd c0 81 05 3e
       0.10626744 0.083244726 -0.05809329 0.13037777
0003f0 b2 96 8d 3d 03 02 1c 3d bf 5f 93 3d 34 15 13 b8
       0.069135085 0.038087856 0.071959965 -3.5067278e-05

getdensity.emb_neighnn.net.0.weight f4 [64, 118]
000000 3b ef da 3d c8 62 20 bd 89 61 00 3e 0e f3 09 3e
       0.10690161 -0.039156705 0.12537207 0.13471624
000010 7f 86 85 bd 32 c9 2b bc 4a e6 dd bd 8c ef d3 bd
       -0.06519794 -0.01048498 -0.1083494 -0.10348424
000020 59 e6 b7 bd e6 5f 71 3e 17 fb c7 3d 9f 54 02 bd
       -0.08979482 0.23571739 0.097646885 -0.031818982
000030 6e 9d f2 bd 82 85 10 be a5 59 1d 3b fa 98 b1 bd
       -0.118464336 -0.14113429 0.002400973 -0.08671756
000040 e1 e9 28 be 70 0e 5e 3d 1b 87 98 bd 7b 1e 0f 3c
       -0.16495468 0.054212987 -0.07447644 0.008735294
000050 50 3e 31 3e 91 b1 07 be ce 5f 0a 3e 42 59 bf 3c
       0.17308927 -0.1325133 0.13513109 0.023357991
000060 78 b7 bd 3c a7 3b ab bd c7 b6 ac 3c 0f 31 81 bd
       0.023158774 -0.08360987 0.021083249 -0.06308185
000070 9e c4 72 bd 42 d9 86 bc f6 ee 31 bd 1a 74 8b 3d
       -0.05926954 -0.016461018 -0.04344078 0.06809254
000080 ed 76 19 3d f5 81 91 3d a7 e5 df bd de a7 17 be
       0.037466932 0.071048655 -0.109324746 -0.1481013
000090 74 3f c1 3d 8f 1d 20 be b8 62 27 be ca 1b 8b bc
       0.09435931 -0.15636276 -0.16346252 -0.016981024
0000a0 39 05 46 3c ed cf 1f 3e 68 1b 9c 3d ea 1f 5e 3d
       0.012086206 0.15606661 0.07622415 0.054229654
0000b0 2b 98 13 be f8 2a 10 3e 96 7b 35 be 71 09 f2 3c
       -0.14413516 0.14078891 -0.17722926 0.029545518
0000c0 d2 3a 0c 3e 37 df ef bd ff 8b 36 3e c7 f5 4c bc
       0.13694313 -0.11712497 0.17826842 -0.01250977
0000d0 f6 c6 11 3e 4a 2e e1 3d 36 3a 13 3d 47 9b 55 3d
       0.14236054 0.10995157 0.035944186 0.052150037
0000e0 cf 8b 2c 3e ec f1 2a 3e a8 9e e7 3c 0f 38 76 bd
       0.16850208 0.16693848 0.028273895 -0.060112055
0000f0 6e 89 34 be 17 a3 c0 3d 7a 99 1e 3d ae 14 39 be
       -0.1763055 0.09406107 0.038720585 -0.18074295
000100 6c 6f aa 3d 5c a7 0b bd 18 9b 04 3d 0d 66 00 3d
       0.08322033 -0.034095153 0.03237447 0.031347323
000110 f2 bd e0 bd cf dd 6c bd f6 88 55 3d ae 8d 23 be
       -0.10973729 -0.05782872 0.05213257 -0.15972015
000120 4b 28 18 3e 7f fa 01 3e 26 f4 96 3d 74 99 c4 bc
       0.1485912 0.12693213 0.07370786 -0.023998953
000130 1b ed e4 bc 46 3d 29 3c 28 0d 18 3e 2f f4 9c 3d
       -0.027945092 0.01032955 0.14848769 0.07663762
000140 95 b6 d7 bc ea a3 ba bc 31 ab 34 3e 17 31 37 be
       -0.02633218 -0.022783238 0.1764343 -0.1788982
000150 2f 70 25 3e 29 22 44 3b ea a8 ed 3d 64 5a cf bd
       0.16156076 0.0029927588 0.116044834 -0.101246625
000160 9e 84 65 3d 9c 06 50 bc 57 9b dc 3c 96 59 c9 bc
       0.056034677 -0.012696888 0.02692954 -0.02457885
000170 62 0d bb 3c 46 5c 19 3d f6 ff 2d 3d 6c 38 ea bd
       0.02283353 0.037441514 0.04248043 -0.11436543
000180 e7 df b7 bd c9 a0 5f 3d fe fa 09 bd 83 93 02 bd
       -0.08978253 0.054596696 -0.03368663 -0.03187896
000190 aa d0 0d 3c e7 c3 1b 3e 84 b0 95 3d 16 24 ee 3a
       0.008655706 0.1521145 0.07309058 0.0018168713
0001a0 33 07 c5 3d 00 70 bf bb 93 66 ed 3c 2a bb df 3d
       0.09620514 -0.005842209 0.028979575 0.109243706
0001b0 6c ee 74 3c 2f 04 ad bd 9b fb 1f be 78 c9 20 be
       0.014949422 -0.084480636 -0.15623324 -0.15701854
0001c0 9a 84 0c 3d 84 87 97 3d aa 51 be bd e8 0d 39 3e
       0.034306146 0.073988944 -0.0929292 0.18071711
0001d0 1f ca f2 bd 92 e0 4f 3c 92 b5 d2 3d b9 4c fc bd
       -0.11854958 0.012687819 0.10288538 -0.12319321
0001e0 fd 95 f5 bd 32 03 ac bd fc e5 20 3e 4d 29 b2 bd
       -0.119914986 -0.08399047 0.15712732 -0.08699284
0001f0 a1 e2 1c be f2 f2 22 bc 1d ad 08 3c 46 ed 53 be
       -0.15320827 -0.009945618 0.008342055 -0.20695981
000200 6b bc 39 3e 8a a4 36 be ab 2a f4 3d ad 6a c9 3d
       0.18138282 -0.17836204 0.11922201 0.098348
000210 61 2c 88 ba fb ff 1d 3e 61 7a 62 3c 11 9c 1f be
       -0.0010389203 0.1542968 0.013823123 -0.15586878
000220 ec eb a2 bd 67 f9 30 be 84 b7 2d 3d 58 74 07 be
       -0.07955155 -0.1728264 0.042411342 -0.13227975
000230 33 a2 eb bd 88 02 1f 3e b3 bb de 3b bd a1 a0 bd
       -0.115055464 0.1552831 0.006797278 -0.07843349
000240 87 77 f7 3b 11 de 89 bd 06 63 ee 3d 25 84 9a bd
       0.0075520906 -0.06731809 0.11639981 -0.07544736
000250 3d f1 ce 3d b4 fe ec bd 6e b3 c2 3d cf e7 e7 bd
       0.10104606 -0.11572018 0.0950688 -0.11323511
000260 13 14 88 3d 50 d6 cb 3d e1 27 26 3e fc c7 08 3d
       0.06644454 0.09952986 0.1622615 0.033393845
000270 0a b4 cb bd 89 bc 31 3e f8 f3 96 bd ec 9c 54 3d
       -0.09946449 0.17357077 -0.07370752 0.051907465
000280 74 b5 ff bd ef db 10 bd ab 25 38 3e 9b 27 e4 3a
       -0.12485781 -0.035365995 0.17983119 0.0017406823
000290 6b 8a a3 bc 5c 1f bd bd 2d fb 0b 3d 79 65 d6 3d
       -0.019963464 -0.09234497 0.034175087 0.10468573
0002a0 68 1b 1c 3d f6 3e d2 b9 30 42 2f be 2c fb c3 bc
       0.038112074 -0.0004010123 -0.17115092 -0.023923479
0002b0 16 b0 30 be d3 f0 91 3d 83 27 9c 3d 32 b6 fc 3d
       -0.17254671 0.07126012 0.07624724 0.123394385
0002c0 ce 19 8f 3d 82 36 c2 bd f4 9a 92 bd bf ec dd 3d
       0.06987344 -0.09483053 -0.07158461 0.10836171
0002d0 36 fa 12 3d 4f 9f 30 be 38 e3 19 3e 53 b7 16 be
       0.03588315 -0.17248271 0.15028083 -0.1471837
0002e0 41 a2 2b 3e 3b f6 f6 3d dd 67 01 3e 50 7f 0c be
       0.16761114 0.120586835 0.12637277 -0.13720441
0002f0 78 aa 8f 3a d8 46 8b 3d f5 0c f7 bd ba ef f2 bd
       0.0010960838 0.06800622 -0.12063018 -0.118621305
000300 2b 20 1a 3d 65 4a 0d 3c ff 3b 06 3d a8 2f 01 be
       0.037628334 0.008623694 0.03277206 -0.12615836
000310 4d a5 77 3d 7d 0e ae 3b 05 1b 5f bd 01 d2 9c bd
       0.060460377 0.0053117857 -0.054469127 -0.076572426
000320 ba 93 7c 3b bf a3 0a 3e 8e 9e 72 bd 4e 7b 93 bd
       0.00385402 0.13539027 -0.05923324 -0.07201253
000330 65 a5 21 be 30 40 d2 3d 8d 6a af bd d7 cd 85 3d
       -0.1578575 0.10266149 -0.08565245 0.065334015
000340 ed 97 15 be ac 93 21 3e d0 25 c2 bc 94 7a 9a 3d
       -0.14608736 0.15778989 -0.023699671 0.07542911
000350 dd cd 02 3e 8b a0 c5 bb 91 d5 93 3d 7a e7 8e 3d
       0.12773843 -0.006031101 0.07218469 0.069777444
000360 c9 dd 90 bd df 16 ce bd 9a 12 15 3d 4b 0e 1f bd
       -0.07073552 -0.10062956 0.036394693 -0.03883199
000370 a3 2b 0b 3e 34 69 b0 bc 72 71 eb bc 2e 37 c0 3d
       0.13590865 -0.02153454 -0.028740618 0.09385525
000380 09 d5 95 3d 20 ef c1 3b 0e 02 d7 bd b5 31 d1 bd
       0.07316024 0.0059183985 -0.10498439 -0.10214559
000390 8a be 31 3e 3e 38 f5 3d 61 84 c2 bd bf 71 35 be
       0.17357841 0.11973618 -0.094979055 -0.17719172
0003a0 23 5b 00 3d a9 a6 26 3d 00 b0 bb bc ae 62 89 bc
       0.031336915 0.040686283 -0.022911072 -0.016770687
0003b0 14 01 00 3d c9 82 10 be a1 ef d9 3d f4 53 2c 3e
       0.03125103 -0.1411239 0.10641409 0.168289
0003c0 ad d1 0e be 4d 9e 15 be 0a 55 a3 3c 2c 7d 12 be
       -0.13947172 -0.14611168 0.01993801 -0.14305562
0003d0 bd 4e 18 3e e7 17 20 3e da df 38 be 55 ed ed 3d
       0.14873786 0.15634118 -0.18054143 0.11617533
0003e0 b7 cd 84 3d db 0b 23 be 23 3e c2 bd 42 03 5b 3d
       0.064845495 -0.15922491 -0.09484508 0.053469904
0003f0 97 2b d7 3d 42 e8 0c 3c 59 5b 33 3b 7b b6 2e bd
       0.10506361 0.008600296 0.002736768 -0.042654496

getdensity.emb_neighnn.net.0.bias f4 [64]
000000 3e 5e 92 3d 3b be 74 bc 54 4e 6d 3d 58 2d 29 bd
       0.071468815 -0.014937933 0.057936028 -0.04130301
000010 65 c3 ad 3c de 6f 13 be 6d d8 28 3e 4c 54 bb 3c
       0.021211335 -0.14398143 0.1648881 0.022867344
000020 fa b3 45 3e 7d b4 6d bd 5c a0 22 3e 97 c1 88 bc
       0.19306937 -0.058033455 0.15881485 -0.016693873
000030 df c0 aa ba 12 5e f4 3d 3a 48 05 3d 5e 6e d5 bd
       -0.0013027451 0.11932005 0.032539584 -0.104214415
000040 a8 d5 cd 3c 59 ec d5 bd f6 84 cc 3d 29 12 97 39
       0.025126293 -0.1044547 0.09986298 0.00028814495
000050 3b 69 8e 3c 4c 41 22 bd 6e c9 f2 3d 0c e8 21 3e
       0.017384162 -0.039613053 0.11854826 0.15811175
000060 1c e2 02 be 62 0e 1d 3d 38 47 91 bd 4d 96 12 3e
       -0.12781566 0.038343795 -0.07093662 0.14315148
000070 d2 bf 13 be 1a cb 6d 3d e0 0a 61 3d c2 e3 5c 3d
       -0.14428642 0.05805502 0.05494201 0.053928144
000080 37 47 92 3c 5a 2f 4d bd 43 20 a7 bc fc a9 78 bd
       0.017856224 -0.050093986 -0.020401126 -0.060708985
000090 a9 4d 08 3e 0e a4 13 3d 92 53 3f 3b 6c bf 20 3e
       0.13310875 0.036045127 0.00291941 0.15698022
0000a0 23 29 e5 bd 99 66 ee 3d 55 d0 0f be 3a 48 ba 3c
       -0.11189487 0.11640663 -0.14044316 0.022739518
0000b0 b4 82 d7 bd 35 e9 90 bd b0 c2 ab bb 3e e6 22 3e
       -0.105229765 -0.07075731 -0.0052417144 0.15908143
0000c0 6b 1e d2 bd 32 38 c6 3d 02 16 be bd 51 66 eb bd
       -0.10259708 0.09678687 -0.092815414 -0.11494125
0000d0 5b c2 80 3d 50 d3 3f 3d 9e 62 9e 3c 1b e8 7f bd
       0.0628707 0.046832383 0.019334134 -0.062477212
0000e0 af df 81 3d d4 7e 91 3d 70 f7 31 be f1 ac 0c be
       0.063414924 0.07104269 -0.17379546 -0.13737847
0000f0 35 d8 8a 3d b4 f8 0a be 5e b3 12 be 77 8c 26 bd
       0.067795195 -0.13571435 -0.14326236 -0.0406613

getdensity.emb_neighnn.net.4.alpha f4 [1, 64]
000000 70 64 89 3f ee c2 88 3f 86 e7 87 3f 2e c4 8b 3f
       1.0733776 1.0684488 1.061753 1.0919244
000010 90 e5 88 3f 25 c3 a1 3f 5e f1 86 3f a1 74 99 3f
       1.0695057 1.2637678 1.054241 1.1988717
000020 a1 70 93 3f 42 b7 94 3f 5c e6 8d 3f ad 3a 99 3f
       1.1518747 1.1618426 1.1085925 1.1971031
000030 3d b6 8c 3f 4c 7d 8e 3f a3 4e 99 3f 7c 23 8b 3f
       1.0993115 1.1131988 1.1977123 1.0870204
000040 e2 11 8c 3f c1 93 8c 3f 7c f5 92 3f f8 0d 9b 3f
       1.0942957 1.0982591 1.1481166 1.2113638
000050 f4 62 89 3f 56 1c 87 3f 92 8b 88 3f 02 04 88 3f
       1.0733323 1.0555522 1.0667593 1.0626223
000060 df 2f 87 3f 28 24 87 3f df 0e 88 3f 1d 10 99 3f
       1.0561484 1.0557909 1.0629538 1.1958042
000070 c5 b3 87 3f e4 0a 89 3f 78 64 8e 3f 1f 6a 98 3f
       1.0601736 1.0706449 1.1124411 1.1907386
000080 cd ce 9a 3f 40 1e 88 3f 40 f3 87 3f 99 c2 8c 3f
       1.209436 1.0634232 1.0621109 1.0996886
000090 79 33 8a 3f 80 9d 88 3f bf 2f 99 3f 7b 63 8d 3f
       1.0796958 1.0673065 1.1967696 1.1045984
0000a0 0e 76 8e 3f 64 3b 8a 3f 60 49 8b 3f d1 25 92 3f
       1.1129777 1.0799375 1.0881767 1.1417791
0000b0 60 ea 86 3f a5 e2 91 3f 9e 96 87 3f fe 85 8b 3f
       1.0540276 1.1397291 1.059284 1.0900266
0000c0 59 ef 8e 3f e7 75 8d 3f f3 5f 88 3f e7 81 89 3f
       1.1166793 1.1051606 1.0654281 1.0742768
0000d0 50 50 9a 3f d3 eb 92 3f 9f 11 8a 3f b9 0a 88 3f
       1.205576 1.1478218 1.0786628 1.0628272
0000e0 2c bc 98 3f 00 53 8e 3f cf e7 87 3f 66 08 88 3f
       1.1932425 1.111908 1.0617617 1.0627563
0000f0 de 91 89 3f 09 6d 88 3f 1a e8 87 3f 40 f5 95 3f
       1.074764 1.0658275 1.0617707 1.1715469

getdensity.emb_neighnn.net.4.beta f4 [1, 64]
000000 2f 4c a6 3d 6c 52 9a 3d c2 e1 8b 3d 71 d3 c4 3d
       0.081199996 0.07535252 0.06830169 0.09610642
000010 4b 59 9c 3d 97 0a 8e 3e 99 00 6c 3d 26 cb 47 3e
       0.07634219 0.27742454 0.057617757 0.19511089
000020 d6 bd 1e 3e 7f 89 23 3e 50 e7 f1 3d 45 1f 45 3e
       0.15502104 0.1597042 0.118116975 0.1925021
000030 5d 00 cf 3d 2f 5e fb 3d 82 f2 4a 3e 3b 06 b6 3d
       0.10107491 0.122738235 0.19819072 0.08887907
000040 1b 9f de 3d 50 40 cd 3d 30 61 1b 3e 6a 0d 55 3e
       0.10870191 0.10022032 0.15173793 0.20805898
000050 29 75 a1 3d e7 47 84 3d 65 aa 97 3d dc 45 8d 3d
       0.07883675 0.06459027 0.07405547 0.0689809
000060 96 49 82 3d a8 c5 79 3d e1 bc 90 3d 87 2c 4b 3e
       0.06361692 0.060979515 0.07067276 0.19841205
000070 9b 96 8c 3d 7a 57 93 3d 34 d8 f9 3d 8b ec 46 3e
       0.06864663 0.07194419 0.121994406 0.19426171
000080 50 e5 52 3e dc da 91 3d bf f6 8c 3d e0 ef cd 3d
       0.20595288 0.07121822 0.068830006 0.10055518
000090 eb 43 b4 3d d2 ba 8e 3d 56 94 4f 3e 4e bb e9 3d
       0.08802017 0.06969227 0.2027143 0.11412679
0000a0 1d 18 e4 3d 6f d1 b4 3d b3 ee bc 3d 4b 24 12 3e
       0.11137412 0.08829009 0.09225216 0.14271657
0000b0 91 a8 80 3d 9b 5b 0d 3e a7 b5 8a 3d c7 e4 ca 3d
       0.062821515 0.13804476 0.06772929 0.09906917
0000c0 0c 74 ef 3d a6 99 da 3d 72 d3 94 3d 25 57 a2 3d
       0.11692056 0.10673837 0.072668925 0.07926778
0000d0 f2 88 50 3e d1 a2 17 3e ca 0b b2 3d 34 52 90 3d
       0.2036474 0.14808203 0.08693655 0.07046929
0000e0 ed ba 41 3e 45 c0 e4 3d ea 01 99 3d 1b 1c 90 3d
       0.18918963 0.11169485 0.07471068 0.07036611
0000f0 70 45 a9 3d 5e b5 95 3d d5 ce 8f 3d d2 df 2c 3e
       0.08265197 0.07309984 0.07021872 0.16882256

getdensity.emb_neighnn.net.5.weight f4 [24, 64]
000000 eb b9 d8 3d ce 9f d3 bd 24 78 cb 3d f9 c1 dd bd
       0.10582336 -0.10333215 0.099350244 -0.10828013
000010 ef 66 d4 bd ee a3 9b bd 95 8d ae 3d 54 1b eb bd
       -0.103711955 -0.075996265 0.085230984 -0.11479822
000020 26 ef 5f 3d fe 9c cb bd b9 9c e3 3d 9e cb c9 bd
       0.05467143 -0.09942053 0.11113877 -0.0985329
000030 2f 8a e0 bd dd 3f e7 3d 22 05 69 bc 68 32 df bd
       -0.109638564 0.11291478 -0.014222415 -0.10898286
000040 77 54 27 3d 66 5e e0 bd af 08 59 3d f8 ea 00 be
       0.040852036 -0.10955505 0.052986797 -0.12589633
000050 2b 2e d8 bd a7 fb bf bd eb 47 d1 3d 76 9a cd 3d
       -0.10555681 -0.09374171 0.102187954 0.10039227
000060 b9 31 af bd 42 63 bf 3d a8 2d ce bd d7 0c bb 3c
       -0.08554406 0.09345104 -0.10067302 0.022833271
000070 32 30 ca bd 2f e7 94 3d 03 97 e7 3d b1 3e 4c 3d
       -0.09872474 0.07270657 0.113081 0.049864475
000080 f1 3a fb bd 78 d3 ce bd a2 48 cb 3d 4c 3e e1 bd
       -0.122671016 -0.10098928 0.09925963 -0.1099821
000090 08 ff dd 3d d8 e8 98 3d 88 e1 23 bd d0 e7 e1 3d
       0.10839659 0.074662864 -0.040010005 0.11030543
0000a0 94 01 e1 bd 84 2a de 3d 1a 0c de bd c1 e3 b0 bd
       -0.10986629 0.10847953 -0.10842152 -0.086371906
0000b0 37 da b3 bd e8 69 d3 bd f1 ab c8 bd ab 0c e2 3d
       -0.087818556 -0.103229344 -0.0979842 0.110375725
0000c0 af b8 dd bd a0 19 04 3d 4b 21 d1 bd dd f5 d8 bd
       -0.10826241 0.032251 -0.10211428 -0.1059377
0000d0 5c 93 e2 3c 9a f2 bd bd fd f1 dc 3d 33 f5 cd bd
       0.027658157 -0.09274788 0.10788343 -0.10056534
0000e0 3f a0 d4 bd 2e f5 7e 3d 5c 98 a0 bd f9 84 cb bd
       -0.10382127 0.06224554 -0.0784156 -0.09937472
0000f0 bc 3b da 3d c3 c0 d1 bd 72 a9 cc bd 71 8c c4 bd
       0.10655925 -0.102418445 -0.09993257 -0.095970996
000100 fe 55 9f 3b 2f 0f 02 bb aa cf 60 bb 21 c9 7f bc
       0.004862546 -0.0019845476 -0.0034303465 -0.015611918
000110 84 53 28 bb b2 cb 12 be 50 60 65 bc ab fa 3a bd
       -0.0025684545 -0.14335516 -0.0140000135 -0.04564921
000120 23 75 a1 bc f4 ba 0a bd 08 10 cd 3c 16 0a 59 bd
       -0.019709175 -0.0338697 0.025032058 -0.052988134
000130 69 6c a2 bc a0 a4 e0 3c d9 b6 09 3e 5b 0d 50 bc
       -0.019827085 0.02742225 0.13448657 -0.012698497
000140 0b 60 d4 3c c0 7f 9d bc 0d e5 9a bc b5 8c 1b bd
       0.025924703 -0.019225955 -0.018908048 -0.037975986
000150 0e 00 ac bb 96 24 f0 3b 96 8c 08 39 83 a3 1b bb
       -0.00524903 0.00732858 0.00013022343 -0.0023748584
000160 8e 03 28 3c c6 92 10 bc 95 9d 99 3a bf 0f 05 3e
       0.010254754 -0.008824056 0.0011719937 0.12994288
000170 ef a5 43 3b 8a 83 98 bc 7e 28 dd 3c 61 fe 06 3e
       0.0029853543 -0.01861741 0.026996847 0.13182975
000180 22 69 26 bd 41 c0 2b 3a 86 d2 63 bb 08 91 a3 bc
       -0.040627606 0.00065517804 -0.0034762933 -0.019966617
000190 06 64 0c 3c 0b 49 93 bc a9 75 87 bd 80 4e bb 3c
       0.008568769 -0.017979166 -0.06614239 0.02286458
0001a0 dc d5 e3 bc ae f4 0e 3c f3 c4 5d bc e0 07 f2 bc
       -0.027811937 0.008725328 -0.013535726 -0.02954477
0001b0 9f 7e 3c 3c 9a b7 34 bd 91 4a 79 3b d2 f8 6f 3c
       0.011504798 -0.04412041 0.003803883 0.014646726
0001c0 05 1e f7 bc 4b d9 aa bc 23 37 d9 b9 05 d1 be bb
       -0.030165682 -0.020855566 -0.00041430545 -0.005823257
0001d0 d2 49 13 3e 07 58 f7 bc b7 b6 03 3c 2d 70 ba 3a
       0.14383629 -0.030193342 0.008039168 0.0014224105
0001e0 a7 6e 47 bd 32 77 a5 bc bb 3c 76 3c f9 bb 40 3b
       -0.04868951 -0.020198438 0.015029128 0.0029408915
0001f0 cb b9 ba 3b 25 62 87 ba 45 d7 d1 3a 25 bc 23 bd
       0.005698418 -0.0010328932 0.001600959 -0.03997435
000200 50 42 b9 3d 2f e2 ad bd 99 f8 99 3d a2 88 d7 bd
       0.09045851 -0.08490407 0.07518119 -0.105241075
000210 97 47 b0 bd 5c 60 7a be 5f 3b 3c 3d 32 f3 2b be
       -0.08607405 -0.2445082 0.04595506 -0.1679199
000220 0d ed 5b bb dc ee fa bd bd 29 ef 3d d9 5b 26 be
       -0.0033558041 -0.1225259 0.11677883 -0.16245975
000230 ca 1e e1 bd 46 7d f4 3d 17 a9 31 3e 6a 2e cf bd
       -0.10992201 0.119379565 0.17349659 -0.10116275
000240 86 4d 89 3d 3b bd df bd e9 16 94 ba ae f6 3d be
       0.067042395 -0.10924765 -0.0011298332 -0.18551132
000250 03 23 b8 bd 1b e8 81 bd b7 cb a8 3d 45 c1 9d 3d
       -0.08991053 -0.06343099 0.082419805 0.07702879
000260 6f ab 56 bd 06 11 7f 3d c7 96 9f bd 3a ee 2e 3e
       -0.052409586 0.062272094 -0.0779243 0.17083064
000270 81 df 96 bd 5f de be 3c f6 b2 f3 3d 54 d0 25 3e
       -0.07366849 0.023299394 0.118993685 0.16192752
000280 6a a3 3a be 16 e8 a0 bd f5 31 9a 3d 1b 5e e1 bd
       -0.182264 -0.07856767 0.0752906 -0.11004277
000290 6b 8e c5 3d 9c 5c d6 3c 77 52 22 be c4 79 ea 3d
       0.09646305 0.026167206 -0.1585177 0.11449006
0002a0 93 69 f1 bd bd 06 c6 3d 55 f0 d1 bd d0 f4 cf bd
       -0.11787715 0.09669254 -0.10250918 -0.10154116
0002b0 ab 97 53 bd d3 2d 07 be 26 ac 93 bd 5e ca d6 3d
       -0.051658314 -0.13201074 -0.07210569 0.10487817
0002c0 77 19 f6 bd 8c d9 ba bc dc 6f a6 bd e3 d1 b9 bd
       -0.12016576 -0.022808813 -0.08126804 -0.09073236
0002d0 5b d1 49 3e 8c 81 d9 bd e2 b5 c3 3d 27 23 9f bd
       0.19708769 -0.10620412 0.09556176 -0.07770377
0002e0 c2 69 23 be 85 f7 ec 3b 10 06 12 bd ad 46 9b bd
       -0.15958312 0.007231655 -0.035650313 -0.0758184
0002f0 72 18 bc 3d 8c 6b a7 bd 56 29 9c bd f3 e8 08 be
       0.0918435 -0.0817481 -0.07625072 -0.13370113
000300 8f 89 6f 3e ba bd 6f be 22 c3 6f 3e e7 d7 62 be
       0.23392318 -0.23412219 0.23414281 -0.22152673
000310 5b eb 6e be d7 2a a3 bd 8f 86 70 3e 2b ec 17 bd
       -0.23331968 -0.079671554 0.2348883 -0.03709046
000320 79 74 67 3e fb 62 34 3d bb fc 5d 3e c8 6f 0d bd
       0.22603025 0.044039708 0.2167844 -0.03453043
000330 d9 aa 61 be ef b6 60 3e 34 d9 47 3d 74 5f 6b be
       -0.2203783 0.21944784 0.048791125 -0.22985631
000340 79 37 18 be e2 44 62 be 37 56 5e 3e 4e ac 6a bd
       -0.14864911 -0.22096589 0.21712576 -0.05729323
000350 80 ce 70 be e1 44 75 be d9 04 6e 3e b5 ed 71 3e
       -0.23516273 -0.23952056 0.23244037 0.23625834
000360 8e 8a 64 be e2 b0 70 3e ea d3 73 be 33 ef 57 3d
       -0.2231848 0.23504975 -0.23811308 0.052718353
000370 e8 21 75 be dc c7 6d 3e e2 af 61 3e 64 18 83 3d
       -0.23938715 0.23220772 0.2203975 0.064011365
000380 65 a7 5b bd f6 93 74 be c9 bb 6e 3e 3b ae 62 be
       -0.053626437 -0.23884568 0.23313822 -0.22136776
000390 ff 22 70 3e 0c 94 6d 3e e2 de 6c bd 79 f1 5d 3e
       0.2345085 0.23201007 -0.057829745 0.21674146
0003a0 d9 57 59 be 0f 04 70 3e b9 fe 66 be 20 e4 b4 3d
       -0.21224917 0.23439048 -0.22558106 0.08832574
0003b0 b8 5e 74 be 86 cd 31 be bb ca 74 be ed 71 6a 3e
       -0.23864257 -0.17363557 -0.2390546 0.22895022
0003c0 ad b0 51 be 9b c6 5d 3e 98 cd 72 be c4 0c 71 be
       -0.20477553 0.21657793 -0.2371124 -0.23540026
0003d0 ff 66 7a 3d 1c 8c a1 3d 33 5d 6f 3e f2 24 73 be
       0.06113338 0.07888052 0.23375396 -0.23744562
0003e0 d7 f9 ed bc d1 bb 6c 3e ad 6d 74 be 74 75 6e be
       -0.029049797 0.23118521 -0.23869963 -0.23286992
0003f0 f7 64 70 3e 2d 73 74 be 2a 85 75 be 15 4b 6d 3c
       0.23476015 -0.23872061 -0.2397658 0.014483233

getdensity.emb_neighnn.net.5.bias f4 [24]
000000 75 a3 dd 3d 9f 10 8d 3b 80 a6 b3 3d c5 40 78 3e
       0.108221926 0.00430496 0.08771992 0.24243458
000010 23 9b ff bc 34 28 b3 3d ec 48 7b 3d 13 cf 94 bd
       -0.031201905 0.087479025 0.06134884 -0.07266059
000020 f9 c6 82 3f fd 4b 65 3f f4 e2 84 3f 60 e5 88 3f
       1.0216972 0.89569074 1.0381761 1.0695
000030 81 e3 79 3f 72 00 8b 3f 50 b6 81 3f f3 c0 83 3f
       0.9761277 1.0859511 1.0133762 1.0293258
000040 2c dc ad 3e 00 97 a4 3f 72 12 25 3f 79 75 c9 3d
       0.3395704 1.2858582 0.6448127 0.09836859
000050 e2 9f 02 40 12 27 13 3f 47 0c 02 40 10 ea ed 3e
       2.0410085 0.5748149 2.0319993 0.46467638

getdensity.emb_centernn.net.0.weight f4 [64, 118]
000000 d8 b9 1a bc 7a 60 96 3d aa e2 98 bd ee 46 c3 3d
       -0.009443723 0.0734262 -0.07465108 0.09535013
000010 61 63 d2 bd 26 03 47 3d 0e 75 84 3c cb 1a da 3d
       -0.10272861 0.048586987 0.016169097 0.106496416
000020 fc 49 31 bc 9e ff 35 3e d7 1c ae bc 3a c4 13 be
       -0.010820862 0.17773291 -0.021253986 -0.14430323
000030 93 98 88 3d 48 07 13 be aa 03 90 3c 01 5d 26 be
       0.06669726 -0.14358246 0.017579872 -0.16246416
000040 a6 4e aa 3d 4a 90 16 3e 9c 8b 30 bc 36 7c a8 bd
       0.08315782 0.1470348 -0.010775473 -0.08226816
000050 6b 83 ab 3d c5 2a 96 3c cf be 1b be 4c a3 0f 3d
       0.08374675 0.018330941 -0.15209506 0.03506784
000060 68 65 f1 3d ef 01 c9 bd de e3 f4 3d 7f 35 14 3e
       0.1178692 -0.09814822 0.11957525 0.14473532
000070 8e a8 15 be 44 62 c5 bd 05 45 d8 bc 25 a5 aa 3d
       -0.1461508 -0.09637883 -0.026400099 0.0833228
000080 1f 6c 8a 3d f2 b3 80 bd bc 11 46 bd 0f c9 03 3e
       0.06758904 -0.06284322 -0.048356757 0.12869667
000090 11 93 8a 3d f9 04 c8 bc 93 f4 e8 bd 03 a4 06 bc
       0.06766332 -0.024416434 -0.11374774 -0.008217814
0000a0 8d 72 08 be df 22 8c 3d 18 6e 09 3e e7 9a df 3d
       -0.13324948 0.06842589 0.13420904 0.10918217
0000b0 71 59 1b 3c d7 66 b5 3d d0 cf a5 3d 2e a5 7e 3b
       0.009481774 0.08857506 0.08096278 0.003885578
0000c0 6b 22 63 bc d3 ce 25 be 60 14 2d bd 65 ad 11 bc
       -0.013863186 -0.16192178 -0.04225576 -0.008891438
0000d0 e1 2b 90 3c 9e b5 ba 3c d3 1f b0 bd 60 9b 9d bd
       0.017599048 0.02279168 -0.0859982 -0.07695651
0000e0 ef b0 9d bd be 20 4f bd 65 87 f5 bd 20 79 b3 bc
       -0.07699763 -0.050568335 -0.11988715 -0.021908343
0000f0 47 b7 a1 3d ef 4e 86 3d ac 42 e0 bd f3 6a 24 bd
       0.078962855 0.06558024 -0.10950217 -0.040141057
000100 45 25 66 3c 21 a8 8c 3d 03 f7 12 be 7e a8 ee 3d
       0.014046972 0.068680055 -0.1435204 0.11653231
000110 7f a2 0c 3e 5a 57 b6 3d 65 b2 4a 3b c9 3c 29 be
       0.13733862 0.0890338 0.0030929085 -0.16527094
000120 19 fd c0 3d a5 5f e4 3d d7 b1 c9 bd 2f 78 5c 3d
       0.094232745 0.11151055 -0.098483734 0.053825554
000130 67 0b 2d 3d c4 84 2d bd cf 2b 28 3d 2e 78 b3 3d
       0.042247202 -0.042362943 0.041057404 0.08763157
000140 c0 a1 24 3e 39 ef aa 3d c3 ac 25 be 8e 2e a8 bc
       0.16077328 0.08346409 -0.16179185 -0.020530012
000150 01 6c c4 bd 1a 46 1e be 55 4a 4e bd fa 22 ec bd
       -0.095909126 -0.15456429 -0.050363857 -0.11530109
000160 5b d1 28 3e 62 09 93 bd 09 b0 be bc 57 c0 d8 bd
       0.16486113 -0.07179524 -0.0232773 -0.10583561
000170 66 c5 e1 bc f0 48 3d bd 4f 49 2a 3e f2 69 fa bd
       -0.027559947 -0.046212137 0.16629528 -0.12227239
000180 15 9b ea bd 3f a3 06 3e a6 c8 0d be 84 83 0a be
       -0.11455361 0.13148211 -0.13846073 -0.13526732
000190 4f d4 86 3c da b5 75 3d 25 0c 5a bd 34 8a 35 be
       0.016458659 0.05998788 -0.05323424 -0.17728502
0001a0 4b 43 96 3d 50 d6 4b bd bb 31 d0 3d c0 43 c4 bc
       0.07337054 -0.04976493 0.10165735 -0.023958087
0001b0 93 9e 28 3e 24 9a ff 3d f9 80 67 bb aa 1d 28 3e
       0.16466741 0.12480572 -0.0035324676 0.16417566
0001c0 14 38 bd bd 5f e7 a5 3d 2e 2f 39 3e bb 77 98 3d
       -0.09239212 0.08100771 0.18084404 0.07444712
0001d0 09 a2 17 3e 2d e3 e5 bc f6 33 8b bd f6 a6 16 3d
       0.14807905 -0.028062427 -0.0679702 0.03678032
0001e0 72 ca 01 be c2 c0 e0 3c 2d e3 e4 3d bf bc b1 3d
       -0.12674883 0.027435664 0.11176143 0.086785786
0001f0 f8 dd 17 be 41 df 14 3e 6f 22 b7 bd 08 5c 00 be
       -0.14830768 0.1453829 -0.089421146 -0.12535107
000200 de 08 cf bb 8a d2 8a bc 7b 21 fe bd d6 59 0e 3e
       -0.0063181957 -0.016946096 -0.1240873 0.13901457
000210 c3 4b 03 be 95 92 10 be 61 ac 19 be 87 02 1a be
       -0.1282187 -0.14118417 -0.15007164 -0.15040027
000220 fc 6b 2d 3d 67 e0 a4 3c c3 f7 bb 3d 53 8b 02 be
       0.04233931 0.020126535 0.09178116 -0.1274846
000230 11 39 16 3e 29 c2 a3 3d 24 a8 0d be 25 da 1a be
       0.14670207 0.079960175 -0.13833672 -0.15122278
000240 e0 b8 ad bd 70 a1 fc bd 99 3c 8d bb 3c 7f ee 3b
       -0.08482528 -0.12335479 -0.0043102023 0.007278351
000250 bb 52 c3 3d 77 b8 c1 bc f5 d8 20 3c c9 bd 1c be
       0.09537264 -0.02364753 0.009817352 -0.15306772
000260 dd 32 db 3d 12 62 d4 bc f4 29 f2 bd d6 f6 ae 3d
       0.10703061 -0.02592567 -0.11824408 0.08543174
000270 f1 68 9d bd 2d 37 d9 3d 03 c9 11 be 8a 2d e2 3d
       -0.076860316 0.10606227 -0.14236836 0.11043842
000280 7f 0d bd 3d 12 f9 56 bc 5e 5a ee 3d a5 63 24 bd
       0.0923109 -0.013120906 0.1163833 -0.04013409
000290 4a 72 4b 3d d0 16 cc 3b 37 19 f0 bc 14 bc 1f 3b
       0.04966954 0.0062283054 -0.029308898 0.0024373578
0002a0 85 a9 cb bd cc 2f 0d be e9 60 07 bd 31 3d 12 be
       -0.09944443 -0.13787764 -0.033051405 -0.14281155
0002b0 a8 2d 59 b9 b5 38 e7 bb e1 57 6c bd 8b f6 0b 3c
       -0.00020711741 -0.0070563206 -0.057700995 0.008542667
0002c0 ab 0b e8 bd 1d da 5a 3d 4c 2c 21 be bd 4d d5 bd
       -0.113303505 0.053430665 -0.15739554 -0.10415218
0002d0 cb bd a1 3d b7 48 2d bd 9a a8 33 3c 67 16 e2 bd
       0.07897528 -0.042305674 0.010965491 -0.11039429
0002e0 55 73 16 be ae bd a3 bd 93 98 ff bd 10 55 7a 3d
       -0.14692433 -0.07995163 -0.12480273 0.06111628
0002f0 2b 38 b3 bc 0d f5 cc 3c 53 f3 f0 bd 78 57 88 bd
       -0.021877369 0.025019193 -0.117651604 -0.06657308
000300 32 0f 00 bd 83 e2 44 3d ef 51 76 bd 3d c8 0c 3e
       -0.03126449 0.04806758 -0.06013673 0.1374826
000310 6e 8e 05 be 8a e3 e0 3d 08 90 c6 3b dc a8 01 bc
       -0.13042614 0.109809 0.0060596503 -0.007913794
000320 84 1d 02 bc 59 a5 16 3e bf bc 32 3d b2 8f 23 3e
       -0.007941607 0.14711513 0.043637034 0.15972784
000330 c7 ea 36 3e 38 51 f7 bc 29 93 02 3e 0e 3c 16 be
       0.17862998 -0.030190095 0.1275145 -0.14671347
000340 4a 33 27 3c 09 d2 27 be f2 03 96 bd 93 e8 8b bd
       0.010205099 -0.16388716 -0.07324971 -0.068314694
000350 90 e3 e5 3d b0 30 35 3e 3d 80 39 be 04 09 cb bd
       0.11225045 0.17694354 -0.18115325 -0.09913829
000360 7f bc 28 be 2d 1f 10 3e 50 59 12 3e ef 75 ba bd
       -0.16478156 0.14074393 0.14291883 -0.09104525
000370 c6 56 aa bd 0d 67 e8 bd 7f 62 b4 bd 81 4f 84 bd
       -0.08317332 -0.113477804 -0.08807849 -0.06460477
000380 64 c3 ed 3d c8 d7 90 3c 67 f2 85 3d 2e bc ba bd
       0.116095334 0.017681018 0.06540375 -0.09117924
000390 9e 42 4c 3d 8e a6 df 3d 59 ce a1 bd 94 0d 25 be
       0.04986822 0.1092044 -0.07900686 -0.16118461
0003a0 a2 33 39 be 00 89 38 be 1d 88 c4 3d 91 11 39 3e
       -0.18086103 -0.18021011 0.09596274 0.18073107
0003b0 75 e4 01 3d 69 04 27 be 4a 27 21 3e 22 9b 2c 3e
       0.031712014 -0.16310276 0.15737644 0.16856053
0003c0 80 85 de 3c e9 da 1c 3e ce ae 36 3e 6c 8d d6 bd
       0.027163267 0.15317883 0.1784012 -0.10476193
0003d0 bb f5 fe bd 1d 3b d1 3b 87 15 00 3e 1f 42 32 bd
       -0.12449213 0.0063852207 0.12508212 -0.04352009
0003e0 83 a3 8b bd 50 b7 96 bd dd ae 4f bd cb f7 98 bd
       -0.06818297 -0.07359183 -0.050703872 -0.07469138
0003f0 84 b7 15 be ab e1 df bd ce cc 1f 3e a8 60 0f 3e
       -0.14620787 -0.109317146 0.1560547 0.14001715

getdensity.emb_centernn.net.0.bias f4 [64]
000000 41 82 e8 3d 28 8d a9 3d 53 cb e1 3d b3 50 7a bd
       0.11352969 0.082788765 0.11025109 -0.061112117
000010 38 bf 03 3c 3f c6 5b bd eb 51 64 3d d2 77 a8 bb
       0.008041196 -0.05365586 0.055742186 -0.005141237
000020 62 23 a8 3d 89 3d b0 3d 26 34 95 bd 8d 37 8f bd
       0.08209874 0.08605487 -0.07285337 -0.06993017
000030 64 81 84 3d 43 d0 e3 bd a6 32 dd bd 91 db 5c 3d
       0.06469992 -0.11123707 -0.10800676 0.053920332
000040 32 9f 9c bd 80 10 ba bd 2c 82 a5 bb 80 0f e9 bd
       -0.076475516 -0.090851784 -0.005050918 -0.113799095
000050 2b 5b 5d bd 6a 85 ee 3d f1 81 19 bd 74 af 63 3d
       -0.054042023 0.116465405 -0.037477437 0.055587247
000060 6b 78 57 3d c4 b8 84 bc 3a 5c f0 bc 5b 34 16 bc
       0.052605074 -0.016201384 -0.029340852 -0.009167756
000070 a5 80 1b bd a5 a0 b2 bd 1a 00 96 bd fb 28 ad 3d
       -0.03796448 -0.08722047 -0.07324238 0.08455082
000080 32 68 a0 bd f9 c2 1f 3d af b7 91 bd ca be cd 3c
       -0.07832374 0.0390043 -0.07115113 0.02511539
000090 a9 d7 37 bd f4 5a 10 3d 3e 34 53 3d c7 ab f3 3d
       -0.044883404 0.03524299 0.051563494 0.11897998
0000a0 10 a8 de bd c8 eb 43 bd 19 49 d2 3d 70 8a cb 3c
       -0.10871899 -0.04783228 0.102678485 0.024846286
0000b0 16 fe 69 ba 1f ef 87 bd ce e1 bf 3d 7c c6 ca 3d
       -0.00089261064 -0.066374056 0.09369241 0.09901139
0000c0 b2 50 d2 3d a4 f1 e1 3c 9d f8 84 3d 2b 73 83 3d
       0.10269298 0.027581044 0.06492732 0.06418451
0000d0 61 39 e5 3d af 47 58 3d 9c d8 96 3d 52 0d 1f 3d
       0.11192585 0.052802738 0.07365534 0.038831063
0000e0 63 d6 82 3d d1 21 59 bd a3 dc db bd 3b 76 a7 3d
       0.06388547 -0.053010765 -0.107354425 0.081768475
0000f0 9e fb c1 3d f8 f4 b2 3d 3c 0c c0 3a 50 05 aa 3d
       0.0947182 0.0873813 0.0014652084 0.083017945

getdensity.emb_centernn.net.4.alpha f4 [1, 64]
000000 95 41 86 3f e7 08 7f 3f f1 c8 81 3f 31 6c 82 3f
       1.0488764 0.9962296 1.0139447 1.0189267
000010 5a 86 83 3f 4b f5 85 3f 9b 9f 84 3f eb 30 85 3f
       1.0275376 1.0465482 1.0361208 1.0405554
000020 fc 0c 85 3f 10 09 85 3f 39 c8 81 3f ef d9 84 3f
       1.0394588 1.0393391 1.0139228 1.0379008
000030 fe 1d 82 3f 2f b4 83 3f 8e b2 93 3f 70 11 85 3f
       1.0165403 1.0289363 1.1538866 1.0395947
000040 5c f7 85 3f a6 7a 81 3f 2b 88 84 3f 32 69 82 3f
       1.0466113 1.0115554 1.0354055 1.0188353
000050 bf 5a 8f 3f 17 fe 84 3f aa 03 83 3f e9 cb 81 3f
       1.1199569 1.0390042 1.0235493 1.0140353
000060 7b cb 81 3f 26 80 84 3f 10 76 85 3f 96 bd 86 3f
       1.0140222 1.0351608 1.0426655 1.0526607
000070 e5 35 8f 3f 24 af 85 3f 76 e0 81 3f f6 fa 7d 3f
       1.1188322 1.0444074 1.0146625 0.9921106
000080 f0 6c 89 3f ce 52 90 3f d3 6c 84 3f 89 f4 90 3f
       1.073637 1.127527 1.034571 1.1324626
000090 05 dd 7d 3f f9 c8 81 3f 43 d0 83 3f 32 63 83 3f
       0.99165374 1.0139457 1.0297931 1.0264647
0000a0 53 ab 84 3f ef d2 83 3f 3b 32 84 3f 9f d9 8f 3f
       1.0364784 1.0298747 1.0327829 1.1238288
0000b0 49 d1 85 3f 37 0e 82 3f fa 5b 88 3f e3 21 82 3f
       1.0454494 1.0160588 1.0653069 1.0166591
0000c0 32 63 83 3f 42 e8 82 3f 22 ee 7d 3f 9b 9f 84 3f
       1.0264647 1.022713 0.99191487 1.0361208
0000d0 87 5a 8d 3f 6d ce 81 3f ec af 81 3f 44 93 82 3f
       1.1043252 1.0141121 1.0131812 1.0201192
0000e0 8c b4 85 3f 20 9a 8d 3f 33 d0 81 3f c5 17 91 3f
       1.0445724 1.106266 1.0141662 1.1335379
0000f0 82 ba 89 3f fc f7 81 3f 4d 58 82 3f 14 09 85 3f
       1.0760043 1.0153804 1.0183197 1.0393395

getdensity.emb_centernn.net.4.beta f4 [1, 64]
000000 cd 73 62 3d 2d 55 23 3b 63 a2 95 3c 52 62 d0 3c
       0.055286217 0.0024922595 0.018265909 0.025437508
000010 a4 fe 02 3d 28 a8 5a 3d 9d cb 27 3d d9 e4 40 3d
       0.031981125 0.053383023 0.040965665 0.047093246
000020 03 73 34 3d 01 db 33 3d 5c f1 96 3c 54 da 2c 3d
       0.044054996 0.04391003 0.018425636 0.0422004
000030 f2 dd a4 3c 90 d3 0d 3d 12 9e 17 3e 67 17 3e 3d
       0.020125363 0.03462559 0.14806393 0.046409037
000040 4e f8 54 3d bb 35 92 3c 0a 3f 28 3d 91 8a c0 3c
       0.051994614 0.017847886 0.041075744 0.023503574
000050 a2 b8 ff 3d 3a af 3a 3d 43 f7 f2 3c 03 79 8e 3c
       0.12486388 0.045577265 0.02965892 0.017391687
000060 1a d9 91 3c cc d4 28 3d 3d 74 49 3d 84 a6 6e 3d
       0.017803717 0.041218564 0.04918312 0.05826427
000070 09 17 fd 3d 02 a8 4c 3d 45 ea ab 3c b5 18 9b bb
       0.12357909 0.049964912 0.020985732 -0.00473317
000080 5b 44 a2 3d ac d2 02 3e a2 fb 1e 3d 44 27 0b 3e
       0.07923194 0.12775677 0.038814195 0.13589197
000090 36 c8 90 bb 3d e7 94 3c 5c b3 14 3d 55 37 fc 3c
       -0.0044183983 0.01817667 0.036303863 0.030788103
0000a0 ab af 25 3d 52 9f 13 3d 60 90 18 3d 25 2d 04 3e
       0.040450733 0.03604061 0.03724706 0.12907846
0000b0 f9 ab 54 3d f3 6c b7 3c e6 68 93 3d 47 36 bd 3c
       0.05192182 0.022390818 0.07197742 0.02309717
0000c0 22 4b fc 3c c3 b1 ef 3c 56 8b 7c bb e5 f0 26 3d
       0.030797545 0.029259568 -0.00385352 0.04075708
0000d0 ca 66 e5 3d cd f9 8e 3c ef 31 a0 3c ce a9 c8 3c
       0.11201246 0.017453099 0.01955506 0.024495032
0000e0 57 5f 51 3d bc 27 dc 3d a1 44 97 3c a4 5a 0c 3e
       0.051116314 0.10749766 0.018465342 0.13706452
0000f0 bf 98 a8 3d 6b bf b2 3c be 4f cb 3c 2e f1 33 3d
       0.08232259 0.02181979 0.024818297 0.04393118

getdensity.emb_centernn.net.5.weight f4 [108, 64]
000000 72 22 38 3d 23 86 8b bd 67 78 a1 3d d1 86 80 3d
       0.044954725 -0.06812694 0.07884293 0.06275714
000010 64 80 d5 3d 07 f5 4a 3d ac 50 ed 3d fd 4f 4a 3d
       0.10424879 0.049550083 0.115876526 0.04939269
000020 a2 ad f3 3d ed 07 f4 3d 72 88 aa bd 24 b0 f4 bd
       0.11898352 0.11915574 -0.08326806 -0.11947659
000030 3d 2d b9 3d d9 e3 61 bd e3 40 2b bd d9 4a 59 3d
       0.09041832 -0.055148933 -0.041809928 0.053049896
000040 04 29 3c bd 03 ef 81 bd 45 81 e7 bd dd e5 c2 bd
       -0.045937553 -0.06344416 -0.11303953 -0.09516499
000050 04 33 69 bd 2d 4d 4d 3d 88 79 71 bd bf ae b0 3d
       -0.056933418 0.05012243 -0.05895379 0.0862708
000060 44 b5 aa 3d ae 63 59 bd b9 1c 47 3d b9 81 42 bd
       0.08335355 -0.053073578 0.048611376 -0.047486994
000070 4b f9 4e bd 89 44 41 bd 59 2d 81 bd bb ef 8e 3d
       -0.050530713 -0.0471845 -0.063074775 0.06979319
000080 53 01 3d bd 74 77 48 bd 93 0e eb bd 55 f0 49 3d
       -0.04614384 -0.048942044 -0.11477389 0.049301464
000090 e9 d2 8e bd 53 5b a7 3d fc 76 6f bd d3 8e cf 3d
       -0.06973822 0.081717156 -0.05846308 0.101346634
0000a0 a4 21 eb bd df a8 66 bd 35 f5 e1 3d 8c 6c 79 3d
       -0.11481026 -0.05631339 0.11033098 0.060894534
0000b0 50 2d 40 3d d5 f3 80 bd 00 cf 2f 3d 44 68 80 3d
       0.046918213 -0.06296507 0.04292202 0.06269887
0000c0 fa 3f d0 3d 2e 42 77 3d 4b 17 93 3d b7 b1 f0 3d
       0.101684526 0.06036585 0.07182177 0.117526464
0000d0 16 89 1d 3d 5d 4e ad 3d f3 36 82 3d 4b f6 c6 3d
       0.038460813 0.08462212 0.06358137 0.097149454
0000e0 d1 2d 47 3d 22 e3 3c bd 51 b1 ae bd be 9c 15 3d
       0.04862768 -0.04611505 -0.08529914 0.036526434
0000f0 bc ae 28 3d 2b 14 82 3d c3 4f 80 3d 18 eb f3 3d
       0.041182265 0.06351503 0.06265213 0.11910075
000100 bf 05 17 3d 2c 93 50 bd 7b 6b 7c 3d 05 15 40 3d
       0.036870714 -0.050921604 0.06162594 0.046895046
000110 ef 1b b0 3d 30 3e 2b 3d 17 41 d2 3d 54 25 1f 3d
       0.08599078 0.041807353 0.10266321 0.03885396
000120 b7 ef d0 3d 88 35 d2 3d 3b 72 86 bd ea c5 d0 bd
       0.10201972 0.102641165 -0.065647565 -0.10193999
000130 5c 0a 95 3d af a2 27 bd b9 4b ea bc fd 35 39 3d
       0.072773665 -0.04092663 -0.02860056 0.045217503
000140 63 bb 1a bd 7f 50 40 bd af 34 cf bd 3a 67 9e bd
       -0.037776362 -0.046951767 -0.101174705 -0.07734533
000150 2d bc 65 3d c9 1c 1e 3d be 5e 33 bd 4f d3 8d 3d
       0.05608766 0.03860167 -0.043791525 0.069250695
000160 e4 cd 87 3d b1 e8 26 bd ae 0c 23 3d ff df 1a bd
       0.066310674 -0.040749256 0.039807014 -0.037811276
000170 ac d6 cd 3c fc 85 1f bd 4a d0 3f bd fe f3 60 3d
       0.025126778 -0.038946137 -0.0468295 0.05492019
000180 0b 7f e0 bc cd 53 19 3c b0 11 c5 bd d5 0f 83 bc
       -0.027404329 0.009358359 -0.09622514 -0.01599876
000190 82 9a 5e bd 09 9c 84 3d 8b 56 3b bd 64 15 aa 3d
       -0.05434657 0.06475074 -0.04573683 0.08304861
0001a0 b5 fd c4 bd ab 4e 2d bd 9a 43 bc 3d e5 d2 92 bd
       -0.09618703 -0.04231135 0.091925815 -0.07169131
0001b0 36 46 1f 3d b8 ce 3f bd 4e fc f2 3c 93 e5 3e 3d
       0.038885318 -0.046828 0.029661324 0.046605658
0001c0 29 c5 aa 3d 9e 77 38 3d 71 4b 6b 3d a8 8b cb 3d
       0.083383866 0.04503595 0.057444993 0.09938747
0001d0 cf 0b 03 3c ff 0e 8a 3d e8 44 41 3d 96 a9 a2 3d
       0.007998421 0.067411415 0.047184855 0.07942502
0001e0 e3 57 28 3d 12 ba 2e bd 14 72 8a bd 1f ea 72 bc
       0.04109944 -0.04265792 -0.0676004 -0.014826327
0001f0 93 fb c5 3c 9a be 41 3d 38 6f 3f 3d 03 04 d1 3d
       0.024167811 0.047300912 0.046736926 0.10205843
000200 2a 81 e2 bc 51 6d a1 3c 58 d5 2c bc 11 f1 c3 bc
       -0.02764948 0.019705446 -0.010548912 -0.02391866
000210 2c 7d fc 3b 29 da d7 bc 94 80 4c 3c f7 66 ef bc
       0.0077053513 -0.026349144 0.012481827 -0.029223902
000220 a0 6e 9b 3c 7a c2 96 3c 6a 4d dd 3b c1 aa 8d bc
       0.018973649 0.01840328 0.0067536132 -0.017293336
000230 af 98 15 bb c9 eb dd 3c f0 16 5f 3c f8 29 dc bc
       -0.0022826602 0.02708997 0.013616309 -0.026875481
000240 f1 de df 3c e3 f3 b4 3c b3 96 32 bc 34 31 04 39
       0.027327986 0.02208895 -0.010900187 0.0001260683
000250 7c 9c e3 bc b3 51 f1 bc 1e 06 cf 3c 62 77 d8 bb
       -0.027784579 -0.029457903 0.025271472 -0.0066060284
000260 bb dc 08 bc 25 50 e7 3c 0d 2c ea bc e2 51 cb 3c
       -0.0083534075 0.028236458 -0.028585458 0.024819318
000270 d3 29 c4 bc 66 1b e3 3c da b9 ba 3c cd 01 98 bc
       -0.023945725 0.027723026 0.022793699 -0.018555546
000280 75 b1 91 3c b2 28 62 bc a6 ce 71 bc c8 92 8a 3c
       0.017784813 -0.013803648 -0.0147587415 0.016915694
000290 65 5c 98 3c e8 e8 1d bc 74 b5 d7 3c f3 71 e0 3b
       0.018598745 -0.009638049 0.02633164 0.0068495213
0002a0 ee 0a 8d bc 5f 5c df 3c a4 48 5a 3c e3 ae ed 3c
       -0.017217126 0.027265726 0.013322983 0.029014057
0002b0 1b 7c e7 bc 39 87 bd 3c 13 03 b9 bc 0a 1b bf bc
       -0.02825742 0.023135768 -0.022584474 -0.023328323
0002c0 c3 bf db 3b f9 46 cd bc b4 88 95 bc 0b a5 80 3c
       0.0067062094 -0.025058256 -0.018253662 0.015703699
0002d0 ae 7c 00 bc 0d 1a e4 bb 96 81 b8 bc 92 6c 34 3a
       -0.007842226 -0.0069611133 -0.022522729 0.00068826333
0002e0 56 b6 e1 bc 67 1c e1 3c a5 fb aa 3b ef 10 10 3c
       -0.027552765 0.027479364 0.0052179866 0.0087931
0002f0 07 9e 9a bc cc 90 bc bc ea d0 c2 bc 06 af 99 3c
       -0.018874181 -0.023018263 -0.023781259 0.018760215
000300 7e 82 6e bd d4 56 10 3d a2 81 ab bc 1e ed 25 bd
       -0.058229916 0.035239056 -0.020935837 -0.040509336
000310 55 a7 3e bb 2c 05 5f bd 56 33 a1 3a 59 ad 54 bd
       -0.0029091437 -0.05444829 0.0012298624 -0.05192313
000320 9c 8d 02 3c 0d 6f f0 3b 86 73 89 3c 2d 52 cb bb
       0.007968333 0.007337457 0.016778719 -0.0062048645
000330 4f 98 46 bc f8 77 34 3d 6b bd c7 3d 2c cb 51 bd
       -0.012121274 0.044059724 0.097529255 -0.05121915
000340 73 9d 64 3d b5 1f 1a 3d 14 af 31 3a 87 3e 28 3c
       0.055814218 0.037627894 0.0006778103 0.010268814
000350 1b cc dc 3d c8 01 50 bd 7f ec 2a 3d 68 36 84 bc
       0.107811175 -0.05078295 0.041729447 -0.016139224
000360 cc 1f 95 bc f4 a9 47 3d d5 94 5a bd 81 a3 66 3d
       -0.018203638 0.048746064 -0.053364594 0.056308273
000370 84 b2 f1 3d df 1b 5e 3d 44 57 1e 3d a8 1a f9 bc
       0.11801627 0.0542258 0.03865744 -0.030408219
000380 c2 c8 82 3d 0d 2a a1 3d a6 44 76 bb 87 fe a9 bd
       0.06385948 0.07869349 -0.0037577539 -0.083005
000390 b0 d6 01 3d bd 6d a1 bc 09 78 43 3d 48 bd 7f bb
       0.031698883 -0.019705648 0.047721896 -0.0039022733
0003a0 e0 04 c5 bb 76 53 3a 3d 40 c0 23 3b 62 07 d5 bd
       -0.006012544 0.04548975 0.0024986416 -0.10401799
0003b0 12 e8 62 bd 97 b0 20 3d 32 d0 84 bd f7 00 21 bd
       -0.0553971 0.03923091 -0.064850226 -0.03930756
0003c0 fd 1d 84 bb dd bf 2a bd 3a c4 f0 bc 94 72 9e 3b
       -0.004031895 -0.04168688 -0.029390443 0.004835436
0003d0 44 41 98 bd a5 9a 88 bc 61 91 1c bd e4 48 1a bc
       -0.074343234 -0.016675303 -0.03822458 -0.009416793
0003e0 ec 7d 5e bd cd 4f 87 3d 36 f0 77 3c e4 98 06 be
       -0.054319307 0.06607018 0.015132954 -0.1314426
0003f0 2f f2 8b bd e0 27 20 bd 32 a1 24 bd f9 5a fc 3b
       -0.06833302 -0.039100528 -0.04019279 0.0077012745

getdensity.emb_centernn.net.5.bias f4 [108]
000000 f7 99 69 3d cd 8e 10 3d 17 b9 da bc f5 8f 16 bd
       0.057031598 0.035292435 -0.026699586 -0.036758382
000010 17 0c 61 3d c7 58 0b 3d 31 44 4f bd 95 d5 09 3d
       0.05494317 0.03402021 -0.05060214 0.033650953
000020 77 d1 39 3d 3f a6 ba bc e3 63 0e bd 79 97 7c 3c
       0.045365777 -0.02278435 -0.03476323 0.015416973
000030 96 ef d4 3b d9 c5 f0 3c b7 09 74 bd e8 cc 9e 3c
       0.0064982874 0.029391216 -0.059579577 0.019384816
000040 3e 52 b7 3c c0 af 17 bd ed 97 04 bd 95 17 34 3d
       0.022378083 -0.037032843 -0.03237145 0.043967802
000050 45 20 ef 3c 41 13 36 bd 1f 97 30 bd be 4a ac 3c
       0.029190192 -0.044451956 -0.04311287 0.021031734
000060 40 fe b0 3c b7 da 03 bd a7 c8 03 bd 08 e7 56 3d
       0.02160561 -0.032191005 -0.03217378 0.052466422
000070 9f 25 ec bc 6e 9c 01 3d 4b a8 e6 3c c1 83 34 3d
       -0.028826533 0.031643324 0.02815642 0.044070963
000080 af db 13 3d 03 fb 20 3d 99 83 0b 3d dd 35 4b bd
       0.03609818 0.039301883 0.03406105 -0.049611915
000090 45 86 75 3d 6e 38 28 bd 95 e4 33 bd 9a 9d ce 3c
       0.059942503 -0.04106944 -0.043919165 0.025221635
0000a0 09 49 f1 3c 61 ff b3 bc d4 55 30 bd 19 98 f1 bc
       0.029453771 -0.02197236 -0.043050602 -0.029491471
0000b0 a5 b0 0f bd e2 12 35 3d 89 08 2e bd ee fc ba bc
       -0.03508057 0.04420746 -0.04248861 -0.022825684
0000c0 22 bd 12 3d 63 ad 40 3d e9 9c 54 3d f6 e8 0f 3d
       0.035824902 0.047040354 0.051907454 0.03513428
0000d0 a4 83 1e bd e6 19 51 bd f5 9a 5d bd f1 7b 28 3d
       -0.03869976 -0.05105009 -0.054102857 0.041133825
0000e0 76 d9 01 bd 46 45 82 3d 00 34 1d bd 04 f3 9e 3c
       -0.031701528 0.06360869 -0.03837967 0.019402988
0000f0 02 a1 2d bd cd ac 3f bd b6 39 ad 3c df ab e8 bc
       -0.042389877 -0.046795655 0.021145683 -0.028402267
000100 04 de 26 3d 5b 39 40 bd cf ec b6 3c e7 ae 1a bd
       0.040739074 -0.0469297 0.022329716 -0.037764456
000110 8e b4 1c 3d 40 f6 fc bb 18 34 57 bd 87 b3 90 bd
       0.038258128 -0.007719785 -0.052539915 -0.07065492
000120 c9 7a 29 bd ab 03 5d 3d a7 c2 21 bd 1b bb 97 3c
       -0.041376863 0.053958576 -0.039492276 0.018521836
000130 a9 40 63 3d 0a 11 bd 3c f4 11 41 3d bb bb bc ba
       0.055481587 0.023079414 0.047136262 -0.001439921
000140 3d 00 07 bd d9 78 12 bd 17 de e5 bc 0b d9 22 3d
       -0.03295921 -0.03575978 -0.028060002 0.03975777
000150 4b dd 07 bd 57 6c 61 3c b4 83 1d bd 32 9f 16 bd
       -0.033170026 0.01375874 -0.03845568 -0.036772914
000160 49 a7 82 3c 97 b2 db bc c8 64 e4 3c f4 a2 10 bd
       0.015948908 -0.026818557 0.027880087 -0.035311654
000170 cd 55 27 3d 94 c2 21 3d 34 01 b6 bc 7e 3c 18 bd
       0.04085331 0.039492205 -0.02221737 -0.037167065
000180 1b 5e 84 3b 27 5c 90 3c a5 69 4b 3d 50 2b fb 3c
       0.0040395386 0.017622067 0.049661297 0.030660301
000190 20 5d 9a 3c 9f bf d6 bc 36 06 32 bd ea cc 11 3d
       0.018843234 -0.026214419 -0.043462954 0.035595812
0001a0 7c 16 c4 3c d2 e0 05 3d 01 ef ae 3c e3 4d 02 3d
       0.023936503 0.03268511 0.0213542 0.03181256
