reann2.0_20250825/test/t0/REANN_PES_DOUBLE.pt (torch, 329645 bytes, 60 tensors)

contracted_coeff f8 [1, 3, 8, 108]
00000000: 0000 00e0 16d2 a73f 0000 0080 b128 903f
00000010: 0000 0060 7bde bb3f 0000 00e0 58f2 c03f
00000020: 0000 0060 c616 963f 0000 0060 b47c a83f
00000030: 0000 00e0 4e5d b7bf 0000 0000 9aaf 793f
00000040: 0000 0040 3bc2 a13f 0000 0040 72ec bcbf
00000050: 0000 0000 a347 b83f 0000 0020 7b81 92bf
00000060: 0000 00e0 b565 a9bf 0000 00e0 f788 8dbf
00000070: 0000 0020 e692 be3f 0000 00e0 b345 993f
00000080: 0000 0080 0dbb a43f 0000 0080 8a5a c03f
00000090: 0000 00c0 99b6 bdbf 0000 00a0 9d2f 8b3f
000000a0: 0000 00a0 e805 a43f 0000 0080 f5c7 b03f
000000b0: 0000 0060 76a1 b53f 0000 0000 843f 803f
000000c0: 0000 0020 6b7b 88bf 0000 00e0 b939 bebf
000000d0: 0000 00c0 4f76 b2bf 0000 0080 3c01 933f
000000e0: 0000 0040 4ca8 bbbf 0000 0000 2fc6 90bf
000000f0: 0000 0080 588f a63f 0000 0020 e343 963f
00000100: 0000 0000 a801 953f 0000 0040 fe39 8dbf
00000110: 0000 0000 cf2d 893f 0000 0000 2fea be3f
00000120: 0000 0000 b3b0 a8bf 0000 0020 0e4e b63f
00000130: 0000 0000 c86c bd3f 0000 00c0 3e3b 913f
00000140: 0000 0020 6d5a 93bf 0000 0040 9a8b bf3f
00000150: 0000 0000 675a b33f 0000 0060 c553 c13f
00000160: 0000 0080 f08b b0bf 0000 00e0 50e2 a73f
00000170: 0000 0040 9add bebf 0000 00c0 5d9b b3bf
00000180: 0000 0060 e43e 9abf 0000 00a0 0478 a3bf
00000190: 0000 00e0 0cdd 9ebf 0000 0000 46a7 a6bf
000001a0: 0000 00e0 4479 b9bf 0000 0000 5249 be3f
000001b0: 0000 0000 3762 bf3f 0000 00a0 8703 a2bf
000001c0: 0000 0000 c4e4 ac3f 0000 0000 1509 923f
000001d0: 0000 00e0 6adb c0bf 0000 00c0 55ba 983f
000001e0: 0000 0040 913c b93f 0000 00e0 29db a23f
000001f0: 0000 00e0 5e22 8fbf 0000 00c0 7ce1 c4bf
00000200: 0000 00e0 f959 a1bf 0000 0060 aedf b43f
00000210: 0000 0080 fce3 ab3f 0000 00a0 f0ae b93f
00000220: 0000 00a0 88c7 b8bf 0000 0000 ea6d 7a3f
00000230: 0000 00e0 1f6f bdbf 0000 0080 ba4a b43f
00000240: 0000 0080 6e9c b43f 0000 0080 5ec2 a4bf
00000250: 0000 0000 c7c1 bcbf 0000 00a0 4195 983f
00000260: 0000 0000 1f9b a03f 0000 0020 02e3 923f
00000270: 0000 0000 11e0 b1bf 0000 0080 768c 94bf
00000280: 0000 00c0 b010 b83f 0000 0060 8b92 b13f
00000290: 0000 0020 bb24 b83f 0000 0080 9e8b 723f
000002a0: 0000 00e0 3772 c03f 0000 0040 64e9 723f
000002b0: 0000 0020 f930 c0bf 0000 0040 ca13 b23f
000002c0: 0000 0000 3b89 a73f 0000 00e0 59d1 bd3f
000002d0: 0000 00c0 7609 74bf 0000 0040 9922 bd3f
000002e0: 0000 00c0 4970 85bf 0000 0060 43e6 ae3f
000002f0: 0000 00a0 89c6 bebf 0000 00c0 bf91 bbbf
00000300: 0000 0000 5138 a13f 0000 0080 892b 9cbf
00000310: 0000 0020 b702 9bbf 0000 0080 db5e 7ebf
00000320: 0000 00a0 b095 693f 0000 0040 7355 b23f
00000330: 0000 0000 e509 b83f 0000 0040 c902 b8bf
00000340: 0000 00c0 e415 85bf 0000 00a0 10a1 6cbf
00000350: 0000 0020 b4c3 923f 0000 00a0 8004 82bf
00000360: 0000 0000 113e a6bf 0000 00a0 3b89 8fbf
00000370: 0000 0000 849d 9f3f 0000 00a0 5f99 7a3f
00000380: 0000 00c0 a40d 983f 0000 0000 46dc c1bf
00000390: 0000 0060 1ba7 b0bf 0000 00c0 0171 a43f
000003a0: 0000 0000 c06b 90bf 0000 0040 f824 a3bf
000003b0: 0000 0060 b4c6 713f 0000 0020 c529 b53f
000003c0: 0000 0040 b212 dabf 0000 00e0 0321 aa3f
000003d0: 0000 0060 55cb 9a3f 0000 0000 5432 79bf
000003e0: 0000 0020 5717 b0bf 0000 0020 1d4d a33f
000003f0: 0000 0080 a134 b63f 0000 00a0 f380 b53f
00000400: 0000 00c0 2316 a8bf 0000 0060 0f46 743f
00000410: 0000 0020 84ef 96bf 0000 00c0 3707 7dbf
00000420: 0000 00a0 92b0 a23f 0000 0080 6aea a6bf
00000430: 0000 0060 650a 93bf 0000 00e0 bec1 a5bf
00000440: 0000 00a0 ecd8 903f 0000 0040 3f2e 903f
00000450: 0000 0040 5a6a 8cbf 0000 0040 1789 c03f
00000460: 0000 0000 5a37 aebf 0000 0060 1401 74bf
00000470: 0000 00a0 56d2 bbbf 0000 0000 e968 a53f
00000480: 0000 0040 f526 a33f 0000 0040 e63b ad3f
00000490: 0000 0040 e85f 813f 0000 0020 1f45 a4bf
000004a0: 0000 0020 1b20 a2bf 0000 00a0 37f5 a23f
000004b0: 0000 0040 db05 adbf 0000 00e0 9b6c b83f
000004c0: 0000 0060 2e6a a9bf 0000 00c0 be21 bebf
000004d0: 0000 0000 0e76 aabf 0000 0060 773a c6bf
000004e0: 0000 0040 7b33 85bf 0000 00e0 b3bf 863f
000004f0: 0000 00a0 ea1b ae3f 0000 00e0 c440 973f
00000500: 0000 0040 416f aabf 0000 0080 492d 873f
00000510: 0000 0040 9ef2 95bf 0000 0020 6b91 a43f
00000520: 0000 00c0 28cd 99bf 0000 0040 a29c bebf
00000530: 0000 0040 1883 a5bf 0000 00e0 25c4 bebf
00000540: 0000 0000 9c74 b4bf 0000 0020 723e bbbf
00000550: 0000 00c0 32cb b53f 0000 0020 f62f 98bf
00000560: 0000 00a0 89e1 aa3f 0000 0000 f738 4abf
00000570: 0000 0080 e4e1 b8bf 0000 00a0 4f1c 903f
00000580: 0000 00c0 57cb bbbf 0000 00e0 0bf8 abbf
00000590: 0000 0000 bd92 983f 0000 00a0 a931 4f3f
000005a0: 0000 0020 af2d bbbf 0000 0040 bb9b a33f
000005b0: 0000 0000 09c0 a5bf 0000 0080 1dfe acbf
000005c0: 0000 00c0 552c a33f 0000 0060 213e cc3f
000005d0: 0000 00a0 8a22 ad3f 0000 0040 1f94 c33f
000005e0: 0000 0060 c577 94bf 0000 0060 512b 8cbf
000005f0: 0000 0000 85fd a03f 0000 0020 ee46 abbf
00000600: 0000 00c0 1399 803f 0000 00c0 4c10 9f3f
00000610: 0000 00a0 5668 4e3f 0000 0080 124c a23f
00000620: 0000 00c0 dcfa c1bf 0000 00e0 46de 933f
00000630: 0000 00c0 b4c7 a7bf 0000 0080 a5fe 8d3f
00000640: 0000 00e0 405b c03f 0000 00c0 645e 923f
00000650: 0000 00e0 6b99 b5bf 0000 0020 47c4 a4bf
00000660: 0000 00e0 0a66 b5bf 0000 00c0 5af7 90bf
00000670: 0000 0040 f0f0 b3bf 0000 0000 c263 51bf
00000680: 0000 0040 ddc0 b63f 0000 0080 8331 ac3f
00000690: 0000 00e0 3af8 7bbf 0000 0080 8570 b4bf
000006a0: 0000 0040 30e3 86bf 0000 0080 9d30 a93f
000006b0: 0000 00e0 d6fe 6c3f 0000 0060 a1e6 a73f
000006c0: 0000 0000 af56 b03f 0000 0000 d46f a43f
000006d0: 0000 00c0 5e78 a83f 0000 0000 f3a4 a83f
000006e0: 0000 00a0 e220 b5bf 0000 0060 3c4e bc3f
000006f0: 0000 0060 a78d a0bf 0000 0000 9631 bbbf
00000700: 0000 00e0 4d43 ae3f 0000 0000 53d7 bdbf
00000710: 0000 00c0 3038 b43f 0000 0000 e874 85bf
00000720: 0000 0060 dc4f 6e3f 0000 0080 997a b4bf
00000730: 0000 00e0 62b3 b93f 0000 0000 f521 bfbf
00000740: 0000 0040 fa7b c2bf 0000 0040 3a62 ba3f
00000750: 0000 0020 7f1d b5bf 0000 0080 8c6d 8e3f
00000760: 0000 00a0 e044 b83f 0000 0040 a78f a33f
00000770: 0000 0060 3506 ac3f 0000 00a0 9bb6 a8bf
00000780: 0000 0000 8f5e b1bf 0000 00c0 8439 afbf
00000790: 0000 00c0 94af b1bf 0000 0000 5f64 a23f
000007a0: 0000 0060 590f b2bf 0000 0040 32a4 bebf
000007b0: 0000 0080 bad5 b5bf 0000 0000 ee9d aabf
000007c0: 0000 00c0 5734 bb3f 0000 00c0 864f b53f
000007d0: 0000 0060 67be adbf 0000 0000 38b0 c03f
000007e0: 0000 0040 d6b2 b13f 0000 0060 4080 a33f
000007f0: 0000 00e0 f76b b23f 0000 0080 a662 02bf
0.04652472957968712 0.015780232846736908 0.10886355489492416 0.13239584863185883 0.02157125435769558 0.04782642051577568 -0.09126751869916916 0.006270982325077057
0.03468499332666397 -0.11298288404941559 0.09484308958053589 -0.018072055652737617 -0.04960411414504051 -0.014421402476727962 0.11942899972200394 0.02467995695769787
0.040489599108695984 0.12776309251785278 -0.11606751382350922 0.013274413533508778 0.03910757973790169 0.06555113196372986 0.08449497073888779 0.007933646440505981
-0.011954152025282383 -0.11806832998991013 -0.07211779057979584 0.018559403717517853 -0.10803677141666412 -0.01638101041316986 0.04406239092350006 0.021743344143033028
0.02051413059234619 -0.01427076943218708 0.012294404208660126 0.12076085805892944 -0.0482231080532074 0.08712852746248245 0.11494112014770508 0.01682756468653679
-0.01889963634312153 0.1232239156961441 0.07559818029403687 0.13536898791790009 -0.06463530659675598 0.046648528426885605 -0.1205688863992691 -0.07658945024013519
-0.025630539283156395 -0.03802504017949104 -0.030140114948153496 -0.04424494504928589 -0.0995066687464714 0.11830627918243408 0.12259238958358765 -0.03518318012356758
0.05643284320831299 0.017612770199775696 -0.13169609010219574 0.024148311465978622 0.09858043491840363 0.036828335374593735 -0.015202275477349758 -0.16313132643699646
-0.033889587968587875 0.08153810352087021 0.05447377264499664 0.10032562166452408 -0.09679464250802994 0.006452478468418121 -0.11497687548398972 0.07926526665687561
0.08051195740699768 -0.04054541885852814 -0.1123318076133728 0.02400686778128147 0.03243348002433777 0.018444092944264412 -0.06982523202896118 -0.02006707340478897
0.09400467574596405 0.06864234060049057 0.0943104699254036 0.004527682438492775 0.12848566472530365 0.004617110826075077 -0.12649454176425934 0.07061447203159332
0.045968860387802124 0.11647569388151169 -0.004891837947070599 0.11380918323993683 -0.010468078777194023 0.06035051867365837 -0.12021694332361221 -0.10769270360469818
0.0336327850818634 -0.02750983089208603 -0.026377545669674873 -0.0074146818369627 0.0031231355387717485 0.07161636650562286 0.09390097856521606 -0.09379251301288605
-0.010295664891600609 -0.003494770498946309 0.018324675038456917 -0.00879765022546053 -0.04344227910041809 -0.015398469753563404 0.030874311923980713 0.006493924651294947
0.02348954603075981 -0.13953471183776855 -0.06504984945058823 0.03992467373609543 -0.016036033630371094 -0.037391431629657745 0.004339890088886023 0.08266860991716385
-0.40739113092422485 0.0510331355035305 0.0261662807315588 -0.006151512265205383 -0.06285614520311356 0.03769770637154579 0.08674058318138123 0.0839988961815834
-0.04704391211271286 0.004949626978486776 -0.022398056462407112 -0.007086961530148983 0.036503393203020096 -0.04475720226764679 -0.018594345077872276 -0.042493786662817
0.016452500596642494 0.01580141857266426 -0.013874726369976997 0.12918367981910706 -0.05901604890823364 -0.004883842077106237 -0.10867825895547867 0.04181602597236633
0.03740660101175308 0.05709762126207352 0.008483709767460823 -0.03958985581994057 -0.035401199012994766 0.037027109414339066 -0.05668530613183975 0.09540724009275436
-0.04963822290301323 -0.1177024096250534 -0.05168193578720093 -0.17365925014019012 -0.010352099314332008 0.01110783126205206 0.05880673602223396 0.02270801179111004
-0.05163005739450455 0.011316847056150436 -0.021433327347040176 0.04017195478081703 -0.025196682661771774 -0.11957754194736481 -0.04201579838991165 -0.12018048018217087
-0.07990431785583496 -0.10642159730195999 0.08513180911540985 -0.02362045831978321 0.05250196531414986 -0.0008002477698028088 -0.09719684720039368 0.01573299802839756
-0.10857151448726654 -0.054626818746328354 0.023997262120246887 0.0009519651648588479 -0.10616583377122879 0.038297511637210846 -0.04248073697090149 -0.05662624537944794
0.037447623908519745 0.22064606845378876 0.056904155761003494 0.15295782685279846 -0.01998814009130001 -0.013754497282207012 0.033184200525283813 -0.05327552929520607
0.008104471489787102 0.030335616320371628 0.0009279654477722943 0.03573663532733917 -0.14046820998191833 0.019402606412768364 -0.046445511281490326 0.014645855873823166
0.1277848333120346 0.01793820783495903 -0.08437227457761765 -0.040559981018304825 -0.08358829468488693 -0.016568582504987717 -0.07789517939090729 -0.00106138177216053
0.08888037502765656 0.05506525933742523 -0.006828527431935072 -0.07984194159507751 -0.011175515130162239 0.04919902980327606 0.0035394856240600348 0.046681445091962814
0.0638226866722107 0.03991568088531494 0.047793351113796234 0.04813346266746521 -0.08253303915262222 0.11056878417730331 -0.03233073279261589 -0.10622537136077881
0.05910724028944969 -0.11656683683395386 0.0789823979139328 -0.010476887226104736 0.0037001899909228086 -0.07999572157859802 0.10039346665143967 -0.12161189317703247
-0.14440849423408508 0.10306133329868317 -0.08248133212327957 0.01485738530755043 0.09480098634958267 0.03820536285638809 0.05473486706614494 -0.048268187791109085
-0.06784909963607788 -0.06098570674657822 -0.06908540427684784 0.03592202067375183 -0.0705467090010643 -0.11969293653964996 -0.08529248833656311 -0.05198615789413452
0.10626743733882904 0.08324472606182098 -0.05809329077601433 0.13037776947021484 0.06913508474826813 0.03808785602450371 0.0719599649310112 -3.506727807689458e-05

cutoff f8 [1]
00000000: 0000 0000 0000 1440
5.0

initpot f8 [1]
00000000: 0000 0040 c98a 63c0
-156.33706665039062

initpot f8 [1]
00000000: 0000 0000 0000 0000
0.0

weight f8 [64, 118]
00000000: 0000 0060 e75d bb3f 0000 0000 590c a4bf
00000010: 0000 0020 310c c03f 0000 00c0 613e c13f
00000020: 0000 00e0 cfb0 b0bf 0000 0040 2679 85bf
00000030: 0000 0040 c9bc bbbf 0000 0080 f17d babf
00000040: 0000 0020 cbfc b6bf 0000 00c0 fc2b ce3f
00000050: 0000 00e0 62ff b83f 0000 00e0 934a a0bf
00000060: 0000 00c0 ad53 bebf 0000 0040 b010 c2bf
00000070: 0000 00a0 34ab 633f 0000 0040 1f33 b6bf
00000080: 0000 0020 3c1d c5bf 0000 0000 cec1 ab3f
00000090: 0000 0060 e310 b3bf 0000 0060 cfe3 813f
000000a0: 0000 0000 ca27 c63f 0000 0020 32f6 c0bf
000000b0: 0000 00c0 f94b c13f 0000 0040 28eb 973f
000000c0: 0000 0000 efb6 973f 0000 00e0 7467 b5bf
000000d0: 0000 00e0 d896 953f 0000 00e0 2126 b0bf
000000e0: 0000 00c0 9358 aebf 0000 0040 28db 90bf
000000f0: 0000 00c0 de3d a6bf 0000 0040 836e b13f
00000100: 0000 00a0 dd2e a33f 0000 00a0 3e30 b23f
00000110: 0000 00e0 b4fc bbbf 0000 00c0 fbf4 c2bf
00000120: 0000 0080 ee27 b83f 0000 00e0 b103 c4bf
00000130: 0000 0000 57ec c4bf 0000 0040 7963 91bf
00000140: 0000 0020 a7c0 883f 0000 00a0 fdf9 c33f
00000150: 0000 0000 6d83 b33f 0000 0040 fdc3 ab3f
00000160: 0000 0060 0573 c2bf 0000 0000 5f05 c23f
00000170: 0000 00c0 72af c6bf 0000 0020 2e41 9e3f
00000180: 0000 0040 5a87 c13f 0000 00e0 e6fb bdbf
00000190: 0000 00e0 7fd1 c63f 0000 00e0 b89e 89bf
000001a0: 0000 00c0 de38 c23f 0000 0040 c925 bc3f
000001b0: 0000 00c0 4667 a23f 0000 00e0 68b3 aa3f
000001c0: 0000 00e0 7991 c53f 0000 0080 3d5e c53f
000001d0: 0000 0000 d5f3 9c3f 0000 00e0 01c7 aebf
000001e0: 0000 00c0 2d91 c6bf 0000 00e0 6214 b83f
000001f0: 0000 0040 2fd3 a33f 0000 00c0 9522 c7bf
00000200: 0000 0080 ed4d b53f 0000 0080 eb74 a1bf
00000210: 0000 0000 6393 a03f 0000 00a0 c10c a03f
00000220: 0000 0040 be17 bcbf 0000 00e0 b99b adbf
00000230: 0000 00c0 1eb1 aa3f 0000 00c0 b571 c4bf
00000240: 0000 0060 0905 c33f 0000 00e0 4f3f c03f
00000250: 0000 00c0 84de b23f 0000 0080 2e93 98bf
00000260: 0000 0060 a39d 9cbf 0000 00c0 a827 853f
00000270: 0000 0000 a501 c33f 0000 00e0 859e b33f
00000280: 0000 00a0 d2f6 9abf 0000 0040 7d54 97bf
00000290: 0000 0020 6695 c63f 0000 00e0 22e6 c6bf
000002a0: 0000 00e0 05ae c43f 0000 0020 4584 683f
000002b0: 0000 0040 1db5 bd3f 0000 0080 4ceb b9bf
000002c0: 0000 00c0 93b0 ac3f 0000 0080 d300 8abf
000002d0: 0000 00e0 6a93 9b3f 0000 00c0 322b 99bf
000002e0: 0000 0040 ac61 973f 0000 00c0 882b a33f
000002f0: 0000 00c0 febf a53f 0000 0080 0d47 bdbf
00000300: 0000 00e0 fcfb b6bf 0000 0020 19f4 ab3f
00000310: 0000 00c0 5f3f a1bf 0000 0060 7052 a0bf
00000320: 0000 0040 15ba 813f 0000 00e0 7c78 c33f
00000330: 0000 0080 10b6 b23f 0000 00c0 82c4 5d3f
00000340: 0000 0060 e6a0 b83f 0000 0000 00ee 77bf
00000350: 0000 0060 d2ac 9d3f 0000 0040 65f7 bb3f
00000360: 0000 0080 cd9d 8e3f 0000 00e0 85a0 b5bf
00000370: 0000 0060 73ff c3bf 0000 0000 2f19 c4bf
00000380: 0000 0040 9390 a13f 0000 0080 f0f0 b23f
00000390: 0000 0040 35ca b7bf 0000 0000 bd21 c73f
000003a0: 0000 00e0 4359 bebf 0000 0040 12fc 893f
000003b0: 0000 0040 b256 ba3f 0000 0020 9789 bfbf
000003c0: 0000 00a0 bfb2 bebf 0000 0040 6680 b5bf
000003d0: 0000 0080 bf1c c43f 0000 00a0 2945 b6bf
000003e0: 0000 0020 549c c3bf 0000 0040 5e5e 84bf
000003f0: 0000 00a0 a315 813f 0000 00c0 a87d cabf
00000400: 0000 0060 8d37 c73f 0000 0040 91d4 c6bf
00000410: 0000 0060 5585 be3f 0000 00a0 552d b93f
00000420: 0000 0020 8c05 51bf 0000 0060 ffbf c33f
00000430: 0000 0020 4c4f 8c3f 0000 0020 82f3 c3bf
00000440: 0000 0080 7d5d b4bf 0000 00e0 2c1f c6bf
00000450: 0000 0080 f0b6 a53f 0000 0000 8bee c0bf
00000460: 0000 0060 4674 bdbf 0000 0000 51e0 c33f
00000470: 0000 0060 76d7 7b3f 0000 00a0 3714 b4bf
00000480: 0000 00e0 f0ee 7e3f 0000 0020 c23b b1bf
00000490: 0000 00c0 60cc bd3f 0000 00a0 8450 b3bf
000004a0: 0000 00a0 27de b93f 0000 0080 d69f bdbf
000004b0: 0000 00c0 6d56 b83f 0000 00e0 f9fc bcbf
000004c0: 0000 0060 8202 b13f 0000 0000 ca7a b93f
000004d0: 0000 0020 fcc4 c43f 0000 0080 ff18 a13f
000004e0: 0000 0040 8176 b9bf 0000 0020 9137 c63f
000004f0: 0000 0000 7fde b2bf 0000 0080 9d93 aa3f
00000500: 0000 0080 aef6 bfbf 0000 00e0 7d1b a2bf
00000510: 0000 0060 b504 c73f 0000 0060 f384 5c3f
00000520: 0000 0060 4d71 94bf 0000 0080 eba3 b7bf
00000530: 0000 00a0 657f a13f 0000 0020 afcc ba3f
00000540: 0000 0000 6d83 a33f 0000 00c0 de47 3abf
00000550: 0000 0000 46e8 c5bf 0000 0080 657f 98bf
00000560: 0000 00c0 0216 c6bf 0000 0060 1a3e b23f
00000570: 0000 0060 f084 b33f 0000 0040 c696 bf3f
00000580: 0000 00c0 39e3 b13f 0000 0040 d046 b8bf
00000590: 0000 0080 5e53 b2bf 0000 00e0 97bd bb3f
000005a0: 0000 00c0 465f a23f 0000 00e0 e913 c6bf
000005b0: 0000 0000 673c c33f 0000 0060 ead6 c2bf
000005c0: 0000 0020 4874 c53f 0000 0060 c7de be3f
000005d0: 0000 00a0 fb2c c03f 0000 0000 ea8f c1bf
000005e0: 0000 0000 4ff5 513f 0000 0000 db68 b13f
000005f0: 0000 00a0 9ee1 bebf 0000 0040 f75d bebf
00000600: 0000 0060 0544 a33f 0000 00a0 4ca9 813f
00000610: 0000 00e0 7fc7 a03f 0000 0000 f525 c0bf
00000620: 0000 00a0 a9f4 ae3f 0000 00a0 cfc1 753f
00000630: 0000 00a0 60e3 abbf 0000 0020 409a b3bf
00000640: 0000 0040 7792 6f3f 0000 00e0 7754 c13f
00000650: 0000 00c0 d153 aebf 0000 00c0 696f b2bf
00000660: 0000 00a0 ac34 c4bf 0000 0000 0648 ba3f
00000670: 0000 00a0 51ed b5bf 0000 00e0 bab9 b03f
00000680: 0000 00a0 fdb2 c2bf 0000 0080 7532 c43f
00000690: 0000 0000 ba44 98bf 0000 0080 524f b33f
000006a0: 0000 00a0 bb59 c03f 0000 0060 11b4 78bf
000006b0: 0000 0020 b27a b23f 0000 0040 efdc b13f
000006c0: 0000 0020 b91b b2bf 0000 00e0 dbc2 b9bf
000006d0: 0000 0040 53a2 a23f 0000 0060 c9e1 a3bf
000006e0: 0000 0060 7465 c13f 0000 0080 260d 96bf
000006f0: 0000 0040 2e6e 9dbf 0000 00c0 e506 b83f
00000700: 0000 0020 a1ba b23f 0000 0000 e43d 783f
00000710: 0000 00c0 41e0 babf 0000 00a0 3626 babf
00000720: 0000 0040 d137 c63f 0000 00c0 07a7 be3f
00000730: 0000 0020 8c50 b8bf 0000 00e0 37ae c6bf
00000740: 0000 0060 640b a03f 0000 0020 d5d4 a43f
00000750: 0000 0000 0076 97bf 0000 00c0 552c 91bf
00000760: 0000 0080 2200 a03f 0000 0020 5910 c2bf
00000770: 0000 0020 f43d bb3f 0000 0080 7e8a c53f
00000780: 0000 00a0 35da c1bf 0000 00a0 c9b3 c2bf
00000790: 0000 0040 a16a 943f 0000 0080 a54f c2bf
000007a0: 0000 00a0 d709 c33f 0000 00e0 fc02 c43f
000007b0: 0000 0040 fb1b c7bf 0000 00a0 aabd bd3f
000007c0: 0000 00e0 b699 b03f 0000 0060 7b61 c4bf
000007d0: 0000 0060 c447 b8bf 0000 0040 6860 ab3f
000007e0: 0000 00e0 72e5 ba3f 0000 0040 089d 813f
000007f0: 0000 0020 6b6b 663f 0000 0060 cfd6 a5bf
0.1069016084074974 -0.039156705141067505 0.12537206709384918 0.1347162425518036 -0.06519793719053268 -0.010484980419278145 -0.10834939777851105 -0.10348424315452576
-0.08979482203722 0.23571738600730896 0.09764688462018967 -0.03181898221373558 -0.11846433579921722 -0.14113429188728333 0.0024009731132537127 -0.08671756088733673
-0.16495467722415924 0.054212987422943115 -0.0744764432311058 0.008735294453799725 0.17308926582336426 -0.13251329958438873 0.1351310908794403 0.023357991129159927
0.02315877377986908 -0.08360987156629562 0.021083248779177666 -0.06308185309171677 -0.05926954001188278 -0.016461018472909927 -0.04344078153371811 0.06809253990650177
0.03746693208813667 0.07104865461587906 -0.10932474583387375 -0.1481013000011444 0.09435930848121643 -0.15636275708675385 -0.16346251964569092 -0.01698102429509163
0.012086206115782261 0.15606661140918732 0.07622414827346802 0.054229654371738434 -0.14413516223430634 0.14078891277313232 -0.17722925543785095 0.02954551763832569
0.13694313168525696 -0.11712496727705002 0.1782684177160263 -0.012509769760072231 0.14236053824424744 0.10995157063007355 0.03594418615102768 0.05215003713965416
0.168502077460289 0.16693848371505737 0.028273895382881165 -0.06011205539107323 -0.17630550265312195 0.09406106919050217 0.03872058540582657 -0.18074294924736023
0.08322033286094666 -0.0340951532125473 0.03237447142601013 0.03134732320904732 -0.10973729193210602 -0.05782872065901756 0.05213256925344467 -0.15972015261650085
0.14859120547771454 0.12693212926387787 0.07370786368846893 -0.02399895340204239 -0.02794509194791317 0.010329550132155418 0.14848768711090088 0.0766376182436943
-0.026332179084420204 -0.02278323844075203 0.17643429338932037 -0.17889820039272308 0.1615607589483261 0.002992758760228753 0.11604483425617218 -0.10124662518501282
0.05603467673063278 -0.01269688829779625 0.026929540559649467 -0.024578850716352463 0.022833529859781265 0.03744151443243027 0.042480431497097015 -0.11436542868614197
-0.08978252857923508 0.05459669604897499 -0.03368663042783737 -0.03187895938754082 0.00865570642054081 0.15211449563503265 0.0730905830860138 0.0018168713431805372
0.09620513767004013 -0.0058422088623046875 0.028979575261473656 0.10924370586872101 0.01494942232966423 -0.0844806358218193 -0.15623323619365692 -0.1570185422897339
0.03430614620447159 0.07398894429206848 -0.09292919933795929 0.1807171106338501 -0.11854957789182663 0.012687819078564644 0.10288538038730621 -0.12319321185350418
-0.11991498619318008 -0.08399046957492828 0.15712732076644897 -0.08699283748865128 -0.15320827066898346 -0.009945617988705635 0.008342054672539234 -0.2069598138332367
0.18138282001018524 -0.17836204171180725 0.1192220076918602 0.09834799915552139 -0.0010389202507212758 0.15429680049419403 0.013823122717440128 -0.1558687835931778
-0.07955154776573181 -0.1728263944387436 0.04241134226322174 -0.13227975368499756 -0.11505546420812607 0.1552830934524536 0.006797277834266424 -0.07843349128961563
0.0075520905666053295 -0.06731808930635452 0.11639980971813202 -0.07544735819101334 0.10104606300592422 -0.11572018265724182 0.0950687974691391 -0.11323510855436325
0.06644453853368759 0.09952986240386963 0.162261500954628 0.033393844962120056 -0.09946449100971222 0.17357076704502106 -0.07370752096176147 0.05190746486186981
-0.1248578131198883 -0.0353659950196743 0.17983119189739227 0.0017406822880730033 -0.019963463768363 -0.0923449695110321 0.0341750867664814 0.10468573123216629
0.03811207413673401 -0.00040101230842992663 -0.17115092277526855 -0.02392347902059555 -0.17254671454429626 0.07126011699438095 0.07624723762273788 0.12339438498020172
0.06987343728542328 -0.09483052790164948 -0.07158461213111877 0.10836171358823776 0.03588315099477768 -0.1724827140569687 0.15028083324432373 -0.14718370139598846
0.16761113703250885 0.1205868348479271 0.12637276947498322 -0.13720440864562988 0.0010960837826132774 0.06800621747970581 -0.12063018232584 -0.11862130463123322
0.037628334015607834 0.008623694069683552 0.03277206048369408 -0.12615835666656494 0.06046037748456001 0.005311785731464624 -0.05446912720799446 -0.07657242566347122
0.003854020033031702 0.1353902667760849 -0.05923324078321457 -0.0720125287771225 -0.1578574925661087 0.10266149044036865 -0.08565244823694229 0.0653340145945549
-0.14608736336231232 0.15778988599777222 -0.023699671030044556 0.07542911171913147 0.12773843109607697 -0.006031101103872061 0.07218468934297562 0.06977744400501251
-0.07073552161455154 -0.10062956064939499 0.036394692957401276 -0.03883199021220207 0.13590864837169647 -0.021534539759159088 -0.028740618377923965 0.09385524690151215
0.07316023856401443 0.005918398499488831 -0.10498438775539398 -0.10214558988809586 0.1735784113407135 0.11973617970943451 -0.09497905522584915 -0.17719171941280365
0.031336914747953415 0.04068628326058388 -0.02291107177734375 -0.016770686954259872 0.031251028180122375 -0.1411239057779312 0.10641408711671829 0.16828900575637817
-0.13947172462940216 -0.14611168205738068 0.019938010722398758 -0.14305561780929565 0.1487378627061844 0.15634118020534515 -0.18054142594337463 0.1161753311753273
0.0648454949259758 -0.15922491252422333 -0.09484507888555527 0.05346990376710892 0.10506360977888107 0.008600296452641487 0.0027367679867893457 -0.04265449568629265

bias f8 [64]
00000000: 0000 00c0 c74b b23f 0000 0060 c797 8ebf
00000010: 0000 0080 caa9 ad3f 0000 0000 ab25 a5bf
00000020: 0000 00a0 6cb8 953f 0000 00c0 fb6d c2bf
00000030: 0000 00a0 0d1b c53f 0000 0080 896a 973f
00000040: 0000 0040 7fb6 c83f 0000 00a0 8fb6 adbf
00000050: 0000 0080 0b54 c43f 0000 00e0 3218 91bf
00000060: 0000 00e0 1b58 55bf 0000 0040 c28b be3f
00000070: 0000 0040 07a9 a03f 0000 00c0 cbad babf
00000080: 0000 0000 b5ba 993f 0000 0020 8bbd babf
00000090: 0000 00c0 9e90 b93f 0000 0020 45e2 323f
000000a0: 0000 0060 27cd 913f 0000 0080 2948 a4bf
000000b0: 0000 00c0 2d59 be3f 0000 0080 013d c43f
000000c0: 0000 0080 435c c0bf 0000 0040 cca1 a33f
000000d0: 0000 0000 e728 b2bf 0000 00a0 c952 c23f
000000e0: 0000 0040 fa77 c2bf 0000 0040 63b9 ad3f
000000f0: 0000 0000 5c21 ac3f 0000 0040 789c ab3f
00000100: 0000 00e0 e648 923f 0000 0040 eba5 a9bf
00000110: 0000 0060 08e4 94bf 0000 0080 3f15 afbf
00000120: 0000 0020 b509 c13f 0000 00c0 8174 a23f
00000130: 0000 0040 72ea 673f 0000 0080 ed17 c43f
00000140: 0000 0060 24a5 bcbf 0000 0020 d3cc bd3f
00000150: 0000 00a0 0afa c1bf 0000 0040 0749 973f
00000160: 0000 0080 56f0 babf 0000 00a0 261d b2bf
00000170: 0000 0000 5678 75bf 0000 00c0 c75c c43f
00000180: 0000 0060 cd43 babf 0000 0040 06c7 b83f
00000190: 0000 0040 c0c2 b7bf 0000 0020 ca6c bdbf
000001a0: 0000 0060 4b18 b03f 0000 0000 6afa a73f
000001b0: 0000 00c0 53cc 933f 0000 0060 03fd afbf
000001c0: 0000 00e0 f53b b03f 0000 0080 da2f b23f
000001d0: 0000 0000 ee3e c6bf 0000 0020 9e95 c1bf
000001e0: 0000 00a0 065b b13f 0000 0080 165f c1bf
000001f0: 0000 00c0 6b56 c2bf 0000 00e0 8ed1 a4bf
0.07146881520748138 -0.0149379326030612 0.05793602764606476 -0.041303008794784546 0.02121133543550968 -0.1439814269542694 0.16488809883594513 0.022867344319820404
0.19306936860084534 -0.05803345516324043 0.15881484746932983 -0.016693873330950737 -0.001302745076827705 0.11932004988193512 0.03253958374261856 -0.10421441495418549
0.025126293301582336 -0.10445470362901688 0.0998629778623581 0.00028814494726248085 0.017384162172675133 -0.03961305320262909 0.11854825913906097 0.15811175107955933
-0.12781566381454468 0.03834379464387894 -0.07093662023544312 0.14315147697925568 -0.14428642392158508 0.05805502086877823 0.05494201183319092 0.05392814427614212
0.01785622350871563 -0.050093986093997955 -0.0204011257737875 -0.06070898473262787 0.13310874998569489 0.0360451266169548 0.002919409889727831 0.1569802165031433
-0.1118948683142662 0.1164066269993782 -0.14044316112995148 0.02273951843380928 -0.10522976517677307 -0.07075730711221695 -0.005241714417934418 0.15908142924308777
-0.10259708017110825 0.09678687155246735 -0.09281541407108307 -0.11494124680757523 0.06287070363759995 0.046832382678985596 0.019334133714437485 -0.06247721239924431
0.06341492384672165 0.07104268670082092 -0.17379546165466309 -0.13737846910953522 0.06779519468545914 -0.1357143521308899 -0.1432623565196991 -0.04066130146384239

alpha f8 [1, 64]
00000000: 0000 0000 8e2c f13f 0000 00c0 5d18 f13f
00000010: 0000 00c0 f0fc f03f 0000 00c0 8578 f13f
00000020: 0000 0000 b21c f13f 0000 00a0 6438 f43f
00000030: 0000 00c0 2bde f03f 0000 0020 942e f33f
00000040: 0000 0020 146e f23f 0000 0040 e896 f23f
00000050: 0000 0080 cbbc f13f 0000 00a0 5527 f33f
00000060: 0000 00a0 c796 f13f 0000 0080 a9cf f13f
00000070: 0000 0060 d429 f33f 0000 0080 6f64 f13f
00000080: 0000 0040 3c82 f13f 0000 0020 7892 f13f
00000090: 0000 0080 af5e f23f 0000 0000 bf61 f33f
000000a0: 0000 0080 5e2c f13f 0000 00c0 8ae3 f03f
000000b0: 0000 0040 7211 f13f 0000 0040 8000 f13f
000000c0: 0000 00e0 fbe5 f03f 0000 0000 85e4 f03f
000000d0: 0000 00e0 db01 f13f 0000 00a0 0322 f33f
000000e0: 0000 00a0 78f6 f03f 0000 0080 5c21 f13f
000000f0: 0000 0000 8fcc f13f 0000 00e0 430d f33f
00000100: 0000 00a0 d959 f33f 0000 0000 c803 f13f
00000110: 0000 0000 68fe f03f 0000 0020 5398 f13f
00000120: 0000 0020 6f46 f13f 0000 0000 b013 f13f
00000130: 0000 00e0 f725 f33f 0000 0060 6fac f13f
00000140: 0000 00c0 c1ce f13f 0000 0080 6c47 f13f
00000150: 0000 0000 2c69 f13f 0000 0020 ba44 f23f
00000160: 0000 0000 4cdd f03f 0000 00a0 543c f23f
00000170: 0000 00c0 d3f2 f03f 0000 00c0 bf70 f13f
00000180: 0000 0020 ebdd f13f 0000 00e0 bcae f13f
00000190: 0000 0060 fe0b f13f 0000 00e0 3c30 f13f
000001a0: 0000 0000 0a4a f33f 0000 0060 7a5d f23f
000001b0: 0000 00e0 3342 f13f 0000 0020 5701 f13f
000001c0: 0000 0080 8517 f33f 0000 0000 60ca f13f
000001d0: 0000 00e0 f9fc f03f 0000 00c0 0c01 f13f
000001e0: 0000 00c0 3b32 f13f 0000 0020 a10d f13f
000001f0: 0000 0040 03fd f03f 0000 0000 a8be f23f
1.0733776092529297 1.068448781967163 1.0617530345916748 1.0919244289398193 1.0695056915283203 1.2637678384780884 1.0542409420013428 1.1988717317581177
1.1518746614456177 1.1618425846099854 1.1085925102233887 1.1971031427383423 1.0993114709854126 1.1131987571716309 1.1977123022079468 1.0870203971862793
1.0942957401275635 1.0982590913772583 1.1481165885925293 1.2113637924194336 1.0733323097229004 1.0555522441864014 1.0667593479156494 1.062622308731079
1.0561484098434448 1.055790901184082 1.0629538297653198 1.195804238319397 1.0601736307144165 1.0706448554992676 1.112441062927246 1.190738558769226
1.209436058998108 1.0634231567382812 1.0621109008789062 1.0996886491775513 1.0796958208084106 1.0673065185546875 1.1967695951461792 1.1045984029769897
1.1129777431488037 1.07993745803833 1.0881767272949219 1.1417790651321411 1.0540275573730469 1.1397291421890259 1.059283971786499 1.090026617050171
1.116679310798645 1.1051605939865112 1.0654281377792358 1.0742768049240112 1.205575942993164 1.1478217840194702 1.0786627531051636 1.062827229499817
1.1932425498962402 1.111907958984375 1.061761736869812 1.0627562999725342 1.0747640132904053 1.065827488899231 1.0617706775665283 1.1715469360351562

beta f8 [1, 64]
00000000: 0000 00e0 85c9 b43f 0000 0080 4d4a b33f
00000010: 0000 0040 387c b13f 0000 0020 6e9a b83f
00000020: 0000 0060 298b b33f 0000 00e0 52c1 d13f
00000030: 0000 0020 1380 ad3f 0000 00c0 64f9 c83f
00000040: 0000 00c0 bad7 c33f 0000 00e0 2f71 c43f
00000050: 0000 0000 ea3c be3f 0000 00a0 e8a3 c83f
00000060: 0000 00a0 0be0 b93f 0000 00e0 c56b bf3f
00000070: 0000 0040 505e c93f 0000 0060 c7c0 b63f
00000080: 0000 0060 e3d3 bb3f 0000 0000 0aa8 b93f
00000090: 0000 0000 266c c33f 0000 0040 ada1 ca3f
000000a0: 0000 0020 a52e b43f 0000 00e0 fc88 b03f
000000b0: 0000 00a0 4cf5 b23f 0000 0080 bba8 b13f
000000c0: 0000 00c0 3249 b03f 0000 0000 b538 af3f
000000d0: 0000 0020 9c17 b23f 0000 00e0 9065 c93f
000000e0: 0000 0060 d392 b13f 0000 0040 ef6a b23f
000000f0: 0000 0080 063b bf3f 0000 0060 91dd c83f
00000100: 0000 0000 aa5c ca3f 0000 0080 5b3b b23f
00000110: 0000 00e0 d79e b13f 0000 0000 fcbd b93f
00000120: 0000 0060 7d88 b63f 0000 0040 5ad7 b13f
00000130: 0000 00c0 8af2 c93f 0000 00c0 6937 bd3f
00000140: 0000 00a0 0383 bc3f 0000 00e0 2d9a b63f
00000150: 0000 0060 d69d b73f 0000 0060 8944 c23f
00000160: 0000 0020 1215 b03f 0000 0060 73ab c13f
00000170: 0000 00e0 b456 b13f 0000 00e0 985c b93f
00000180: 0000 0080 81ee bd3f 0000 00c0 3453 bb3f
00000190: 0000 0040 6e9a b23f 0000 00a0 e44a b43f
000001a0: 0000 0040 1e11 ca3f 0000 0020 5af4 c23f
000001b0: 0000 0040 7941 b63f 0000 0080 460a b23f
000001c0: 0000 00a0 5d37 c83f 0000 00a0 0898 bc3f
000001d0: 0000 0040 3d20 b33f 0000 0060 8303 b23f
000001e0: 0000 0000 ae28 b53f 0000 00c0 abb6 b23f
000001f0: 0000 00a0 daf9 b13f 0000 0040 fa9b c53f
0.0811999961733818 0.07535251975059509 0.06830169260501862 0.09610641747713089 0.07634218782186508 0.27742454409599304 0.057617757469415665 0.19511088728904724
0.1550210416316986 0.15970419347286224 0.11811697483062744 0.19250209629535675 0.10107491165399551 0.12273823469877243 0.19819071888923645 0.0888790711760521
0.1087019070982933 0.10022032260894775 0.15173792839050293 0.20805898308753967 0.07883674651384354 0.06459026783704758 0.07405547052621841 0.06898090243339539
0.06361691653728485 0.06097951531410217 0.07067275792360306 0.19841204583644867 0.0686466321349144 0.07194419205188751 0.12199440598487854 0.19426171481609344
0.20595288276672363 0.07121822237968445 0.06883000582456589 0.1005551815032959 0.08802016824483871 0.06969226896762848 0.20271429419517517 0.1141267865896225
0.11137411743402481 0.08829008787870407 0.09225215762853622 0.14271657168865204 0.06282151490449905 0.13804475963115692 0.06772928684949875 0.09906917065382004
0.11692056059837341 0.1067383736371994 0.07266892492771149 0.07926777750253677 0.2036474049091339 0.14808203279972076 0.08693654835224152 0.07046929001808167
0.1891896277666092 0.11169485002756119 0.07471068203449249 0.07036610692739487 0.08265197277069092 0.07309983670711517 0.07021871954202652 0.16882255673408508

weight f8 [24, 64]
00000000: 0000 0060 3d17 bb3f 0000 00c0 f973 babf
00000010: 0000 0080 046f b93f 0000 0020 3fb8 bbbf
00000020: 0000 00e0 dd8c babf 0000 00c0 7d74 b3bf
00000030: 0000 00a0 b2d1 b53f 0000 0080 6a63 bdbf
00000040: 0000 00c0 e4fd ab3f 0000 00c0 9f73 b9bf
00000050: 0000 0020 9773 bc3f 0000 00c0 7339 b9bf
00000060: 0000 00e0 4511 bcbf 0000 00a0 fbe7 bc3f
00000070: 0000 0040 a420 8dbf 0000 0000 4de6 bbbf
00000080: 0000 00e0 8eea a43f 0000 00c0 cc0b bcbf
00000090: 0000 00e0 1521 ab3f 0000 0000 5f1d c0bf
000000a0: 0000 0060 c505 bbbf 0000 00e0 74ff b7bf
000000b0: 0000 0060 fd28 ba3f 0000 00c0 4eb3 b93f
000000c0: 0000 0020 37e6 b5bf 0000 0040 68ec b73f
000000d0: 0000 0000 b5c5 b9bf 0000 00e0 9a61 973f
000000e0: 0000 0040 0646 b9bf 0000 00e0 e59c b23f
000000f0: 0000 0060 e0f2 bc3f 0000 0020 d687 a93f
00000100: 0000 0020 5e67 bfbf 0000 0000 6fda b9bf
00000110: 0000 0040 1469 b93f 0000 0080 c927 bcbf
00000120: 0000 0000 e1bf bb3f 0000 0000 1b1d b33f
00000130: 0000 0000 317c a4bf 0000 0000 fa3c bc3f
00000140: 0000 0080 3220 bcbf 0000 0080 50c5 bb3f
00000150: 0000 0040 83c1 bbbf 0000 0020 781c b6bf
00000160: 0000 00e0 467b b6bf 0000 0000 3d6d babf
00000170: 0000 0020 7e15 b9bf 0000 0060 9541 bc3f
00000180: 0000 00e0 15b7 bbbf 0000 0000 3483 a03f
00000190: 0000 0060 2924 babf 0000 00a0 bb1e bbbf
000001a0: 0000 0080 6b52 9c3f 0000 0040 53be b7bf
000001b0: 0000 00a0 3f9e bb3f 0000 0060 a6be b9bf
000001c0: 0000 00e0 0794 babf 0000 00c0 a5de af3f
000001d0: 0000 0080 0b13 b4bf 0000 0020 9f70 b9bf
000001e0: 0000 0080 7747 bb3f 0000 0060 1838 babf
000001f0: 0000 0040 2e95 b9bf 0000 0020 8e91 b8bf
00000200: 0000 00c0 bfea 733f 0000 00e0 e541 60bf
00000210: 0000 0040 f519 6cbf 0000 0020 24f9 8fbf
00000220: 0000 0080 700a 65bf 0000 0040 7659 c2bf
00000230: 0000 0000 0aac 8cbf 0000 0060 555f a7bf
00000240: 0000 0060 a42e 94bf 0000 0080 5e57 a1bf
00000250: 0000 0000 01a2 993f 0000 00c0 4221 abbf
00000260: 0000 0020 8d4d 94bf 0000 0000 9414 9c3f
00000270: 0000 0020 db36 c13f 0000 0060 ab01 8abf
00000280: 0000 0060 018c 9a3f 0000 0000 f8af 93bf
00000290: 0000 00a0 a15c 93bf 0000 00a0 9671 a3bf
000002a0: 0000 00c0 0180 75bf 0000 00c0 9204 7e3f
000002b0: 0000 00c0 9211 213f 0000 0060 7074 63bf
000002c0: 0000 00c0 7100 853f 0000 00c0 5812 82bf
000002d0: 0000 00a0 b233 533f 0000 00e0 f7a1 c03f
000002e0: 0000 00e0 bd74 683f 0000 0040 7110 93bf
000002f0: 0000 00c0 0fa5 9b3f 0000 0020 ccdf c03f
00000300: 0000 0040 24cd a4bf 0000 0020 0878 453f
00000310: 0000 00c0 507a 6cbf 0000 0000 2172 94bf
00000320: 0000 00c0 808c 813f 0000 0060 2169 92bf
00000330: 0000 0020 b5ee b0bf 0000 0000 d069 973f
00000340: 0000 0080 bb7a 9cbf 0000 00c0 95de 813f
00000350: 0000 0060 9eb8 8bbf 0000 0000 fc40 9ebf
00000360: 0000 00e0 d38f 873f 0000 0040 f396 a6bf
00000370: 0000 0020 5229 6f3f 0000 0040 1aff 8d3f
00000380: 0000 00a0 c0e3 9ebf 0000 0060 295b 95bf
00000390: 0000 0060 e426 3bbf 0000 00a0 20da 77bf
000003a0: 0000 0040 3a69 c23f 0000 00e0 00eb 9ebf
000003b0: 0000 00e0 d676 803f 0000 00a0 054e 573f
000003c0: 0000 00e0 d4ed a8bf 0000 0040 e6ae 94bf
000003d0: 0000 0060 97c7 8e3f 0000 0020 7f17 683f
000003e0: 0000 0060 3957 773f 0000 00a0 44ec 50bf
000003f0: 0000 00a0 e83a 5a3f 0000 00a0 8477 a4bf
00000400: 0000 0000 4a28 b73f 0000 00e0 45bc b5bf
00000410: 0000 0020 133f b33f 0000 0040 14f1 babf
00000420: 0000 00e0 f208 b6bf 0000 0080 0b4c cfbf
00000430: 0000 00e0 6b87 a73f 0000 0040 667e c5bf
00000440: 0000 00a0 a17d 6bbf 0000 0080 db5d bfbf
00000450: 0000 00a0 37e5 bd3f 0000 0020 7bcb c4bf
00000460: 0000 0040 d923 bcbf 0000 00c0 a88f be3f
00000470: 0000 00e0 2235 c63f 0000 0040 cde5 b9bf
00000480: 0000 00c0 b029 b13f 0000 0060 a7f7 bbbf
00000490: 0000 0020 dd82 52bf 0000 00c0 d5be c7bf
000004a0: 0000 0060 6004 b7bf 0000 0060 033d b0bf
000004b0: 0000 00e0 7619 b53f 0000 00a0 28b8 b33f
000004c0: 0000 00e0 6dd5 aabf 0000 00c0 20e2 af3f
000004d0: 0000 00e0 d8f2 b3bf 0000 0040 c7dd c53f
000004e0: 0000 0020 f0db b2bf 0000 00e0 cbdb 973f
000004f0: 0000 00c0 5e76 be3f 0000 0080 0aba c43f
00000500: 0000 0040 6d54 c7bf 0000 00c0 021d b4bf
00000510: 0000 00a0 3e46 b33f 0000 0060 c32b bcbf
00000520: 0000 0060 cdb1 b83f 0000 0080 93cb 9a3f
00000530: 0000 00e0 4e4a c4bf 0000 0080 384f bd3f
00000540: 0000 0060 322d bebf 0000 00a0 d7c0 b83f
00000550: 0000 00a0 0a3e babf 0000 0000 9afe b9bf
00000560: 0000 0060 f572 aabf 0000 0060 bae5 c0bf
00000570: 0000 00c0 8475 b2bf 0000 00c0 4bd9 ba3f
00000580: 0000 00e0 2ec3 bebf 0000 0080 315b 97bf
00000590: 0000 0080 fbcd b4bf 0000 0060 3c3a b7bf
000005a0: 0000 0060 2b3a c93f 0000 0080 3130 bbbf
000005b0: 0000 0040 bc76 b83f 0000 00e0 64e4 b3bf
000005c0: 0000 0040 386d c4bf 0000 00a0 f09e 7d3f
000005d0: 0000 0000 c240 a2bf 0000 00a0 d568 b3bf
000005e0: 0000 0040 0e83 b73f 0000 0080 71ed b4bf
000005f0: 0000 00c0 2a85 b3bf 0000 0060 1e1d c1bf
00000600: 0000 00e0 31f1 cd3f 0000 0040 b7f7 cdbf
00000610: 0000 0040 64f8 cd3f 0000 00e0 fc5a ccbf
00000620: 0000 0060 6bdd cdbf 0000 00e0 5a65 b4bf
00000630: 0000 00e0 d110 ce3f 0000 0060 85fd a2bf
00000640: 0000 0020 8fee cc3f 0000 0060 5f8c a63f
00000650: 0000 0060 97bf cb3f 0000 0000 f9ad a1bf
00000660: 0000 0020 5b35 ccbf 0000 00e0 dd16 cc3f
00000670: 0000 0080 26fb a83f 0000 0080 ee6b cdbf
00000680: 0000 0020 ef06 c3bf 0000 0040 9c48 ccbf
00000690: 0000 00e0 c6ca cb3f 0000 00c0 8955 adbf
000006a0: 0000 0000 d019 cebf 0000 0020 9ca8 cebf
000006b0: 0000 0020 9bc0 cd3f 0000 00a0 b63d ce3f
000006c0: 0000 00c0 5191 ccbf 0000 0040 1c16 ce3f
000006d0: 0000 0040 7d7a cebf 0000 0060 e6fd aa3f
000006e0: 0000 0000 3da4 cebf 0000 0080 fbb8 cd3f
000006f0: 0000 0040 fc35 cc3f 0000 0080 0c63 b03f
00000700: 0000 00a0 ec74 abbf 0000 00c0 7e92 cebf
00000710: 0000 0020 79d7 cd3f 0000 0060 c755 ccbf
00000720: 0000 00e0 5f04 ce3f 0000 0080 81b2 cd3f
00000730: 0000 0040 dc9b adbf 0000 0020 2fbe cb3f
00000740: 0000 0020 fb2a cbbf 0000 00e0 8100 ce3f
00000750: 0000 0020 d7df ccbf 0000 0000 849c b63f
00000760: 0000 0000 d78b cebf 0000 00c0 b039 c6bf
00000770: 0000 0060 5799 cebf 0000 00a0 3d4e cd3f
00000780: 0000 00a0 1536 cabf 0000 0060 d3b8 cb3f
00000790: 0000 0000 b359 cebf 0000 0080 9821 cebf
000007a0: 0000 00e0 df4c af3f 0000 0080 8331 b43f
000007b0: 0000 0060 a6eb cd3f 0000 0040 9e64 cebf
000007c0: 0000 00e0 3abf 9dbf 0000 0020 7a97 cd3f
000007d0: 0000 00a0 b58d cebf 0000 0080 aece cdbf
000007e0: 0000 00e0 9e0c ce3f 0000 00a0 658e cebf
000007f0: 0000 0040 a5b0 cebf 0000 00a0 62a9 8d3f
0.10582336038351059 -0.10333214700222015 0.09935024380683899 -0.10828012973070145 -0.10371195524930954 -0.0759962648153305 0.0852309837937355 -0.11479821801185608
0.054671429097652435 -0.09942053258419037 0.11113876849412918 -0.09853290021419525 -0.10963856428861618 0.11291477829217911 -0.014222415164113045 -0.1089828610420227
0.04085203632712364 -0.10955505073070526 0.05298679694533348 -0.12589633464813232 -0.10555680841207504 -0.09374170750379562 0.10218795388936996 0.10039226710796356
-0.08554405719041824 0.09345103800296783 -0.10067301988601685 0.022833270952105522 -0.09872473776340485 0.07270657271146774 0.11308100074529648 0.049864474684000015
-0.12267101556062698 -0.10098928213119507 0.0992596298456192 -0.10998210310935974 0.10839658975601196 0.07466286420822144 -0.040010005235672 0.11030542850494385
-0.10986629128456116 0.10847952961921692 -0.10842151939868927 -0.08637190610170364 -0.08781855553388596 -0.1032293438911438 -0.0979842022061348 0.11037572473287582
-0.10826241225004196 0.03225100040435791 -0.10211428254842758 -0.10593769699335098 0.02765815705060959 -0.09274788200855255 0.10788343101739883 -0.1005653366446495
-0.1038212701678276 0.06224554032087326 -0.07841560244560242 -0.09937471896409988 0.10655924677848816 -0.1024184450507164 -0.09993256628513336 -0.0959709957242012
0.004862545989453793 -0.0019845475908368826 -0.003430346492677927 -0.015611917711794376 -0.0025684544816613197 -0.14335516095161438 -0.01400001347064972 -0.0456492118537426
-0.01970917545258999 -0.03386969864368439 0.025032058358192444 -0.05298813432455063 -0.019827084615826607 0.02742224931716919 0.13448657095432281 -0.01269849669188261
0.02592470310628414 -0.01922595500946045 -0.018908048048615456 -0.0379759855568409 -0.005249029956758022 0.007328580133616924 0.00013022343046031892 -0.0023748583626002073
0.0102547537535429 -0.008824056014418602 0.0011719936737790704 0.1299428790807724 0.0029853542800992727 -0.018617410212755203 0.026996847242116928 0.13182975351810455
-0.040627606213092804 0.0006551780388690531 -0.0034762932918965816 -0.019966617226600647 0.008568769320845604 -0.01797916553914547 -0.06614238768815994 0.022864580154418945
-0.027811937034130096 0.008725328370928764 -0.013535725884139538 -0.02954477071762085 0.01150479819625616 -0.04412040859460831 0.0038038829807192087 0.014646725729107857
-0.03016568161547184 -0.02085556648671627 -0.0004143054538872093 -0.00582325691357255 0.14383628964424133 -0.03019334189593792 0.008039168082177639 0.001422410481609404
-0.04868951067328453 -0.020198438316583633 0.015029127709567547 0.002940891543403268 0.005698417779058218 -0.0010328931966796517 0.0016009589890018106 -0.03997435048222542
0.09045851230621338 -0.08490406721830368 0.07518119364976883 -0.1052410751581192 -0.08607404679059982 -0.24450820684432983 0.04595505818724632 -0.16791990399360657
-0.003355804132297635 -0.1225259006023407 0.11677882820367813 -0.16245974600315094 -0.10992200672626495 0.11937956511974335 0.17349658906459808 -0.10116274654865265
0.06704239547252655 -0.10924764722585678 -0.001129833166487515 -0.18551132082939148 -0.08991052955389023 -0.06343098729848862 0.08241980522871017 0.077028788626194
-0.0524095855653286 0.0622720941901207 -0.07792430371046066 0.170830637216568 -0.07366848737001419 0.02329939417541027 0.11899368464946747 0.16192752122879028
-0.18226400017738342 -0.07856766879558563 0.07529059797525406 -0.11004277318716049 0.09646304696798325 0.026167206466197968 -0.15851770341396332 0.11449006199836731
-0.11787714809179306 0.0966925397515297 -0.10250917822122574 -0.10154116153717041 -0.05165831372141838 -0.13201074302196503 -0.07210569083690643 0.10487817227840424
-0.12016575783491135 -0.02280881255865097 -0.08126804232597351 -0.09073235839605331 0.19708769023418427 -0.10620412230491638 0.09556175768375397 -0.07770376652479172
-0.15958312153816223 0.007231655064970255 -0.03565031290054321 -0.07581839710474014 0.09184350073337555 -0.0817480981349945 -0.07625071704387665 -0.1337011307477951
0.23392318189144135 -0.23412218689918518 0.23414281010627747 -0.22152672708034515 -0.23331968486309052 -0.07967155426740646 0.23488830029964447 -0.03709046170115471
0.22603024542331696 0.044039707630872726 0.21678440272808075 -0.034530431032180786 -0.22037829458713531 0.21944783627986908 0.048791125416755676 -0.22985631227493286
-0.14864911139011383 -0.2209658920764923 0.2171257585287094 -0.057293228805065155 -0.23516273498535156 -0.23952056467533112 0.23244036734104156 0.2362583428621292
-0.22318479418754578 0.2350497543811798 -0.23811307549476624 0.052718352526426315 -0.2393871545791626 0.23220771551132202 0.22039750218391418 0.06401136517524719
-0.05362643674015999 -0.23884567618370056 0.23313821852207184 -0.2213677614927292 0.23450849950313568 0.23201006650924683 -0.05782974511384964 0.21674145758152008
-0.21224917471408844 0.2343904823064804 -0.2255810648202896 0.08832573890686035 -0.23864257335662842 -0.1736355721950531 -0.2390546053647995 0.22895021736621857
-0.20477552711963654 0.2165779322385788 -0.2371124029159546 -0.2354002594947815 0.061133380979299545 0.07888051867485046 0.233753964304924 -0.2374456226825714
-0.029049796983599663 0.2311852127313614 -0.23869962990283966 -0.2328699231147766 0.23476015031337738 -0.2387206107378006 -0.23976579308509827 0.014483232982456684

bias f8 [24]
00000000: 0000 00a0 6eb4 bb3f 0000 00e0 13a2 713f
00000010: 0000 0000 d074 b63f 0000 00a0 1808 cf3f
00000020: 0000 0060 64f3 9fbf 0000 0080 0665 b63f
00000030: 0000 0080 1d69 af3f 0000 0060 e299 b2bf
00000040: 0000 0020 df58 f03f 0000 00a0 7fa9 ec3f
00000050: 0000 0080 5e9c f03f 0000 0000 ac1c f13f
00000060: 0000 0020 703c ef3f 0000 0040 0e60 f13f
00000070: 0000 0000 ca36 f03f 0000 0060 1e78 f03f
00000080: 0000 0080 85bb d53f 0000 0000 e092 f43f
00000090: 0000 0040 4ea2 e43f 0000 0020 af2e b93f
000000a0: 0000 0040 fc53 0040 0000 0040 e264 e23f
000000b0: 0000 00e0 8841 0040 0000 0000 42bd dd3f
0.10822192579507828 0.004304959904402494 0.08771991729736328 0.2424345761537552 -0.031201904639601707 0.08747902512550354 0.06134884059429169 -0.07266058772802353
1.0216971635818481 0.8956907391548157 1.0381760597229004 1.0694999694824219 0.9761276841163635 1.0859510898590088 1.013376235961914 1.0293258428573608
0.33957040309906006 1.285858154296875 0.6448127031326294 0.09836859256029129 2.041008472442627 0.5748149156570435 2.031999349594116 0.4646763801574707

initpot f8 [1]
00000000: 0000 0000 0000 0000
0.0
