reann2.0_20250825/test/t1/REANN_PES_DOUBLE.pt (torch, 389591 bytes, 85 tensors)

contracted_coeff f8 [2, 3, 8, 108]
0	0x3fcf1cdb20000000	0.24306811392307281
1	0x3fd1ba9920000000	0.2770140469074249
2	0x3fc45eee80000000	0.15914708375930786
3	0x3fb15b5d60000000	0.0678003653883934
4	0xbfbad61840000000	-0.1048293262720108
5	0xbfc9b93fe0000000	-0.20096586644649506
6	0xbfc4fea020000000	-0.16402055323123932
7	0xbfa5b6ee80000000	-0.042411282658576965
8	0x3fcecefb00000000	0.24069154262542725
9	0x3fb6e8fe80000000	0.08949270844459534
10	0x3fc6306060000000	0.17335133254528046
11	0x3fd385fd20000000	0.3050530254840851
12	0x3fb34447a0000000	0.07526061683893204
13	0xbf98611c40000000	-0.02380794659256935
14	0xbfca6e11a0000000	-0.20648403465747833
15	0xbfb9eb8da0000000	-0.10125050693750381
16	0x3fa4befee0000000	0.040519680827856064
17	0xbfa6ae1dc0000000	-0.044297151267528534
18	0xbfadf254e0000000	-0.058489467948675156
19	0xbf9af25b00000000	-0.02631513774394989
20	0xbfb8ebef00000000	-0.09735006093978882
21	0x3fb7475680000000	0.09093227982521057
22	0xbfbc244b60000000	-0.10992880910634995
23	0x3fc05ff200000000	0.1279280185699463
24	0x3fc025bd20000000	0.1261516958475113
25	0xbfd75d8280000000	-0.36508238315582275
26	0x3fd0933760000000	0.25898537039756775
27	0x3fc3e4e0c0000000	0.15542230010032654
28	0x3fc2838cc0000000	0.14463958144187927
29	0x3fb4591700000000	0.07948440313339233
30	0xbfa0fea840000000	-0.03319288045167923
31	0x3f7e2adce0000000	0.007365095894783735
32	0xbfc2a9a380000000	-0.14580196142196655
33	0x3fc09fe2c0000000	0.12987932562828064
34	0xbf9efd8380000000	-0.030263952910900116
35	0x3fbfb057c0000000	0.12378452718257904
36	0x3fcef8ea40000000	0.24197128415107727
37	0xbf85a4c2a0000000	-0.010568161495029926
38	0x3f65e1b2e0000000	0.002671098103746772
39	0x3fb27dad40000000	0.07223017513751984
40	0xbfc53375a0000000	-0.1656329184770584
41	0xbfc51946a0000000	-0.16483385860919952
42	0x3fbf57b2a0000000	0.1224319115281105
43	0xbfb633a4e0000000	-0.08672552555799484
44	0x3fbc580b60000000	0.11071845144033432
45	0xbfb34540a0000000	-0.07527545839548111
46	0x3f9be0e8c0000000	0.027225147932767868
47	0x3fb9071a60000000	0.09776463359594345
48	0xbfc313d340000000	-0.1490425169467926
49	0xbfc5d32500000000	-0.17050611972808838
50	0xbfd22beb20000000	-0.28393056988716125
51	0x3fd4cc1e80000000	0.3249584436416626
52	0xbfc7406740000000	-0.18165293335914612
53	0xbfa53d0d60000000	-0.041481416672468185
54	0x3fb6290b00000000	0.08656376600265503
55	0x3fa165b620000000	0.03397912159562111
56	0x3fb3f5ac60000000	0.07796742767095566
57	0x3fcdcd6b00000000	0.23283135890960693
58	0x3fb69c9a00000000	0.08832705020904541
59	0xbfbfea3720000000	-0.12466759234666824
60	0x3fd78b56a0000000	0.3678795397281647
61	0xbfc1b1cca0000000	-0.13823850452899933
62	0xbfc31d9e60000000	-0.1493413895368576
63	0x3fc22b6720000000	0.14194954931735992
64	0x3fcf6dd2a0000000	0.24553902447223663
65	0x3faaaf3080000000	0.05211783945560455
66	0x3fb4df5e00000000	0.08153331279754639
67	0x3fc502b160000000	0.16414467990398407
68	0xbfbe520e00000000	-0.11843955516815186
69	0x3fd5c2b220000000	0.34000828862190247
70	0xbfb60085e0000000	-0.0859454795718193
71	0xbfd6262280000000	-0.346077561378479
72	0xbfc18e8f80000000	-0.13716310262680054
73	0xbfbf25f2a0000000	-0.12167278677225113
74	0x3fd73de7a0000000	0.3631533682346344
75	0xbf8f529580000000	-0.015294235199689865
76	0x3fa35daf80000000	0.03782413899898529
77	0xbf81b88b00000000	-0.008652769029140472
78	0x3fa43eee80000000	0.039542630314826965
79	0xbfc0677480000000	-0.12815719842910767
80	0x3fbf124480000000	0.12137249112129211
81	0xbfb0566cc0000000	-0.06381873786449432
82	0xbfb4fb1500000000	-0.08195620775222778
83	0xbfc80a70c0000000	-0.18781861662864685
84	0xbf909a89a0000000	-0.016214514151215553
85	0xbfb82ba4a0000000	-0.09441594034433365
86	0xbfc61205a0000000	-0.17242498695850372
87	0xbfbc44d660000000	-0.11042537540197372
88	0x3fcd125340000000	0.2271217405796051
89	0x3fd1e54ba0000000	0.27962008118629456
90	0xbfcd7101e0000000	-0.2300112098455429
91	0xbfb8135800000000	-0.09404516220092773
92	0xbf9c4e9880000000	-0.027643568813800812
93	0x3fc195eb00000000	0.13738763332366943
94	0x3fc289b3c0000000	0.14482733607292175
95	0x3fc1389140000000	0.13453879952430725
96	0x3fc1e35ac0000000	0.13975080847740173
97	0x3fca7a21c0000000	0.20685216784477234
98	0x3fd4374bc0000000	0.31587499380111694
99	0x3fb8cc1b80000000	0.09686443209648132
100	0xbfc058de40000000	-0.12771204113960266
101	0xbfda40b560000000	-0.41019949316978455
102	0xbfb2c82b60000000	-0.07336684316396713
103	0xbfd49c7680000000	-0.32204973697662354
104	0x3f94d28880000000	0.02033437043428421
105	0xbfb875c980000000	-0.09554728865623474
106	0xbfc69d9420000000	-0.1766839176416397
107	0x3fb74bada0000000	0.09099850803613663
108	0x3fd8fcae80000000	0.3904224634170532
109	0x3fb2d749e0000000	0.07359754294157028
110	0x3fe8f31000000000	0.7796707153320312
111	0xbfc48bdfa0000000	-0.1605186015367508
112	0xbff18fd220000000	-1.0976125001907349
113	0xbfe0a840a0000000	-0.5205386281013489
114	0xbfa1fb7c20000000	-0.03512180224061012
115	0x3fe0846300000000	0.5161604881286621
116	0x3f9db687c0000000	0.029016610234975815
117	0x3fcdb332c0000000	0.2320311963558197
118	0x3fdbcb9aa0000000	0.4343020021915436
119	0x3fe1007160000000	0.5313040614128113
120	0xbfcbc66a20000000	-0.21699263155460358
121	0x3fc7437680000000	0.18174630403518677
122	0x3fb6465bc0000000	0.08701108396053314
123	0x3fce8348c0000000	0.23838147521018982
124	0x3fe3088260000000	0.5947887301445007
125	0xbfc3df99c0000000	-0.15526124835014343
126	0xbfd0059bc0000000	-0.25034230947494507
127	0x3fcdda8da0000000	0.23323221504688263
128	0xbfd8f73280000000	-0.39008772373199463
129	0x3fed493a40000000	0.9151889085769653
130	0x3fb67105e0000000	0.08766209334135056
131	0xbfc0a1a7a0000000	-0.12993331253528595
132	0x3ff1fbc8c0000000	1.1239707469940186
133	0x3fc7e52820000000	0.18668080866336823
134	0x3fd5379980000000	0.3315185308456421
135	0x3fe9733000000000	0.7953109741210938
136	0x3ff27fc5c0000000	1.1561944484710693
137	0x3fe4a36e00000000	0.6449499130249023
138	0xbfbc34da40000000	-0.11018146574497223
139	0x3fbe6e9060000000	0.11887457221746445
140	0xbfe10d8240000000	-0.532899022102356
141	0x3fe62d6680000000	0.6930420398712158
142	0xbfe9ce88a0000000	-0.8064616322517395
143	0x3fce12dde0000000	0.23495076596736908
144	0x3fddf21b60000000	0.4679020345211029
145	0xbfde7984a0000000	-0.47616687417030334
146	0xbfb92efde0000000	-0.09837328642606735
147	0x3f9473cc20000000	0.01997298188507557
148	0xbfb906abc0000000	-0.09775803983211517
149	0x3fa3a6ba40000000	0.03838140517473221
150	0xbfc6b972e0000000	-0.17753444612026215
151	0xbfe5a05380000000	-0.67582106590271
152	0x3feb65b0e0000000	0.8561634421348572
153	0xbfe37765a0000000	-0.6083248257637024
154	0x3fb254b920000000	0.07160527259111404
155	0x3fceb7fae0000000	0.23998962342739105
156	0x3fd2861be0000000	0.28943535685539246
157	0xbfcdf589c0000000	-0.23405572772026062
158	0xbfbf4fe000000000	-0.12231254577636719
159	0x3fc2c10c60000000	0.1465163677930832
160	0xbfc8683f80000000	-0.19068139791488647
161	0xbfea355c80000000	-0.8190138339996338
162	0x3fee2c5ec0000000	0.9429162740707397
163	0x3fddd9c160000000	0.46641573309898376
164	0xbfb4dbfa40000000	-0.08148159086704254
165	0xbfb74992c0000000	-0.09096638858318329
166	0xbfc01d3a60000000	-0.12589196860790253
167	0xbfd1affba0000000	-0.27636614441871643
168	0xbff1051540000000	-1.0637409687042236
169	0xbfe86b4ee0000000	-0.7630991339683533
170	0xbfe7deed60000000	-0.7459627985954285
171	0xbfaa0396c0000000	-0.050808630883693695
172	0x3fc76641e0000000	0.18280814588069916
173	0xbfc58d0ba0000000	-0.16836686432361603
174	0xbfce989340000000	-0.23903122544288635
175	0x3fd4c100a0000000	0.32427993416786194
176	0x3fb5f9b4a0000000	0.08584145456552505
177	0x3fcbffb800000000	0.21874141693115234
178	0xbfd61ff3e0000000	-0.3457002341747284
179	0xbf8d8d7620000000	-0.014429972507059574
180	0xbfadd552a0000000	-0.05826814845204353
181	0xbff1252d60000000	-1.071576476097107
182	0x3fd64b9200000000	0.34836244583129883
183	0x3fba7be880000000	0.10345318913459778
184	0x3f8e010180000000	0.014650356024503708
185	0xbfba3b1e20000000	-0.10246456414461136
186	0x3fe3799ee0000000	0.6085962653160095
187	0xbfb2f5cfc0000000	-0.07406328618526459
188	0x3feac48440000000	0.8364888429641724
189	0xbfe2387920000000	-0.5693936944007874
190	0xbfd4c52360000000	-0.3245323598384857
191	0xbfbd2a8300000000	-0.11392992734909058
192	0xbfaafede40000000	-0.052725739777088165
193	0xbfde9cb4c0000000	-0.4783145785331726
194	0xbfedd26520000000	-0.9319329857826233
195	0x3fdc6da120000000	0.44419124722480774
196	0x3fd31b6f40000000	0.29854947328567505
197	0x3fdec39f80000000	0.4806898832321167
198	0xbfdb3e4520000000	-0.4256756603717804
199	0x3fcaec2760000000	0.21033184230327606
200	0xbfc8f79e00000000	-0.19505667686462402
201	0x3feaad8660000000	0.8336822390556335
202	0x3ff29fb2e0000000	1.1639889478683472
203	0x3ff0beec80000000	1.04661226272583
204	0x3feeca56c0000000	0.9621995687484741
205	0x3fc08ba320000000	0.12926138937473297
206	0x3fc798aa60000000	0.18434648215770721
207	0xbfa390a520000000	-0.03821292892098427
208	0xbfe97012c0000000	-0.7949308156967163
209	0xbfe380bf00000000	-0.6094660758972168
210	0xbfe63ca760000000	-0.6949040293693542
211	0xbfdd4e0f40000000	-0.4578893780708313
212	0xbfd4031820000000	-0.3126888573169708
213	0x3fc3536f80000000	0.1509837508201599
214	0x3fe91973a0000000	0.7843568921089172
215	0x3fe93527a0000000	0.7877386212348938
216	0xbfd1c238c0000000	-0.277479350566864
217	0xbfdbc3fec0000000	-0.4338375926017761
218	0x3f9f3350e0000000	0.030469192191958427
219	0xbfc84c5380000000	-0.1898292899131775
220	0x3fb122a680000000	0.0669349730014801
221	0x3fc81d7ec0000000	0.18840011954307556
222	0x3fc8165200000000	0.18818116188049316
223	0x3fd72bf040000000	0.36205679178237915
224	0x3fb81afca0000000	0.09416178613901138
225	0xbfc1babf40000000	-0.1385115683078766
226	0xbfd724e960000000	-0.3616279065608978
227	0xbfb8546d80000000	-0.0950382649898529
228	0xbfb9bc16c0000000	-0.10052625834941864
229	0xbfdc92a400000000	-0.44645023345947266
230	0xbfe001afc0000000	-0.5002058744430542
231	0xbfcfbc1c80000000	-0.2479282021522522
232	0xbfaa159f40000000	-0.05094621330499649
233	0xbfe0171180000000	-0.5028159618377686
234	0x3fd9295c20000000	0.39314940571784973
235	0x3fcb9ca0a0000000	0.2157173901796341
236	0x3fbe15e3a0000000	0.1175215020775795
237	0xbfb642cfa0000000	-0.08695695549249649
238	0x3fd31d6620000000	0.29866936802864075
239	0x3fe1f06fc0000000	0.5606001615524292
240	0xbf85091d20000000	-0.010271289385855198
241	0x3fd7251340000000	0.3616378903388977
242	0x3fd593fca0000000	0.33715739846229553
243	0xbfaf936800000000	-0.06167149543762207
244	0xbf90576520000000	-0.015958385542035103
245	0xbfb126e9a0000000	-0.06700000911951065
246	0x3fce3beee0000000	0.23620401322841644
247	0x3fdba61ba0000000	0.4320134222507477
248	0xbfd1f3bf60000000	-0.28050217032432556
249	0xbfb5e4c3e0000000	-0.08552192896604538
250	0x3fb9537b80000000	0.09893009066581726
251	0xbfd9652e20000000	-0.39680054783821106
252	0xbfc5dc7fe0000000	-0.1707916110754013
253	0xbfc42d7ec0000000	-0.15763840079307556
254	0xbfc9a0c600000000	-0.20021891593933105
255	0xbfcd876940000000	-0.23069491982460022

cutoff f8 [1]
0	0x4014000000000000	5.0

initpot f8 [1]
0	0xc0638ac940000000	-156.33706665039062

initpot f8 [1]
0	0x0000000000000000	0.0

weight f8 [64, 118]
0	0x3fc3cc0940000000	0.15466418862342834
1	0x3f96c089c0000000	0.022218849509954453
2	0xbfb9f7a760000000	-0.10143514722585678
3	0xbfc208d3e0000000	-0.14089439809322357
4	0x3f99743220000000	0.02485731430351734
5	0xbfc10c78a0000000	-0.13319309055805206
6	0xbf9dd00020000000	-0.02911377139389515
7	0xbfb692afc0000000	-0.08817575871944427
8	0x3fc2bf67a0000000	0.1464662104845047
9	0xbfcaa90ac0000000	-0.20828375220298767
10	0x3fba8dcc60000000	0.10372617095708847
11	0x3fc1224440000000	0.13385823369026184
12	0x3fc1647f80000000	0.13587945699691772
13	0xbfc004bc00000000	-0.12514448165893555
14	0xbfc1e7cca0000000	-0.13988645374774933
15	0xbfa12a32e0000000	-0.033525075763463974
16	0xbfac3f7a60000000	-0.055171798914670944
17	0x3fb92ac2e0000000	0.0983087345957756
18	0xbfb00ec6c0000000	-0.06272546947002411
19	0xbfc2f26780000000	-0.1480225920677185
20	0xbfa53dad60000000	-0.04148618504405022
21	0xbfc47ccce0000000	-0.16005860269069672
22	0x3fc2fd69e0000000	0.1483585685491562
23	0x3fb6937900000000	0.08818775415420532
24	0xbfbddf6260000000	-0.11668982356786728
25	0xbfb1815c40000000	-0.06838013231754303
26	0xbfa8969540000000	-0.048023857176303864
27	0x3fb5b03ee0000000	0.08472054451704025
28	0xbfb417bb20000000	-0.0784871056675911
29	0xbfbe41f920000000	-0.11819417029619217
30	0x3fa9223360000000	0.04908905550837517
31	0x3fc13b3680000000	0.13461953401565552
32	0xbfc181af80000000	-0.13677018880844116
33	0xbfaf72eb20000000	-0.06142363324761391
34	0x3fb88d5c80000000	0.09590700268745422
35	0x3f8fbfca60000000	0.01550253015011549
36	0x3fc6e7d000000000	0.17894935607910156
37	0x3fc3300660000000	0.1499031037092209
38	0x3fc4105540000000	0.1567484438419342
39	0xbfb05483a0000000	-0.06378958374261856
40	0xbfbc95d4c0000000	-0.11166124045848846
41	0xbfa0b15ee0000000	-0.03260323032736778
42	0xbfb5350680000000	-0.08284035325050354
43	0xbfbae6c500000000	-0.10508376359939575
44	0x3fc0226800000000	0.12604999542236328
45	0x3f759e01c0000000	0.00527764018625021
46	0xbfb985de60000000	-0.09969892352819443
47	0xbf95155ae0000000	-0.020589275285601616
48	0x3fa1d57800000000	0.03483176231384277
49	0x3fa068e140000000	0.03205017000436783
50	0xbfb53ffac0000000	-0.08300749957561493
51	0x3fc21d9720000000	0.14152802526950836
52	0xbfa313c500000000	-0.037260204553604126
53	0xbfb9d95500000000	-0.10097247362136841
54	0xbfb1bf6b00000000	-0.06932705640792847
55	0xbfc54638c0000000	-0.166205495595932
56	0xbfa037d340000000	-0.03167591243982315
57	0xbfbb3a1c00000000	-0.10635542869567871
58	0xbf87d100a0000000	-0.011629109270870686
59	0xbfc49a18a0000000	-0.1609526425600052
60	0xbf9ba89400000000	-0.02701026201248169
61	0xbfb81bdfc0000000	-0.094175323843956
62	0xbfc3446fe0000000	-0.1505260318517685
63	0xbfc72d02a0000000	-0.18106110394001007
64	0x3fb07dade0000000	0.06441771239042282
65	0x3faf6d0bc0000000	0.061378829181194305
66	0xbfc2aaef60000000	-0.14584152400493622
67	0x3fb814dfe0000000	0.09406851977109909
68	0x3fb378cf80000000	0.0760621726512909
69	0x3fb07129e0000000	0.06422673910856247
70	0xbfc19ede80000000	-0.13766080141067505
71	0x3fa3c58940000000	0.03861645609140396
72	0x3fbf1754e0000000	0.12144976109266281
73	0x3fb4e76d40000000	0.08165629208087921
74	0x3fc44f1c20000000	0.15866424143314362
75	0xbfb8189500000000	-0.09412509202957153
76	0x3f9b9bf400000000	0.026962101459503174
77	0x3fc145b020000000	0.13493920862674713
78	0xbfb1311140000000	-0.06715495884418488
79	0xbfc2759ca0000000	-0.1442142277956009
80	0x3fb9c00980000000	0.10058650374412537
81	0x3fb7b25040000000	0.09256459772586823
82	0x3fbf968800000000	0.12339067459106445
83	0xbfc55ddac0000000	-0.16692671179771423
84	0xbfa2f00820000000	-0.0369875468313694
85	0x3fc43da000000000	0.15813064575195312
86	0x3fc3b67660000000	0.15400581061840057
87	0xbfa3e9c760000000	-0.0388929657638073
88	0xbf91e95620000000	-0.017491670325398445
89	0xbfb263d320000000	-0.0718357041478157
90	0xbfbae8e200000000	-0.10511600971221924
91	0x3fb7fa20c0000000	0.0936603993177414
92	0xbfc0767d80000000	-0.12861603498458862
93	0x3fc226d960000000	0.1418105810880661
94	0xbfc039b600000000	-0.12676119804382324
95	0x3f9ec22960000000	0.030037542805075645
96	0xbfc3516f00000000	-0.15092265605926514
97	0x3fbb28d960000000	0.10609205812215805
98	0x3fc14d3ec0000000	0.1351698338985443
99	0xbf99a15d40000000	-0.02502961829304695
100	0x3fbd4b98a0000000	0.11443475633859634
101	0x3fb89a2d60000000	0.09610255807638168
102	0xbfb0178cc0000000	-0.06285934150218964
103	0x3fb6506ac0000000	0.08716456592082977
104	0x3f93152980000000	0.01863541454076767
105	0x3fb6767040000000	0.08774472773075104
106	0x3fc54eb020000000	0.16646386682987213
107	0x3fc5934e00000000	0.16855788230895996
108	0xbfbe649e40000000	-0.1187228113412857
109	0xbfc56d2da0000000	-0.16739435493946075
110	0x3fbb3db940000000	0.10641057789325714
111	0xbfa4dd0040000000	-0.04074860364198685
112	0x3fbf659f80000000	0.12264439463615417
113	0xbfa0423ca0000000	-0.031755346804857254
114	0x3fb9cd1d00000000	0.10078603029251099
115	0xbf87de4e40000000	-0.011654483154416084
116	0x3fc2e42520000000	0.14758743345737457
117	0xbfb49ce320000000	-0.08051890879869461
118	0xbfc0e77360000000	-0.13206331431865692
119	0xbfa4bb02c0000000	-0.040489278733730316
120	0xbfca66c180000000	-0.20626085996627808
121	0xbfb8a9f5c0000000	-0.09634338319301605
122	0x3fbe91bd60000000	0.11941131204366684
123	0xbfba254ba0000000	-0.10213158279657364
124	0xbfa5e8e120000000	-0.04279235377907753
125	0x3fc03169e0000000	0.1265079826116562
126	0xbfbcfc0b40000000	-0.11322088539600372
127	0xbfd03822c0000000	-0.2534262537956238
128	0xbfb355e7e0000000	-0.0755295678973198
129	0x3fa6a85660000000	0.04425306245684624
130	0x3fbd765560000000	0.1150868758559227
131	0x3f98790060000000	0.023899083957076073
132	0xbf70c64560000000	-0.004095335956662893
133	0x3fba3c3c60000000	0.10248162597417831
134	0x3fbd89b780000000	0.11538264155387878
135	0xbfa0933de0000000	-0.03237336501479149
136	0xbfa22178e0000000	-0.03541162237524986
137	0x3fb759ba00000000	0.09121286869049072
138	0xbfc1516820000000	-0.13529683649539948
139	0xbfbd254720000000	-0.11385006457567215
140	0xbfb29ab900000000	-0.07267338037490845
141	0x3fc5fb6d40000000	0.17173543572425842
142	0x3fc52cb960000000	0.16542737185955048
143	0xbfc5087600000000	-0.164320707321167
144	0x3fb17e5460000000	0.06833388656377792
145	0x3fb06c9720000000	0.06415695697069168
146	0x3fc2f93da0000000	0.14823122322559357
147	0x3fc52aa2a0000000	0.1653636246919632
148	0xbfa4ee0980000000	-0.04087857902050018
149	0xbf909cd6e0000000	-0.016223294660449028
150	0x3fa583afa0000000	0.04202030971646309
151	0x3fc54feec0000000	0.16650184988975525
152	0xbfb8763460000000	-0.09555365890264511
153	0xbfc4f32800000000	-0.16367053985595703
154	0x3fa21f2a60000000	0.03539402410387993
155	0xbfab3da3c0000000	-0.053204648196697235
156	0xbf9c341a00000000	-0.02754250168800354
157	0xbf8d574c20000000	-0.014326662756502628
158	0x3fa9d836e0000000	0.050477709621191025
159	0x3fbaf46d40000000	0.10529215633869171
160	0xbfb452df00000000	-0.07938951253890991
161	0x3fba768d40000000	0.10337145626544952
162	0xbf88715a60000000	-0.01193495374172926
163	0x3fc2c1a240000000	0.14653423428535461
164	0x3fc0e4a060000000	0.1319771260023117
165	0x3fc5fe5e00000000	0.17182517051696777
166	0xbf7842a7e0000000	-0.005922942887991667
167	0xbfa9763c40000000	-0.04973018914461136
168	0x3f9bb95b20000000	0.027074264362454414
169	0xbfc2c25ce0000000	-0.14655648171901703
170	0x3fbb123f20000000	0.10574717074632645
171	0xbf7bd74a00000000	-0.00679711252450943
172	0x3fc1f8ef80000000	0.1404094099998474
173	0xbf86501d60000000	-0.010894994251430035
174	0xbfb20724a0000000	-0.0704214945435524
175	0x3f78c7a1c0000000	0.00604975875467062
176	0xbf8455f880000000	-0.009929601103067398
177	0xbfc7195000000000	-0.18045997619628906
178	0xbf79b70d80000000	-0.006278088316321373
179	0x3fc65d99a0000000	0.17473144829273224
180	0x3fc11d70a0000000	0.13371093571186066
181	0xbfb1f3a960000000	-0.07012423127889633
182	0xbfacdf2740000000	-0.05639002472162247
183	0x3f9d99b060000000	0.02890658937394619
184	0xbfc06be960000000	-0.1282932013273239
185	0xbfc4cde780000000	-0.162533700466156
186	0xbfc4c0a600000000	-0.16212916374206543
187	0x3fbae2c9a0000000	0.10502300411462784
188	0x3fc4051220000000	0.1564047485589981
189	0xbfc006d760000000	-0.125208780169487
190	0xbfc2232420000000	-0.14169742166996002
191	0xbfac257dc0000000	-0.0549735352396965
192	0x3fbf18f720000000	0.12147469073534012
193	0xbfb0db5260000000	-0.06584658473730087
194	0x3fbaa6c840000000	0.10410739481449127
195	0x3fab9275e0000000	0.05385177955031395
196	0x3f7414b840000000	0.004902572371065617
197	0x3fbcda5940000000	0.1127067357301712
198	0x3fb235c380000000	0.07113286852836609
199	0xbfba1cec20000000	-0.10200382024049759
200	0x3fb41acb80000000	0.07853385806083679
201	0x3fbdee0880000000	0.11691334843635559
202	0xbfc01f9ea0000000	-0.12596495449543
203	0x3fc1a624a0000000	0.1378827840089798
204	0xbfa112ad60000000	-0.03334562107920647
205	0xbfb578b500000000	-0.08387309312820435
206	0x3fc3bf9180000000	0.15428370237350464
207	0x3fbb908460000000	0.10767390578985214
208	0xbfbac14f40000000	-0.10451216995716095
209	0x3fc1cd2540000000	0.13907304406166077
210	0xbfc48853a0000000	-0.16041035950183868
211	0x3fc41d4f60000000	0.1571444720029831
212	0xbfab5ddd80000000	-0.053450509905815125
213	0xbfbc127920000000	-0.10965687781572342
214	0x3fc71db1e0000000	0.18059371411800385
215	0x3f7f46d7c0000000	0.007635920308530331
216	0x3fc115a700000000	0.13347327709197998
217	0xbfbc76aaa0000000	-0.1111857071518898
218	0xbf9c6d1480000000	-0.0277598574757576
219	0x3fbe6085a0000000	0.11866030842065811
220	0xbfa3715ca0000000	-0.03797425702214241
221	0xbf8a05c320000000	-0.012706303037703037
222	0x3fbc19ee20000000	0.10977066308259964
223	0x3fc05a0ea0000000	0.12774832546710968
224	0xbfbc321c60000000	-0.1101396307349205
225	0x3fc11f2020000000	0.13376237452030182
226	0xbfaf2771e0000000	-0.06084781512618065
227	0x3f73cbb140000000	0.004832928068935871
228	0x3f7835e0c0000000	0.0059107569977641106
229	0xbfb0363f00000000	-0.06332772970199585
230	0x3f873173e0000000	0.011324792169034481
231	0xbf9b06e2c0000000	-0.026393454521894455
232	0xbfc3eb9c20000000	-0.15562774240970612
233	0x3fb798bf80000000	0.09217450022697449
234	0xbfb353faa0000000	-0.07550016790628433
235	0x3f833176e0000000	0.009371689520776272
236	0xbfb94ed7e0000000	-0.09885930269956589
237	0xbf866a1d00000000	-0.010944582521915436
238	0x3fd05f6d80000000	0.2558244466781616
239	0xbfc5a50f80000000	-0.16909974813461304
240	0xbfa496a900000000	-0.04021194577217102
241	0xbfbf2dfb60000000	-0.12179537862539291
242	0xbfc658a0c0000000	-0.1745797097682953
243	0xbfac5e2060000000	-0.0554056279361248
244	0xbfb1457c80000000	-0.06746652722358704
245	0xbf92d5b5c0000000	-0.018393363803625107
246	0x3fb78e9880000000	0.09201958775520325
247	0xbfbddb7360000000	-0.11662980169057846
248	0x3fae2332e0000000	0.058862295001745224
249	0x3fbdf22bc0000000	0.11697648465633392
250	0x3fba46a840000000	0.10264064371585846
251	0xbfbd9b7da0000000	-0.11565385013818741
252	0xbfc000abe0000000	-0.12502048909664154
253	0x3f7d4de100000000	0.007154349237680435
254	0x3fb9fe0860000000	0.101532481610775
255	0xbfa8f46140000000	-0.0487394705414772

bias f8 [64]
0	0xbfbaaef260000000	-0.10423197597265244
1	0xbfaae2e920000000	-0.05251244083046913
2	0x3fc3cd24c0000000	0.154697984457016
3	0xbfa2181360000000	-0.03533993288874626
4	0x3fb87f9620000000	0.0956968143582344
5	0x3fc6791540000000	0.17557016015052795
6	0x3f9112e900000000	0.016673699021339417
7	0x3fc2bd5980000000	0.1464034914970398
8	0xbfc2e67c80000000	-0.14765888452529907
9	0xbfbfed9220000000	-0.1247187927365303
10	0xbfbc1fee20000000	-0.10986221581697464
11	0x3fa85977c0000000	0.047557584941387177
12	0xbfa31907c0000000	-0.037300340831279755
13	0x3facb3f500000000	0.056060463190078735
14	0xbfb7e8a060000000	-0.09339334815740585
15	0x3fb8d7b8e0000000	0.09704165905714035
16	0x3fbaa101a0000000	0.10401926189661026
17	0x3face0f280000000	0.056403711438179016
18	0x3fb7d08300000000	0.09302538633346558
19	0x3fc1c87100000000	0.13892948627471924
20	0xbf10333380000000	-6.179811316542327e-05
21	0x3f9e9eb5e0000000	0.02990230731666088
22	0xbfb2907f40000000	-0.07251735031604767
23	0xbfa1133b20000000	-0.03334984555840492
24	0xbfb93132a0000000	-0.09840694814920425
25	0xbfc268b7e0000000	-0.14382074773311615
26	0xbfc0f999e0000000	-0.13261722028255463
27	0x3faf147300000000	0.060702890157699585
28	0x3fa88604a0000000	0.04789747670292854
29	0xbfc16efc00000000	-0.1361994743347168
30	0x3fa2e47000000000	0.03689908981323242
31	0xbfc2191c60000000	-0.141391322016716
32	0xbf99956c20000000	-0.02498406358063221
33	0xbfbc7be240000000	-0.11126531660556793
34	0x3fc15ca700000000	0.13564002513885498
35	0x3faa277760000000	0.05108235403895378
36	0x3fcde23e80000000	0.23346692323684692
37	0xbf932c1140000000	-0.018722791224718094
38	0x3fb09e2260000000	0.06491293758153915
39	0xbfb4986440000000	-0.08045031130313873
40	0x3f95ae7720000000	0.021173344925045967
41	0xbfbac83cc0000000	-0.1046178787946701
42	0x3fcdf0dfc0000000	0.233913391828537
43	0xbfb54b99a0000000	-0.08318481594324112
44	0x3fb32430c0000000	0.0747709721326828
45	0x3f7a369e00000000	0.0063997432589530945
46	0xbfaaea13a0000000	-0.05256711319088936
47	0xbfbcff3960000000	-0.11326941102743149
48	0x3fb888dda0000000	0.09583840519189835
49	0xbfc5cddc80000000	-0.17034488916397095
50	0x3fc6758820000000	0.1754617840051651
51	0x3f8e031760000000	0.01465433370321989
52	0x3fc1489620000000	0.1350276619195938
53	0x3fb12fc840000000	0.06713534891605377
54	0xbf9a51dd40000000	-0.025702912360429764
55	0x3fc671ec60000000	0.17535166442394257
56	0xbfc99f4c60000000	-0.20017389953136444
57	0xbfbcb44a60000000	-0.11212601512670517
58	0x3fc4ab13e0000000	0.16147087514400482
59	0x3fbd2b9300000000	0.11394613981246948
60	0x3fc251fd00000000	0.14312708377838135
61	0xbfc6a5aea0000000	-0.1769312173128128
62	0xbfc6346440000000	-0.17347386479377747
63	0x3fa857a340000000	0.04754362255334854

alpha f8 [1, 64]
0	0x3ff1bd5180000000	1.108720302581787
1	0x3ff107acc0000000	1.0643737316131592
2	0x3ff1bd50a0000000	1.1087194681167603
3	0x3ff1eda7e0000000	1.1205214262008667
4	0x3ff14ea3c0000000	1.0816991329193115
5	0x3ff1b54140000000	1.1067516803741455
6	0x3ff1bb0380000000	1.1081576347351074
7	0x3ff197b300000000	1.0995359420776367
8	0x3ff10b1740000000	1.0652077198028564
9	0x3ff19f8440000000	1.1014444828033447
10	0x3ff1ca2ec0000000	1.111860990524292
11	0x3ff1ca03a0000000	1.111819863319397
12	0x3ff0ea88c0000000	1.0572593212127686
13	0x3ff2768d60000000	1.153943419456482
14	0x3ff0d77780000000	1.0526041984558105
15	0x3ff125e040000000	1.071747064590454
16	0x3ff1489e00000000	1.0802288055419922
17	0x3ff1b7f260000000	1.107408881187439
18	0x3ff1750d40000000	1.0910770893096924
19	0x3ff0f889c0000000	1.060678243637085
20	0x3ff199ac40000000	1.100017786026001
21	0x3ff0cf8380000000	1.0506625175476074
22	0x3ff1534d80000000	1.0828375816345215
23	0x3ff0e51ac0000000	1.0559337139129639
24	0x3ff1063320000000	1.0640136003494263
25	0x3ff1a65e80000000	1.1031174659729004
26	0x3ff265c720000000	1.1498481035232544
27	0x3ff3b4ef40000000	1.2316734790802002
28	0x3ff3831b80000000	1.2195086479187012
29	0x3ff0de6fc0000000	1.0543057918548584
30	0x3ff0fb77c0000000	1.0613934993743896
31	0x3ff1e3bac0000000	1.1180980205535889
32	0x3ff1247be0000000	1.0714071989059448
33	0x3ff0d24e80000000	1.051344394683838
34	0x3ff0c3d580000000	1.0478110313415527
35	0x3ff587a2e0000000	1.3456143140792847
36	0x3ff3850f40000000	1.2199852466583252
37	0x3ff154c9c0000000	1.083200216293335
38	0x3ff1001aa0000000	1.0625253915786743
39	0x3ff15c2620000000	1.084997296333313
40	0x3ff0f4d220000000	1.0597707033157349
41	0x3ff0d648a0000000	1.052315354347229
42	0x3ff3b5b820000000	1.2318650484085083
43	0x3ff13525a0000000	1.0754753351211548
44	0x3ff0e12600000000	1.0549678802490234
45	0x3ff11f1340000000	1.0700867176055908
46	0x3ff1c32d80000000	1.1101508140563965
47	0x3ff0d0fca0000000	1.0510221719741821
48	0x3ff1ce68a0000000	1.112892746925354
49	0x3ff2161d80000000	1.130399227142334
50	0x3ff1a1f980000000	1.1020445823669434
51	0x3ff159b380000000	1.084399700164795
52	0x3ff1c6e4e0000000	1.1110581159591675
53	0x3ff25877c0000000	1.1465985774993896
54	0x3ff2946400000000	1.1612281799316406
55	0x3ff23c4300000000	1.1397123336791992
56	0x3ff2c81200000000	1.1738452911376953
57	0x3ff52f5600000000	1.324056625366211
58	0x3ff1f7faa0000000	1.1230417490005493
59	0x3ff1ccf1a0000000	1.1125351190567017
60	0x3ff121b240000000	1.0707266330718994
61	0x3ff16fc920000000	1.0897914171218872
62	0x3ff1501320000000	1.0820494890213013
63	0x3ff1397b00000000	1.076533317565918

beta f8 [1, 64]
0	0x3fbce58fa0000000	0.11287782341241837
1	0x3fb2baed80000000	0.07316479086875916
2	0x3fb8210e80000000	0.09425440430641174
3	0x3fbfda9140000000	0.12442882359027863
4	0x3fb64033c0000000	0.08691714704036713
5	0x3fbcc0dd40000000	0.11231787502765656
6	0x3fb7d0dec0000000	0.09303085505962372
7	0x3fb5dec400000000	0.08543038368225098
8	0x3fb048e8e0000000	0.06361251324415207
9	0x3fb8603420000000	0.09521795064210892
10	0x3fbc4a62a0000000	0.11051002889871597
11	0x3fbccd4b00000000	0.11250752210617065
12	0x3faff4cfc0000000	0.062414638698101044
13	0x3fc41d4ec0000000	0.15714439749717712
14	0x3faece9020000000	0.06016970053315163
15	0x3fb06a3e20000000	0.06412113457918167
16	0x3fb61cfc20000000	0.086379773914814
17	0x3fbab03c60000000	0.10425164550542831
18	0x3fb8df1fc0000000	0.09715460240840912
19	0x3fb1222580000000	0.06692728400230408
20	0x3fc4dc3ec0000000	0.1629713475704193
21	0x3fab154720000000	0.052896711975336075
22	0x3fb160c2a0000000	0.06788269430398941
23	0x3fadc74580000000	0.058160945773124695
24	0x3fb0017ae0000000	0.06252258270978928
25	0x3fbb7b57e0000000	0.10735081881284714
26	0x3fc2f4bc80000000	0.14809376001358032
27	0x3fd1b60e20000000	0.2767367660999298
28	0x3fd23a59a0000000	0.284811407327652
29	0x3fa7cf3260000000	0.04650266095995903
30	0x3fb132e520000000	0.06718284636735916
31	0x3fb83725c0000000	0.09459148347377777
32	0x3fb40e69c0000000	0.07834492623806
33	0x3facb827e0000000	0.05609249696135521
34	0x3faa27e100000000	0.05108550190925598
35	0x3fdd91a280000000	0.462013840675354
36	0x3fc6985d40000000	0.1765247881412506
37	0x3fb169d0e0000000	0.06802087277173996
38	0x3faed68f00000000	0.06023070216178894
39	0x3fb3cc0560000000	0.07733186334371567
40	0x3faca133c0000000	0.05591737478971481
41	0x3fa72522c0000000	0.04520519822835922
42	0x3fc8171460000000	0.1882043331861496
43	0x3fb26b1320000000	0.07194633036851883
44	0x3fabaaac00000000	0.054036498069763184
45	0x3fb2597360000000	0.07167740911245346
46	0x3fbd261440000000	0.1138622909784317
47	0x3fade5d0a0000000	0.05839397385716438
48	0x3fbdd39880000000	0.11650994420051575
49	0x3fbff87d00000000	0.12488538026809692
50	0x3fbb86bb80000000	0.10752460360527039
51	0x3fb2f49300000000	0.07404440641403198
52	0x3fb8beec60000000	0.09666325896978378
53	0x3fbfa8ea60000000	0.12367119640111923
54	0x3fc54ab020000000	0.16634179651737213
55	0x3fbede04e0000000	0.12057524174451828
56	0x3fc13be2c0000000	0.13464006781578064
57	0x3fd9d03d40000000	0.40333491563796997
58	0x3fbc2569c0000000	0.1099458783864975
59	0x3fbddcfdc0000000	0.11665330827236176
60	0x3fb04f23c0000000	0.06370757520198822
61	0x3fb8ad12c0000000	0.09639088809490204
62	0x3fb6dcc580000000	0.08930620551109314
63	0x3fb4e7c840000000	0.08166171610355377

weight f8 [24, 64]
0	0x3fa05f7f00000000	0.03197857737541199
1	0x3f94462f80000000	0.019798986613750458
2	0xbf8407d760000000	-0.00978058110922575
3	0x3fbaf89980000000	0.10535582900047302
4	0xbf95766ca0000000	-0.02095956541597843
5	0xbf9aa78e20000000	-0.02602979727089405
6	0xbf8786da40000000	-0.011487679556012154
7	0xbf8b3b0ca0000000	-0.013296221382915974
8	0x3f92d7c480000000	0.018401212990283966
9	0x3fa026c700000000	0.03154584765434265
10	0x3fa3664a00000000	0.03788977861404419
11	0xbf99466180000000	-0.02468254417181015
12	0x3f930c73e0000000	0.018602190539240837
13	0xbfa85a4900000000	-0.0475638210773468
14	0x3f9318ff80000000	0.018650047481060028
15	0xbf86d831a0000000	-0.011154544539749622
16	0xbf95b1d800000000	-0.021186232566833496
17	0xbf9f5a23c0000000	-0.03061729297041893
18	0xbf975a09a0000000	-0.02280440367758274
19	0xbf9360a420000000	-0.01892334409058094
20	0x3fc1f5fe20000000	0.1403196007013321
21	0xbf900407a0000000	-0.015640372410416603
22	0x3f94af61c0000000	0.020200278609991074
23	0x3f92b7d540000000	0.018279392272233963
24	0x3f92cfc0a0000000	0.01837063767015934
25	0x3f9a894ac0000000	0.025914352387189865
26	0x3fb2c0ad80000000	0.07325252890586853
27	0xbf8915a9a0000000	-0.012248349376022816
28	0x3faade9880000000	0.052479520440101624
29	0x3f94bd3de0000000	0.020253149792551994
30	0xbf93335a40000000	-0.01875058189034462
31	0x3f93c43280000000	0.01930312067270279
32	0x3f9499a8c0000000	0.020117413252592087
33	0x3f92ebcca0000000	0.018477628007531166
34	0xbf90018be0000000	-0.015630898997187614
35	0x3fb9a32940000000	0.10014589130878448
36	0xbf6471fe60000000	-0.0024957626592367887
37	0x3f9535bde0000000	0.020712820813059807
38	0xbf9016f6a0000000	-0.015712598338723183
39	0x3f939234c0000000	0.019112419337034225
40	0xbf8c1b3040000000	-0.013723732903599739
41	0x3f943c1160000000	0.019760390743613243
42	0xbf759e1580000000	-0.005277713760733604
43	0x3f934b0560000000	0.018840869888663292
44	0xbf8e286520000000	-0.014725484885275364
45	0xbf927eaba0000000	-0.018061334267258644
46	0x3fa22ac8a0000000	0.03548266366124153
47	0x3f9310ee00000000	0.018619269132614136
48	0xbf9fbba2a0000000	-0.030989209190011024
49	0x3fb0a6eb60000000	0.06504698842763901
50	0xbf996e4900000000	-0.0248347669839859
51	0xbf87368c20000000	-0.011334509588778019
52	0x3f63753ba0000000	0.0023752369452267885
53	0xbf869fd740000000	-0.011047059670090675
54	0xbfa74f66a0000000	-0.04552765563130379
55	0x3f8521b920000000	0.010318228043615818
56	0x3f99bd6ca0000000	0.025136658921837807
57	0x3fcc48cf60000000	0.2209719866514206
58	0x3f89781ca0000000	0.012436126358807087
59	0xbf9f47c2c0000000	-0.030547183007001877
60	0xbf85b1d9e0000000	-0.010593130253255367
61	0x3f9873f160000000	0.02387978695333004
62	0x3f96b0f460000000	0.022159403190016747
63	0xbf9498d0a0000000	-0.020114192739129066
64	0xbf7c205200000000	-0.006866760551929474
65	0xbf816501e0000000	-0.008493437431752682
66	0x3f72553880000000	0.004475804045796394
67	0x3fa235cde0000000	0.03556674346327782
68	0x3f8198ec80000000	0.008592460304498672
69	0x3f7f6ee240000000	0.0076741063967347145
70	0x3f70a028e0000000	0.00405899016186595
71	0x3f711fcf60000000	0.004180727060884237
72	0xbf77d88300000000	-0.0058217160403728485
73	0x3f97dc3fe0000000	0.023301122710108757
74	0x3f9440e940000000	0.019778866320848465
75	0x3f780bb380000000	0.005870534107089043
76	0xbf7e7cc0e0000000	-0.007443192880600691
77	0xbf77ae4e60000000	-0.0057814656756818295
78	0xbf7fa80e20000000	-0.007728629279881716
79	0x3f7b8bff80000000	0.006725309416651726
80	0x3f81b67a00000000	0.0086488276720047
81	0xbfa8f3bc00000000	-0.04873454570770264
82	0x3f81584b80000000	0.008469190448522568
83	0x3f80c519a0000000	0.008188438601791859
84	0x3f9a7a8820000000	0.025858046486973763
85	0x3f7e355a80000000	0.007375100627541542
86	0xbf6805fe00000000	-0.0029325447976589203
87	0xbf7b393ec0000000	-0.006646390073001385
88	0xbf781cf8e0000000	-0.005887005012482405
89	0xbf7e0ee4a0000000	-0.007338421884924173
90	0xbf39105880000000	-0.0003824440063908696
91	0xbf922c48a0000000	-0.017747053876519203
92	0xbf9906e8e0000000	-0.024440420791506767
93	0xbf75c7e6e0000000	-0.005317594390362501
94	0x3f80d45100000000	0.0082174614071846
95	0x3f933e1100000000	0.018791452050209045
96	0xbf817f99e0000000	-0.00854416098445654
97	0xbf7d21c340000000	-0.007112276740372181
98	0x3f7efedea0000000	0.007567281369119883
99	0x3fc79ee940000000	0.18453708291053772
100	0xbf8e140dc0000000	-0.014686686918139458
101	0xbf67957b80000000	-0.0028788959607481956
102	0x3f7a4bc4a0000000	0.006419914308935404
103	0xbf71706c00000000	-0.004257604479789734
104	0x3f7a914e00000000	0.006486229598522186
105	0xbf766501a0000000	-0.005467420909553766
106	0xbf87641e80000000	-0.011421430855989456
107	0xbf74fb2760000000	-0.005122331436723471
108	0x3f7bd93140000000	0.0067989276722073555
109	0x3f7fc9a6e0000000	0.007760669570416212
110	0xbf7c445cc0000000	-0.006901132874190807
111	0xbf7f2658c0000000	-0.007604929618537426
112	0x3f7b5c1d00000000	0.00667964294552803
113	0x3f94926ce0000000	0.02008981816470623
114	0x3f804dfbe0000000	0.007961242459714413
115	0x3f784070a0000000	0.005920829717069864
116	0xbf972be8c0000000	-0.022628437727689743
117	0x3f37c823e0000000	0.0003628814301919192
118	0xbf83e957e0000000	-0.009722410701215267
119	0xbf935a0ec0000000	-0.01889823004603386
120	0x3f822ec5e0000000	0.008878274820744991
121	0x3f6fb60cc0000000	0.0038709877990186214
122	0xbf9601d1e0000000	-0.021491317078471184
123	0x3f7bf1cbe0000000	0.006822391878813505
124	0x3f7cd04e00000000	0.00703459233045578
125	0xbf81904e40000000	-0.00857602246105671
126	0xbf81d09040000000	-0.008698584511876106
127	0x3f81734de0000000	0.008520706556737423
128	0xbf7a92ee00000000	-0.0064877793192863464
129	0xbf6e34f200000000	-0.0036873556673526764
130	0x3f6ee02840000000	0.0037689958699047565
131	0xbf86b5ed20000000	-0.011089184321463108
132	0x3f700bf160000000	0.00391763960942626
133	0x3f67419be0000000	0.0028389019425958395
134	0x3f708cec60000000	0.004040644969791174
135	0x3f710173a0000000	0.004151775036007166
136	0xbf7142cb40000000	-0.004214090295135975
137	0xbf8bb50d40000000	-0.013528922572731972
138	0xbf91807bc0000000	-0.01709168776869774
139	0x3f776b23a0000000	0.0057174102403223515
140	0xbf703c9500000000	-0.003964025527238846
141	0x3fa56e5b80000000	0.041857585310935974
142	0xbf6f7e3de0000000	-0.0038443764206022024
143	0x3f6cf67a60000000	0.003535498632118106
144	0x3f6eaae360000000	0.0037435952108353376
145	0x3f9eafd0a0000000	0.02996755577623844
146	0x3f6caa7960000000	0.003499257145449519
147	0x3f6f7197e0000000	0.0038383451756089926
148	0xbfbdff7920000000	-0.11717946082353592
149	0x3f6ee31d20000000	0.0037704056594520807
150	0xbf74c77ee0000000	-0.005073066335171461
151	0xbf70729d00000000	-0.004015553742647171
152	0xbf712c1820000000	-0.004192442167550325
153	0xbf747cd580000000	-0.005001863464713097
154	0xbfa101de00000000	-0.03321737051010132
155	0xbfc9b29200000000	-0.20076203346252441
156	0xbfc0b657c0000000	-0.13056465983390808
157	0xbf72f9af80000000	-0.004632649943232536
158	0x3f6f96e880000000	0.003856138326227665
159	0xbf744d97c0000000	-0.004956810735166073
160	0xbf6f582ac0000000	-0.0038262209855020046
161	0xbf7025c2c0000000	-0.003942261449992657
162	0x3f6e849860000000	0.0037253357004374266
163	0xbf92441e00000000	-0.017837971448898315
164	0x3f68b893a0000000	0.0030177005100995302
165	0xbf75a42620000000	-0.005283497739583254
166	0x3f702d8b60000000	0.003949684556573629
167	0xbf72c94ee0000000	-0.004586513619869947
168	0x3f6ec0f320000000	0.0037541149649769068
169	0xbf724b4360000000	-0.004466307815164328
170	0x3f702161a0000000	0.003938084933906794
171	0xbf71e56940000000	-0.004369174130260944
172	0x3f6ecc51e0000000	0.003759536659345031
173	0x3f708e4e60000000	0.0040419637225568295
174	0xbf7dfa2ec0000000	-0.007318670861423016
175	0xbf6fafde60000000	-0.003868040395900607
176	0x3f7770d6e0000000	0.005722846370190382
177	0xbfa705cf40000000	-0.0449661985039711
178	0x3f6ac5bc00000000	0.003268115222454071
179	0x3f6e834360000000	0.003724700538441539
180	0x3f5a8abe80000000	0.0016199932433664799
181	0x3f723bf220000000	0.004451700020581484
182	0x3f9d6aa9e0000000	0.028727201744914055
183	0x3f3dc4ba60000000	0.00045423078699968755
184	0xbf7c587ea0000000	-0.006920332554727793
185	0xbfd6693880000000	-0.35017216205596924
186	0x3f35f8dfe0000000	0.0003352686471771449
187	0x3f7415c5a0000000	0.004903575871139765
188	0x3f6c3dba80000000	0.003447403199970722
189	0xbf703a73a0000000	-0.003961993847042322
190	0xbf6edc0c00000000	-0.0037670359015464783
191	0x3f7014bc80000000	0.003926025703549385
192	0x3f83caa880000000	0.009663883596658707
193	0x3f7fcc1a60000000	0.007763007190078497
194	0xbf8102c2e0000000	-0.00830604787915945
195	0x3f514342a0000000	0.0010536337504163384
196	0xbf800ff080000000	-0.007842902094125748
197	0xbf7ed44c60000000	-0.00752668222412467
198	0xbf817befe0000000	-0.008537172339856625
199	0xbf81aa5b60000000	-0.008625711314380169
200	0x3f7cd4be20000000	0.00703882472589612
201	0x3f90a58f80000000	0.016256563365459442
202	0x3f92dc7fa0000000	0.018419260159134865
203	0xbf856fac60000000	-0.010466906242072582
204	0x3f7f071400000000	0.007575109601020813
205	0xbf8f513520000000	-0.015291609801352024
206	0x3f7e844d60000000	0.0074503920041024685
207	0xbf822bc6e0000000	-0.00887256022542715
208	0xbf7fc9f940000000	-0.007760976441204548
209	0xbf9be643c0000000	-0.027245577424764633
210	0xbf7f3eeb40000000	-0.007628363557159901
211	0xbf810d4d00000000	-0.008326150476932526
212	0xbf94b34d20000000	-0.02021523006260395
213	0xbf82556740000000	-0.008951956406235695
214	0x3f7dfa3740000000	0.0073187025263905525
215	0x3f7d45a6e0000000	0.007146503310650587
216	0x3f7cd87980000000	0.007042383775115013
217	0x3f825a80c0000000	0.008961683139204979
218	0x3f820a34a0000000	0.008808528073132038
219	0x3faa119140000000	0.05091527849435806
220	0x3fa6fa9ac0000000	0.044880710542201996
221	0x3f7ff8dca0000000	0.007805692497640848
222	0xbf81178dc0000000	-0.008345706388354301
223	0x3f86be5b40000000	0.011105263605713844
224	0x3f7fd49d40000000	0.007771124131977558
225	0x3f7d577520000000	0.007163484115153551
226	0xbf8261e3a0000000	-0.008975771255791187
227	0x3f95eee9e0000000	0.02141919545829296
228	0xbf822bf9e0000000	-0.008872940205037594
229	0x3f7ef90100000000	0.007561687380075455
230	0xbf823c9660000000	-0.008904623799026012
231	0x3f7b57fce0000000	0.006675708573311567
232	0xbf82b18400000000	-0.009127646684646606
233	0x3f7f5b9f40000000	0.007655736990272999
234	0xbf822abc40000000	-0.008870573714375496
235	0x3f7c8aeee0000000	0.006968434434384108
236	0xbf828f7ae0000000	-0.009062728844583035
237	0xbf8122fee0000000	-0.008367530070245266
238	0x3f83ffbe40000000	0.009765135124325752
239	0x3f7e0d26a0000000	0.007336760405451059
240	0xbf840947a0000000	-0.009783324785530567
241	0x3f9ecdfd60000000	0.030082663521170616
242	0xbf7f4dc820000000	-0.007642537821084261
243	0xbf81d28940000000	-0.008702347055077553
244	0xbf8381c180000000	-0.009524833410978317
245	0xbf81724d00000000	-0.008518792688846588
246	0xbf87fb4d00000000	-0.0117097869515419
247	0xbf7ab38540000000	-0.006518860347568989
248	0x3f81522fe0000000	0.008457540534436703
249	0x3f9666df80000000	0.021876804530620575
250	0xbf7941b5a0000000	-0.006166181061416864
251	0xbf81f11340000000	-0.008760595694184303
252	0xbf81f1efe0000000	-0.0087622394785285
253	0x3f80cfe760000000	0.0082090450450778
254	0x3f80554000000000	0.007975101470947266
255	0xbf8046d1e0000000	-0.007947578094899654

bias f8 [24]
0	0xbf93e6b480000000	-0.01943475753068924
1	0x3f8bd4fe80000000	0.013589847832918167
2	0xbf7057aec0000000	-0.003989870660007
3	0xbf7489eba0000000	-0.005014343652874231
4	0x3f8bf0da80000000	0.013642985373735428
5	0x3f98932d40000000	0.023998934775590897
6	0xbf9bf37360000000	-0.027295878157019615
7	0x3f8e569c60000000	0.014813634566962719
8	0x3fef8a88c0000000	0.9856609106063843
9	0x3ff1194100000000	1.0686655044555664
10	0x3feca969e0000000	0.8956803679466248
11	0x3ff05f4020000000	1.0232545137405396
12	0x3ff0074ce0000000	1.0017822980880737
13	0x3ff1fbd2a0000000	1.123980164527893
14	0x3ff1c35cc0000000	1.1101958751678467
15	0x3feefecbc0000000	0.9686030149459839
16	0x3ffbb47b20000000	1.7315627336502075
17	0x3fc4568f20000000	0.15889157354831696
18	0x3ff8202fe0000000	1.507858157157898
19	0x3ffa443360000000	1.6416505575180054
20	0x3ff7530620000000	1.457769513130188
21	0x3fef1e14a0000000	0.9724219441413879
22	0x3fef6015e0000000	0.9804791808128357
23	0x3ff5586ee0000000	1.3340901136398315

initpot f8 [1]
0	0x0000000000000000	0.0
