reann2.0_20250825/MPtrj-test/REANN_PES_DOUBLE.pt (torch, 825039 bytes, 92 tensors)

contracted_coeff f8 [3, 3, 8, 108]
000000 00 00 00 80 47 64 a2 bf 00 00 00 c0 a3 a9 99 bf
       -0.03592132031917572 -0.025061186403036118
000010 00 00 00 c0 cb c5 95 3f 00 00 00 e0 b6 92 93 bf
       0.02126234397292137 -0.019114358350634575
000020 00 00 00 20 26 49 62 bf 00 00 00 a0 85 d6 5a bf
       -0.0022321457508951426 -0.0016380600864067674
000030 00 00 00 00 5d 87 60 3f 00 00 00 00 dd 7f 6c bf
       0.0020176712423563004 -0.003478938713669777
000040 00 00 00 c0 00 99 72 bf 00 00 00 80 63 56 9b 3f
       -0.00454044621437788 0.026696734130382538
000050 00 00 00 60 01 75 78 bf 00 00 00 40 2c 27 94 3f
       -0.005970960017293692 0.019680682569742203
000060 00 00 00 e0 11 38 90 3f 00 00 00 a0 92 1c 96 bf
       0.01583888940513134 -0.021593371406197548
000070 00 00 00 a0 f8 4b 5a bf 00 00 00 40 a4 d9 9c bf
       -0.001605027006007731 -0.028173986822366714
000080 00 00 00 a0 ae b6 68 bf 00 00 00 a0 45 47 a1 bf
       -0.003016797127202153 -0.03374688699841499
000090 00 00 00 e0 f7 ea a0 3f 00 00 00 a0 28 03 6c 3f
       0.03304266557097435 0.003419474931433797
0000a0 00 00 00 c0 ee 20 9d bf 00 00 00 a0 d8 67 95 bf
       -0.02844594046473503 -0.020903954282402992
0000b0 00 00 00 60 bb 76 8e bf 00 00 00 40 79 fd 8d 3f
       -0.014874900691211224 0.01464361883699894
0000c0 00 00 00 e0 2e 5a 81 3f 00 00 00 80 42 3b 7d 3f
       0.008472791872918606 0.0071365926414728165
0000d0 00 00 00 60 17 69 9c bf 00 00 00 20 68 d7 a1 bf
       -0.02774464152753353 -0.03484654799103737
0000e0 00 00 00 00 54 ec 94 3f 00 00 00 00 db 23 97 3f
       0.020432770252227783 0.022597715258598328
0000f0 00 00 00 a0 a5 15 6d bf 00 00 00 60 92 dd 73 3f
       -0.003550361143425107 0.004849979188293219
000100 00 00 00 40 9e 7b 8e 3f 00 00 00 80 dc e3 97 bf
       0.0148842204362154 -0.02333015948534012
000110 00 00 00 e0 7d 4f a0 bf 00 00 00 00 66 d6 54 3f
       -0.0318564735352993 0.0012718196958303452
000120 00 00 00 20 7f 94 9c 3f 00 00 00 e0 32 15 99 bf
       0.027910219505429268 -0.024494929239153862
000130 00 00 00 a0 f6 2d 69 bf 00 00 00 c0 b6 ed a2 bf
       -0.0030736748594790697 -0.0369698628783226
000140 00 00 00 80 8d be 99 3f 00 00 00 80 94 ba 7d 3f
       0.02514096349477768 0.007258014753460884
000150 00 00 00 80 dc 50 89 3f 00 00 00 00 44 da 87 3f
       0.012361261993646622 0.011646777391433716
000160 00 00 00 20 b5 f0 92 bf 00 00 00 20 ea e0 64 bf
       -0.018496351316571236 -0.0025486538652330637
000170 00 00 00 20 04 88 9c 3f 00 00 00 20 b5 2c a0 3f
       0.027862610295414925 0.03159109130501747
000180 00 00 00 80 35 cb 7d 3f 00 00 00 00 8b fd 90 3f
       0.0072738733142614365 0.01659218966960907
000190 00 00 00 00 86 c4 7f bf 00 00 00 00 48 31 6d 3f
       -0.007755778729915619 0.0035635381937026978
0001a0 00 00 00 40 c1 6c 6c 3f 00 00 00 20 66 1e 99 bf
       0.0034698271192610264 -0.02453002519905567
0001b0 00 00 00 00 c2 61 98 3f 00 00 00 c0 74 29 75 3f
       0.02381041646003723 0.005166488699615002
0001c0 00 00 00 20 86 07 96 bf 00 00 00 a0 e7 3c 6d 3f
       -0.0215130764991045 0.003569080727174878
0001d0 00 00 00 a0 cb 13 8b bf 00 00 00 60 0f 0b 99 bf
       -0.013221350498497486 -0.02445625327527523
0001e0 00 00 00 20 31 27 97 bf 00 00 00 60 c4 3e 98 3f
       -0.022610442712903023 0.023676937445998192
0001f0 00 00 00 20 57 a3 70 bf 00 00 00 00 cb 43 81 3f
       -0.004062023479491472 0.008430086076259613
000200 00 00 00 c0 ca 5e 8a 3f 00 00 00 20 1c 6c a1 3f
       0.012876113876700401 0.034027937799692154
000210 00 00 00 a0 be 9b 5a bf 00 00 00 e0 c8 ee 8e 3f
       -0.0016240464756265283 0.015103883109986782
000220 00 00 00 60 25 9d 86 bf 00 00 00 60 a1 40 97 3f
       -0.011041919700801373 0.022707482799887657
000230 00 00 00 e0 8e 0f 9b 3f 00 00 00 e0 3d a6 73 bf
       0.026426536962389946 -0.004797212313860655
000240 00 00 00 20 a2 48 9d bf 00 00 00 40 60 92 6d bf
       -0.028597386553883553 -0.0036098365671932697
000250 00 00 00 a0 9c 6e 7d 3f 00 00 00 20 6e ad 91 bf
       0.007185565773397684 -0.017263146117329597
000260 00 00 00 a0 cb 26 85 bf 00 00 00 e0 9e 72 a2 3f
       -0.010327902622520924 0.036030735820531845
000270 00 00 00 40 68 d1 80 bf 00 00 00 20 51 0d 7b 3f
       -0.008211912587285042 0.006604496855288744
000280 00 00 00 a0 9c b1 6b bf 00 00 00 c0 2d 1b 88 bf
       -0.0033805903512984514 -0.011770589277148247
000290 00 00 00 80 b1 7f 90 3f 00 00 00 40 b9 08 9b 3f
       0.016112111508846283 0.02640046551823616
0002a0 00 00 00 c0 ff f1 a0 3f 00 00 00 e0 15 a6 96 3f
       0.0330963060259819 0.022117940708994865
0002b0 00 00 00 e0 0b 4d 62 3f 00 00 00 e0 d4 d0 99 3f
       0.0022340042050927877 0.02521069161593914
0002c0 00 00 00 e0 62 df 92 3f 00 00 00 a0 53 9a 95 3f
       0.018430275842547417 0.021096521988511086
0002d0 00 00 00 e0 cb 21 94 bf 00 00 00 c0 fb 4c 8f 3f
       -0.01966017298400402 0.015283552929759026
0002e0 00 00 00 40 a1 45 92 bf 00 00 00 80 7d 80 9e bf
       -0.017843741923570633 -0.029787026345729828
0002f0 00 00 00 60 f8 41 a6 3f 00 00 00 00 c1 c3 82 bf
       0.043472062796354294 -0.009162433445453644
000300 00 00 00 80 e9 00 8b 3f 00 00 00 40 a8 a3 8d 3f
       0.013185333460569382 0.01447230763733387
000310 00 00 00 c0 12 0b 90 3f 00 00 00 c0 52 ad a0 3f
       0.01566724106669426 0.03257235139608383
000320 00 00 00 e0 9b 0a a0 bf 00 00 00 e0 fd 64 87 3f
       -0.03133093938231468 0.011423095129430294
000330 00 00 00 80 35 03 88 3f 00 00 00 a0 02 84 94 3f
       0.011724870651960373 0.020034829154610634
000340 00 00 00 40 48 e0 9b 3f 00 00 00 20 55 1f 91 3f
       0.027222756296396255 0.016721086576581
000350 00 00 00 a0 e7 c9 a0 3f 00 00 00 80 90 66 82 3f
       0.0327904112637043 0.00898468866944313
000360 00 00 00 60 2a 39 95 3f 00 00 00 a0 38 d5 86 3f
       0.020725881680846214 0.011148874647915363
000370 00 00 00 40 7a 49 7a bf 00 00 00 e0 eb ca 9f 3f
       -0.006417729891836643 0.03104752115905285
000380 00 00 00 00 3f a7 97 3f 00 00 00 00 94 9d 74 3f
       0.023098930716514587 0.005033090710639954
000390 00 00 00 80 6d 62 88 bf 00 00 00 20 7d 32 86 3f
       -0.011906486004590988 0.010838487185537815
0003a0 00 00 00 00 7b 12 91 3f 00 00 00 c0 bd 6a 8b bf
       0.016672059893608093 -0.013387186452746391
0003b0 00 00 00 e0 01 7c 60 bf 00 00 00 60 1b dc 96 bf
       -0.0020122563000768423 -0.02232401631772518
0003c0 00 00 00 e0 f1 44 83 bf 00 00 00 60 30 d1 8a bf
       -0.009408845566213131 -0.013094308786094189
0003d0 00 00 00 e0 5d cb 5e 3f 00 00 00 a0 10 14 83 3f
       0.0018795410869643092 0.009315614588558674
0003e0 00 00 00 40 08 61 8f bf 00 00 00 e0 4c 34 58 3f
       -0.015321793034672737 0.0014773131115362048
0003f0 00 00 00 c0 ff a7 99 3f 00 00 00 c0 98 5c 9a bf
       0.0250549279153347 -0.02574385330080986
000400 00 00 00 60 4b e1 8e bf 00 00 00 20 cb f6 98 3f
       -0.015078152529895306 0.02437894232571125
000410 00 00 00 60 a9 60 60 bf 00 00 00 a0 19 73 86 3f
       -0.001999216852709651 0.010961723513901234
000420 00 00 00 e0 5a 4e 91 3f 00 00 00 40 06 c2 8f bf
       0.01690046302974224 -0.015506790950894356
000430 00 00 00 c0 ca e3 9c bf 00 00 00 c0 6b c2 71 3f
       -0.028212707489728928 0.004335804842412472
000440 00 00 00 40 4f 70 75 3f 00 00 00 a0 63 a7 83 3f
       0.005234059877693653 0.009596613235771656
000450 00 00 00 40 08 48 90 bf 00 00 00 a0 af 2a 84 bf
       -0.01589978113770485 -0.00984704215079546
000460 00 00 00 20 8b b7 75 bf 00 00 00 a0 20 ee 89 bf
       -0.005301993805915117 -0.01266122329980135
000470 00 00 00 40 3d 21 9c 3f 00 00 00 a0 31 c6 6e 3f
       0.027470547705888748 0.0037566155660897493
000480 00 00 00 20 88 a5 68 3f 00 00 00 c0 9c 33 50 bf
       0.0030086191836744547 -0.0009888678323477507
000490 00 00 00 e0 99 c9 9f 3f 00 00 00 20 b4 48 66 bf
       0.03104248456656933 -0.0027202146593481302
0004a0 00 00 00 60 07 44 76 bf 00 00 00 80 eb 4f 92 3f
       -0.005435971077531576 0.017882995307445526
0004b0 00 00 00 20 84 bb 96 3f 00 00 00 c0 98 66 78 bf
       0.022199692204594612 -0.0059572188183665276
0004c0 00 00 00 c0 f6 d9 90 3f 00 00 00 20 0f 44 83 3f
       0.016456466168165207 0.009407156147062778
0004d0 00 00 00 60 56 2a 5f 3f 00 00 00 a0 f0 f3 9e 3f
       0.001902183867059648 0.030227432027459145
0004e0 00 00 00 20 6f 61 7f bf 00 00 00 20 64 bc 8a 3f
       -0.007661279756575823 0.013054640032351017
0004f0 00 00 00 a0 d8 0c 8f 3f 00 00 00 80 b4 d3 a2 bf
       0.015161220915615559 -0.03677143156528473
000500 00 00 00 a0 c0 17 a0 bf 00 00 00 a0 a4 0e 9c bf
       -0.03143121674656868 -0.027399608865380287
000510 00 00 00 60 de f6 94 3f 00 00 00 80 0d 56 93 3f
       0.020472979173064232 0.018882952630519867
000520 00 00 00 00 68 5d 71 bf 00 00 00 80 6e d1 86 3f
       -0.004239469766616821 0.011141646653413773
000530 00 00 00 20 e4 79 9d bf 00 00 00 c0 97 f1 6c 3f
       -0.02878529019653797 0.003533169161528349
000540 00 00 00 80 26 65 a2 3f 00 00 00 40 92 f7 90 bf
       0.035927966237068176 -0.016569409519433975
000550 00 00 00 60 77 dd 8f bf 00 00 00 40 d8 e2 63 3f
       -0.01555913221091032 0.0024275039322674274
000560 00 00 00 80 ae 7c 96 bf 00 00 00 a0 16 15 9f 3f
       -0.021959997713565826 0.030353883281350136
000570 00 00 00 80 7b bf 90 bf 00 00 00 00 d3 a4 9c 3f
       -0.016355447471141815 0.027972504496574402
000580 00 00 00 a0 37 71 9a 3f 00 00 00 00 99 36 5c 3f
       0.025822514668107033 0.0017220014706254005
000590 00 00 00 40 6c 32 a4 3f 00 00 00 a0 e1 2d 99 3f
       0.03944719582796097 0.024589085951447487
0005a0 00 00 00 e0 64 36 82 3f 00 00 00 e0 ca 39 88 3f
       0.00889281090348959 0.011828980408608913
0005b0 00 00 00 80 ec a5 7f bf 00 00 00 c0 15 52 a1 3f
       -0.0077265966683626175 0.03382938355207443
0005c0 00 00 00 00 83 ab 9d 3f 00 00 00 40 a7 57 9f 3f
       0.02897457778453827 0.030607808381319046
0005d0 00 00 00 a0 ae 32 a3 3f 00 00 00 a0 b9 f5 8c 3f
       0.03749604895710945 0.014140558429062366
0005e0 00 00 00 40 97 d8 94 3f 00 00 00 00 ed ec 70 bf
       0.02035747841000557 -0.0041322000324726105
0005f0 00 00 00 00 60 7c 9c bf 00 00 00 40 d2 75 9b 3f
       -0.02781820297241211 0.02681664004921913
000600 00 00 00 00 74 a8 5c bf 00 00 00 40 a5 ff 89 bf
       -0.001749146729707718 -0.01269463635981083
000610 00 00 00 a0 22 7a 9a 3f 00 00 00 80 2a 77 86 bf
       0.025856534019112587 -0.010969478636980057
000620 00 00 00 c0 0c ac a0 3f 00 00 00 a0 34 fa 47 3f
       0.03256263583898544 0.0007317311246879399
000630 00 00 00 c0 3b 25 97 3f 00 00 00 60 97 00 81 3f
       0.022602971643209457 0.00830190908163786
000640 00 00 00 e0 46 5f a4 bf 00 00 00 40 ee 98 80 bf
       -0.03978940472006798 -0.008104192093014717
000650 00 00 00 60 d2 3a 97 bf 00 00 00 e0 d3 79 98 bf
       -0.022685324773192406 -0.02390223555266857
000660 00 00 00 c0 7a 24 91 3f 00 00 00 20 af 3b 99 3f
       0.016740720719099045 0.024641739204525948
000670 00 00 00 a0 5b 2a 90 3f 00 00 00 e0 aa 53 7d 3f
       0.015786582604050636 0.007159869652241468
000680 00 00 00 e0 20 f1 95 bf 00 00 00 40 2d 54 a6 3f
       -0.021427644416689873 0.04361096769571304
000690 00 00 00 80 77 04 8e bf 00 00 00 e0 a9 49 9b 3f
       -0.014656957238912582 0.02664819173514843
0006a0 00 00 00 40 f8 03 9b 3f 00 00 00 a0 b5 f3 94 3f
       0.026382330805063248 0.020460927858948708
0006b0 00 00 00 a0 ea 71 95 bf 00 00 00 60 b9 dd 71 bf
       -0.02094236947596073 -0.004361843224614859
0006c0 00 00 00 a0 e0 66 86 bf 00 00 00 80 97 7d 8b 3f
       -0.010938410647213459 0.013423141092061996
0006d0 00 00 00 20 45 62 9f bf 00 00 00 20 fa b1 98 3f
       -0.030648307874798775 0.024116428568959236
0006e0 00 00 00 40 d9 3a a4 bf 00 00 00 60 0e 30 87 3f
       -0.03951147943735123 0.01132212858647108
0006f0 00 00 00 a0 7e 11 97 3f 00 00 00 20 37 1e 9e 3f
       0.022527674213051796 0.02941213734447956
000700 00 00 00 20 94 1a 9c bf 00 00 00 20 f0 39 62 3f
       -0.02744513936340809 0.002224892610684037
000710 00 00 00 60 50 0b 91 3f 00 00 00 e0 dc 48 76 bf
       0.01664472185075283 -0.005440581124275923
000720 00 00 00 80 53 46 82 3f 00 00 00 60 1d 05 95 3f
       0.008923199027776718 0.020527323707938194
000730 00 00 00 a0 c4 ad a0 bf 00 00 00 20 fe 8e 90 3f
       -0.03257574513554573 0.016170473769307137
000740 00 00 00 a0 d6 12 91 bf 00 00 00 a0 e8 37 70 bf
       -0.01667342521250248 -0.0039595686830580235
000750 00 00 00 80 7c 5f 75 bf 00 00 00 20 6a dd 96 3f
       -0.005218015983700752 0.022329004481434822
000760 00 00 00 c0 ed af 97 bf 00 00 00 c0 6c ba 77 3f
       -0.023132052272558212 0.00579302292317152
000770 00 00 00 40 ed fb 8e bf 00 00 00 80 c4 5d 97 bf
       -0.015128949657082558 -0.022818632423877716
000780 00 00 00 60 28 6c a0 3f 00 00 00 20 05 21 88 bf
       0.0320751778781414 -0.011781730689108372
000790 00 00 00 80 bd fe 75 bf 00 00 00 e0 59 0c 8b bf
       -0.005369892343878746 -0.013207151554524899
0007a0 00 00 00 20 f3 8d 70 3f 00 00 00 80 40 fd 8b 3f
       0.004041623789817095 0.013666633516550064
0007b0 00 00 00 80 12 9c 90 3f 00 00 00 a0 58 55 8b bf
       0.016220368444919586 -0.013346378691494465
0007c0 00 00 00 80 db ce 96 bf 00 00 00 40 42 80 9a 3f
       -0.0222734734416008 0.025879893451929092
0007d0 00 00 00 20 78 20 98 3f 00 00 00 e0 30 6a 84 bf
       0.02356136031448841 -0.0099681681022048
0007e0 00 00 00 c0 24 c7 7c bf 00 00 00 20 08 43 83 bf
       -0.007025855593383312 -0.009405196644365788
0007f0 00 00 00 80 04 01 a3 3f 00 00 00 a0 14 16 9b bf
       0.037117138504981995 -0.026451418176293373

cutoff f8 [1]
000000 00 00 00 00 00 00 14 40
       5.0

initpot f8 [1]
000000 00 00 00 e0 fa 4a 18 c0
       -6.073222637176514

initpot f8 [1]
000000 00 00 00 00 00 00 00 00
       0.0

weight f8 [64, 118]
000000 00 00 00 a0 cb dd 82 bf 00 00 00 a0 1c ee b5 3f
       -0.009212103672325611 0.0856645479798317
000010 00 00 00 00 0a 6f c1 bf 00 00 00 60 7c 98 b3 bf
       -0.1362011432647705 -0.07654549926519394
000020 00 00 00 80 ec 0a c6 3f 00 00 00 e0 ba 14 b1 bf
       0.17220836877822876 -0.0667225643992424
000030 00 00 00 60 df ef b9 bf 00 00 00 20 b7 7b 8a 3f
       -0.1013164147734642 0.01293128076940775
000040 00 00 00 a0 0a ac b8 bf 00 00 00 00 cf 7c bc bf
       -0.09637514501810074 -0.1112794280052185
000050 00 00 00 00 51 d7 bd bf 00 00 00 20 d6 69 a8 bf
       -0.1165667176246643 -0.047682467848062515
000060 00 00 00 e0 72 4b c7 bf 00 00 00 e0 ef 28 c2 bf
       -0.18199001252651215 -0.141874298453331
000070 00 00 00 e0 31 68 c3 bf 00 00 00 80 90 f7 87 3f
       -0.15161727368831635 0.011702660471200943
000080 00 00 00 a0 0c a4 c6 3f 00 00 00 a0 d9 63 b6 3f
       0.17688138782978058 0.08746109157800674
000090 00 00 00 20 bf b6 c6 3f 00 00 00 20 ba 93 bd 3f
       0.1774519830942154 0.11553538590669632
0000a0 00 00 00 60 2e 3e 74 bf 00 00 00 00 b3 72 b6 3f
       -0.004942113067954779 0.0876876711845398
0000b0 00 00 00 c0 32 fb 97 bf 00 00 00 80 11 f3 c1 3f
       -0.023419182747602463 0.14023035764694214
0000c0 00 00 00 20 5b 9c c6 bf 00 00 00 e0 69 76 c3 bf
       -0.17664660513401031 -0.1520511955022812
0000d0 00 00 00 00 4b 53 c2 3f 00 00 00 00 72 74 b6 bf
       0.1431668996810913 -0.0877143144607544
0000e0 00 00 00 20 03 15 a1 3f 00 00 00 20 3a ab c3 bf
       0.03336343541741371 -0.15366293489933014
0000f0 00 00 00 60 ec ad c3 3f 00 00 00 00 6f 41 a0 bf
       0.15374521911144257 -0.031749218702316284
000100 00 00 00 00 62 e0 aa bf 00 00 00 a0 89 c0 b1 bf
       -0.052493155002593994 -0.06934414058923721
000110 00 00 00 00 f2 04 c7 bf 00 00 00 60 ce a3 b7 bf
       -0.1798384189605713 -0.09234323352575302
000120 00 00 00 00 68 20 92 bf 00 00 00 00 8b 90 ad bf
       -0.01770174503326416 -0.05774340033531189
000130 00 00 00 20 0c b1 b0 3f 00 00 00 80 8e 60 ad 3f
       0.0652015283703804 0.05737729370594025
000140 00 00 00 40 19 b7 c5 bf 00 00 00 a0 72 a6 c1 bf
       -0.16965022683143616 -0.13789208233356476
000150 00 00 00 c0 a0 f3 c2 bf 00 00 00 20 e1 90 be 3f
       -0.1480599343776703 0.11939818412065506
000160 00 00 00 00 8b dd b0 3f 00 00 00 80 6d d1 a3 bf
       0.06588047742843628 -0.0387071818113327
000170 00 00 00 a0 67 88 9d bf 00 00 00 a0 40 23 bc 3f
       -0.028840655460953712 0.10991290956735611
000180 00 00 00 80 e7 a6 c1 bf 00 00 00 60 90 42 b0 3f
       -0.137906014919281 0.06351568549871445
000190 00 00 00 60 ff cd a0 bf 00 00 00 00 0f 53 88 bf
       -0.03282163664698601 -0.011877171695232391
0001a0 00 00 00 60 95 27 ae bf 00 00 00 c0 b8 64 a4 bf
       -0.05889574810862541 -0.03983094543218613
0001b0 00 00 00 80 6e cf 9c 3f 00 00 00 00 90 5e c4 bf
       0.028135038912296295 -0.1591358184814453
0001c0 00 00 00 a0 55 3e be bf 00 00 00 e0 78 31 c7 bf
       -0.11813864856958389 -0.18119727075099945
0001d0 00 00 00 a0 69 f2 b5 3f 00 00 00 60 25 70 b2 bf
       0.0857301726937294 -0.07202371209859848
0001e0 00 00 00 80 fc 46 bc bf 00 00 00 60 e9 ad bf bf
       -0.11045816540718079 -0.12374743074178696
0001f0 00 00 00 60 32 bd bd 3f 00 00 00 a0 7c 82 c4 3f
       0.11616816371679306 0.16023214161396027
000200 00 00 00 a0 e1 02 c7 bf 00 00 00 c0 d4 ab b7 bf
       -0.1797754317522049 -0.09246568381786346
000210 00 00 00 60 1c 57 bb 3f 00 00 00 60 d8 c2 b9 bf
       0.106797955930233 -0.10062935203313828
000220 00 00 00 80 b1 b8 c5 bf 00 00 00 00 92 87 82 3f
       -0.16969889402389526 0.009047642350196838
000230 00 00 00 00 cd c1 ba 3f 00 00 00 20 fb 16 c3 bf
       0.10451966524124146 -0.14913882315158844
000240 00 00 00 00 df 75 b5 3f 00 00 00 40 3a b2 aa bf
       0.08382982015609741 -0.05214101821184158
000250 00 00 00 80 25 e6 b1 bf 00 00 00 20 0e c9 a3 3f
       -0.06991800665855408 0.038643304258584976
000260 00 00 00 40 5b bc c4 bf 00 00 00 a0 d2 23 bb 3f
       -0.1619981825351715 0.10601536184549332
000270 00 00 00 00 ad 72 9a 3f 00 00 00 e0 02 72 b0 3f
       0.025828078389167786 0.06423967331647873
000280 00 00 00 60 a0 78 c5 bf 00 00 00 a0 ee c4 b9 bf
       -0.1677437275648117 -0.10066119581460953
000290 00 00 00 20 88 2a ad bf 00 00 00 c0 30 7b c4 bf
       -0.056965116411447525 -0.1600094735622406
0002a0 00 00 00 40 32 66 8e bf 00 00 00 a0 70 84 bc bf
       -0.01484336145222187 -0.11139587312936783
0002b0 00 00 00 60 b4 8f ba bf 00 00 00 20 c2 45 c2 bf
       -0.10375525802373886 -0.14275385439395905
0002c0 00 00 00 60 72 0c b7 bf 00 00 00 a0 80 9c b9 3f
       -0.09003367274999619 0.10004428774118423
0002d0 00 00 00 e0 15 17 c3 3f 00 00 00 20 c8 cc c2 3f
       0.14914201200008392 0.14687444269657135
0002e0 00 00 00 20 83 a2 c3 bf 00 00 00 c0 9d e5 c0 bf
       -0.15339697897434235 -0.13200733065605164
0002f0 00 00 00 00 47 c8 c4 3f 00 00 00 80 c4 49 c0 bf
       0.1623619794845581 -0.12725120782852173
000300 00 00 00 60 65 1c b7 bf 00 00 00 20 5c 62 c2 3f
       -0.0902770385146141 0.14362670481204987
000310 00 00 00 00 46 61 94 3f 00 00 00 00 a6 a1 c4 3f
       0.019902318716049194 0.16118311882019043
000320 00 00 00 c0 e0 b7 ab bf 00 00 00 00 a3 e3 a1 bf
       -0.054137252271175385 -0.034939855337142944
000330 00 00 00 e0 bc ff c5 3f 00 00 00 20 4a 81 af 3f
       0.1718669980764389 0.06153327599167824
000340 00 00 00 20 08 32 a0 3f 00 00 00 20 02 0b b4 bf
       0.0316317118704319 -0.07829297333955765
000350 00 00 00 60 93 47 c4 bf 00 00 00 60 78 e2 b6 bf
       -0.15843431651592255 -0.08939316123723984
000360 00 00 00 c0 a3 e6 bd bf 00 00 00 a0 1c f3 aa bf
       -0.11680053174495697 -0.0526360459625721
000370 00 00 00 40 74 7a 9a 3f 00 00 00 20 f2 00 b1 bf
       0.025857750326395035 -0.06642068177461624
000380 00 00 00 80 b1 7a 90 3f 00 00 00 a0 5a cd aa bf
       0.016093038022518158 -0.052347976714372635
000390 00 00 00 40 2e c6 c1 bf 00 00 00 20 e4 bb b9 bf
       -0.13886049389839172 -0.10052324086427689
0003a0 00 00 00 a0 11 41 c0 bf 00 00 00 c0 f0 37 bb bf
       -0.12698574364185333 -0.10632233321666718
0003b0 00 00 00 20 9c cd a6 bf 00 00 00 80 54 39 af bf
       -0.04453742876648903 -0.06098426878452301
0003c0 00 00 00 40 c2 fa b3 3f 00 00 00 80 ba 7d a4 3f
       0.07804502546787262 0.040021732449531555
0003d0 00 00 00 c0 36 84 c5 bf 00 00 00 60 59 bc c0 3f
       -0.1680973470211029 0.1307479590177536
0003e0 00 00 00 60 44 8e a9 bf 00 00 00 40 6e 5d bd bf
       -0.04991353675723076 -0.11470688879489899
0003f0 00 00 00 00 e0 95 c2 3f 00 00 00 c0 bf e1 c3 3f
       0.14519882202148438 0.15532681345939636
000400 00 00 00 00 0a b3 b6 bf 00 00 00 60 f4 b3 a6 3f
       -0.08866941928863525 0.04434169456362724
000410 00 00 00 80 c5 d2 c8 3f 00 00 00 40 c4 48 b1 3f
       0.19393223524093628 0.06751658022403717
000420 00 00 00 c0 1f 33 bb bf 00 00 00 00 ad 09 c9 3f
       -0.10624884068965912 0.19560778141021729
000430 00 00 00 80 c4 7c c1 3f 00 00 00 e0 12 93 be bf
       0.13662010431289673 -0.11943166702985764
000440 00 00 00 e0 e9 15 a8 bf 00 00 00 a0 60 02 9d 3f
       -0.04704218730330467 0.028329381719231606
000450 00 00 00 60 2e 02 c3 3f 00 00 00 c0 84 cc ad 3f
       0.14850406348705292 0.05820097774267197
000460 00 00 00 40 0c 7b a3 bf 00 00 00 00 51 30 c6 3f
       -0.038048155605793 0.1733494997024536
000470 00 00 00 00 d9 36 bb 3f 00 00 00 a0 75 08 b5 bf
       0.10630565881729126 -0.0821603313088417
000480 00 00 00 20 f0 92 bd 3f 00 00 00 20 4c 4a b5 bf
       0.11552334576845169 -0.08316493779420853
000490 00 00 00 80 6d fa 83 3f 00 00 00 e0 a1 bd c3 3f
       0.009754996746778488 0.15422461926937103
0004a0 00 00 00 80 96 4f be 3f 00 00 00 a0 65 e6 b7 3f
       0.1184019148349762 0.0933593288064003
0004b0 00 00 00 60 1f ea c0 3f 00 00 00 00 bb 06 9e 3f
       0.13214485347270966 0.029322549700737
0004c0 00 00 00 e0 0b c3 b5 3f 00 00 00 40 59 5d 86 bf
       0.08500742167234421 -0.010920235887169838
0004d0 00 00 00 00 e1 6d c5 bf 00 00 00 20 48 10 95 bf
       -0.16741573810577393 -0.020569922402501106
0004e0 00 00 00 60 6c a1 be 3f 00 00 00 e0 b3 d3 c1 3f
       0.11965062469244003 0.13927315175533295
0004f0 00 00 00 a0 aa 80 89 3f 00 00 00 e0 1a 69 bb 3f
       0.01245244313031435 0.10707252472639084
000500 00 00 00 c0 b4 19 c1 3f 00 00 00 40 3e 8d c5 3f
       0.1335969865322113 0.16837289929389954
000510 00 00 00 80 a4 25 8d bf 00 00 00 40 91 39 b9 bf
       -0.014231953769922256 -0.09853465855121613
000520 00 00 00 80 31 ff b5 3f 00 00 00 40 bd 05 72 3f
       0.08592519164085388 0.004400004632771015
000530 00 00 00 00 8b a5 7b bf 00 00 00 c0 7e 90 a5 3f
       -0.0067496709525585175 0.04211803525686264
000540 00 00 00 80 0c d8 ba 3f 00 00 00 a0 a5 7e c1 bf
       0.10485914349555969 -0.13667745888233185
000550 00 00 00 20 2a 94 c0 3f 00 00 00 80 5d 3a 91 3f
       0.12952162325382233 0.016824208199977875
000560 00 00 00 80 30 12 9a bf 00 00 00 a0 ef e0 b5 bf
       -0.02546001225709915 -0.0854635015130043
000570 00 00 00 40 81 88 c1 3f 00 00 00 e0 91 59 b2 bf
       0.13697829842567444 -0.07167922705411911
000580 00 00 00 00 42 47 a4 3f 00 00 00 40 ac 6d b1 3f
       0.03960615396499634 0.06807972490787506
000590 00 00 00 80 d2 8d be bf 00 00 00 a0 bc 0d c7 3f
       -0.11935153603553772 0.18010671436786652
0005a0 00 00 00 80 e4 37 ae bf 00 00 00 c0 cd 11 bb 3f
       -0.05902017652988434 0.10574041306972504
0005b0 00 00 00 e0 42 33 c8 3f 00 00 00 20 e1 b8 b5 3f
       0.1890643686056137 0.08485228568315506
0005c0 00 00 00 40 6b b2 c1 bf 00 00 00 c0 41 28 b6 bf
       -0.13825741410255432 -0.08655177056789398
0005d0 00 00 00 a0 36 8b 80 3f 00 00 00 20 da 06 a3 3f
       0.008078028447926044 0.037161651998758316
0005e0 00 00 00 00 02 8f 82 3f 00 00 00 40 38 7b c4 3f
       0.009061828255653381 0.16001036763191223
0005f0 00 00 00 e0 5c a5 a4 3f 00 00 00 c0 a0 be be bf
       0.04032411798834801 -0.12009625136852264
000600 00 00 00 60 b1 87 a6 3f 00 00 00 e0 3a 54 c4 bf
       0.04400400444865227 -0.1588204950094223
000610 00 00 00 80 d1 59 b4 3f 00 00 00 60 82 16 c4 3f
       0.07949551939964294 0.15693692862987518
000620 00 00 00 80 85 20 6f 3f 00 00 00 40 37 af c0 bf
       0.0037996871396899223 -0.13034716248512268
000630 00 00 00 60 5e 6f c7 bf 00 00 00 e0 18 31 c5 3f
       -0.18308620154857635 0.16556082665920258
000640 00 00 00 80 b8 13 c2 bf 00 00 00 00 bd 51 b9 bf
       -0.14122682809829712 -0.09890347719192505
000650 00 00 00 c0 88 b9 bf bf 00 00 00 e0 9a 63 b6 bf
       -0.12392477691173553 -0.08745735138654709
000660 00 00 00 80 b4 5e bc 3f 00 00 00 20 5d 61 c5 bf
       0.11082008481025696 -0.16703380644321442
000670 00 00 00 e0 f2 f5 aa bf 00 00 00 60 ec 69 c2 3f
       -0.05265768989920616 0.14385752379894257
000680 00 00 00 40 a4 4c 8c bf 00 00 00 00 f0 1f b5 3f
       -0.013818057253956795 0.0825185775756836
000690 00 00 00 40 56 66 c4 3f 00 00 00 60 8c 18 b0 3f
       0.15937307476997375 0.06287457793951035
0006a0 00 00 00 a0 e6 35 b8 3f 00 00 00 a0 7f 58 ad bf
       0.09457246214151382 -0.05731581524014473
0006b0 00 00 00 60 81 e7 c4 3f 00 00 00 c0 dc db aa 3f
       0.16331498324871063 0.052458666265010834
0006c0 00 00 00 20 e8 3b c3 bf 00 00 00 e0 9b b3 c1 bf
       -0.15026570856571198 -0.13829372823238373
0006d0 00 00 00 a0 0f c1 7f bf 00 00 00 80 27 eb b6 3f
       -0.00775247672572732 0.08952566981315613
0006e0 00 00 00 40 0d 91 c6 3f 00 00 00 80 ec a7 c5 bf
       0.17630162835121155 -0.16918712854385376
0006f0 00 00 00 a0 35 e6 c4 3f 00 00 00 a0 c3 ab a9 bf
       0.16327543556690216 -0.05013858154416084
000700 00 00 00 80 76 b6 94 3f 00 00 00 60 5d 5f bb 3f
       0.02022729068994522 0.1069239005446434
000710 00 00 00 60 e3 b7 b6 bf 00 00 00 80 b2 30 ae 3f
       -0.0887434110045433 0.058965280652046204
000720 00 00 00 40 3b 5f a7 bf 00 00 00 20 6c 85 c5 bf
       -0.04564843326807022 -0.16813422739505768
000730 00 00 00 60 96 e5 b1 3f 00 00 00 40 92 64 c3 3f
       0.0699094757437706 0.1515066921710968
000740 00 00 00 40 e4 7a 90 bf 00 00 00 00 d8 e6 b3 bf
       -0.016093794256448746 -0.07774114608764648
000750 00 00 00 c0 ca 11 64 3f 00 00 00 00 b0 5a b3 bf
       0.0024498901329934597 -0.07560253143310547
000760 00 00 00 80 02 9c af bf 00 00 00 c0 5a 14 c4 bf
       -0.06173713505268097 -0.15687116980552673
000770 00 00 00 a0 5f 2e a3 bf 00 00 00 a0 cc b9 83 bf
       -0.03746317699551582 -0.009631727822124958
000780 00 00 00 e0 91 e9 b3 bf 00 00 00 a0 c0 d4 ba 3f
       -0.07778274267911911 0.10480884462594986
000790 00 00 00 00 8b 81 b5 3f 00 00 00 40 11 52 8e 3f
       0.08400791883468628 0.014804968610405922
0007a0 00 00 00 80 b1 bb c0 bf 00 00 00 a0 29 85 c4 3f
       -0.13072794675827026 0.16031379997730255
0007b0 00 00 00 20 fc 63 76 3f 00 00 00 a0 a6 79 ae 3f
       0.0054664467461407185 0.0595218725502491
0007c0 00 00 00 60 40 26 b1 3f 00 00 00 c0 9d 71 c5 bf
       0.06698992103338242 -0.16752979159355164
0007d0 00 00 00 60 4b 72 c4 bf 00 00 00 c0 58 f5 a9 bf
       -0.1597379893064499 -0.05069997161626816
0007e0 00 00 00 20 02 e8 c5 3f 00 00 00 00 82 12 c6 bf
       0.1711428314447403 -0.1724398136138916
0007f0 00 00 00 a0 13 c7 b6 bf 00 00 00 00 ab a5 b1 3f
       -0.08897516876459122 0.06893414258956909

bias f8 [64]
000000 00 00 00 60 e6 ab a8 3f 00 00 00 80 e4 e6 8d 3f
       0.048186492174863815 0.014600548893213272
000010 00 00 00 80 9d 79 9d 3f 00 00 00 60 f2 d3 b3 3f
       0.028784237802028656 0.07745280116796494
000020 00 00 00 40 44 f3 af 3f 00 00 00 60 2c c8 b2 bf
       0.06240285187959671 -0.07336690276861191
000030 00 00 00 00 40 1e b4 3f 00 00 00 40 82 fc a4 3f
       0.07858657836914062 0.040988989174366
000040 00 00 00 a0 ab 22 a2 3f 00 00 00 80 c8 7e 9d 3f
       0.03542076423764229 0.028803952038288116
000050 00 00 00 c0 3e 5f b2 3f 00 00 00 e0 38 20 a0 3f
       0.07176582515239716 0.0314958356320858
000060 00 00 00 40 2e 20 a6 bf 00 00 00 a0 21 a8 b3 bf
       -0.04321426898241043 -0.07678423076868057
000070 00 00 00 e0 f2 50 7f bf 00 00 00 40 40 2f 79 3f
       -0.007645558100193739 0.00614857766777277
000080 00 00 00 a0 e4 c0 b2 3f 00 00 00 20 31 d5 a2 3f
       0.07325581461191177 0.036782775074243546
000090 00 00 00 80 6e 50 a9 bf 00 00 00 e0 aa ef ad 3f
       -0.04944176971912384 0.05846914276480675
0000a0 00 00 00 40 5f 70 a7 3f 00 00 00 60 ce 41 b1 bf
       0.04577920585870743 -0.06741037219762802
0000b0 00 00 00 80 8e 00 b1 3f 00 00 00 c0 36 3e b3 3f
       0.0664147436618805 0.07516805827617645
0000c0 00 00 00 c0 8e 12 ba 3f 00 00 00 00 72 9f ab 3f
       0.10184566676616669 0.05395084619522095
0000d0 00 00 00 60 26 d4 b8 bf 00 00 00 e0 77 9f b4 3f
       -0.09698715060949326 0.08055829256772995
0000e0 00 00 00 e0 9b ab 89 3f 00 00 00 00 2e b7 5c bf
       0.012534349225461483 -0.0017526578158140182
0000f0 00 00 00 a0 a0 42 b9 3f 00 00 00 c0 a1 d0 92 bf
       0.09867290407419205 -0.018373992294073105
000100 00 00 00 a0 d4 8f b6 bf 00 00 00 00 89 95 b3 3f
       -0.08813218027353287 0.07650047540664673
000110 00 00 00 60 b5 93 91 3f 00 00 00 40 12 14 ab bf
       0.01716502569615841 -0.052887506783008575
000120 00 00 00 80 8f ea b3 3f 00 00 00 40 ad 05 b5 3f
       0.07779785990715027 0.08211787045001984
000130 00 00 00 60 46 46 a5 bf 00 00 00 00 cb 0c b5 bf
       -0.041551779955625534 -0.0822264552116394
000140 00 00 00 a0 c9 d1 a9 bf 00 00 00 20 17 98 a5 3f
       -0.05042867735028267 0.042175982147455215
000150 00 00 00 e0 ac 10 a2 bf 00 00 00 20 a6 d3 89 bf
       -0.03528347238898277 -0.012610719539225101
000160 00 00 00 60 2c df b4 bf 00 00 00 20 c2 dc 82 bf
       -0.08153035491704941 -0.009210125543177128
000170 00 00 00 a0 63 31 9e 3f 00 00 00 60 73 75 b1 bf
       0.029485279694199562 -0.06819840520620346
000180 00 00 00 c0 4d 36 a0 bf 00 00 00 00 07 94 b0 3f
       -0.03166430443525314 0.06475871801376343
000190 00 00 00 00 14 b6 b6 bf 00 00 00 40 9e 0f a8 3f
       -0.08871579170227051 0.0469941571354866
0001a0 00 00 00 40 02 5f b7 3f 00 00 00 20 99 f2 a9 3f
       0.09129346907138824 0.050679001957178116
0001b0 00 00 00 20 34 fe b9 3f 00 00 00 20 79 5d af bf
       0.10153508931398392 -0.06126001849770546
0001c0 00 00 00 80 3f a8 85 bf 00 00 00 00 36 1e b2 bf
       -0.010574813932180405 -0.07077348232269287
0001d0 00 00 00 c0 0e 3b a6 3f 00 00 00 e0 8d e2 aa 3f
       0.04341932386159897 0.052509721368551254
0001e0 00 00 00 40 c9 da 8d bf 00 00 00 80 2f f0 a2 bf
       -0.014577457681298256 -0.036988720297813416
0001f0 00 00 00 00 16 d1 b3 3f 00 00 00 00 2c ed 95 3f
       0.07740914821624756 0.021412551403045654

alpha f8 [1, 64]
000000 00 00 00 80 c1 3e f0 3f 00 00 00 20 a3 50 f0 3f
       1.0153212547302246 1.0196868181228638
000010 00 00 00 80 0f 73 f0 3f 00 00 00 a0 58 24 f0 3f
       1.0280909538269043 1.0088735818862915
000020 00 00 00 60 4f 71 f0 3f 00 00 00 80 26 5b f0 3f
       1.0276635885238647 1.0222535133361816
000030 00 00 00 00 9f 49 f0 3f 00 00 00 40 18 46 f0 3f
       1.0179738998413086 1.0171129703521729
000040 00 00 00 e0 4c 5c f0 3f 00 00 00 80 6d 70 f0 3f
       1.0225342512130737 1.0274481773376465
000050 00 00 00 a0 0b 4c f0 3f 00 00 00 60 36 61 f0 3f
       1.0185657739639282 1.0237334966659546
000060 00 00 00 00 05 54 f0 3f 00 00 00 00 eb 24 f0 3f
       1.020512580871582 1.0090131759643555
000070 00 00 00 e0 ed 43 f0 3f 00 00 00 a0 53 4e f0 3f
       1.0165842771530151 1.0191227197647095
000080 00 00 00 80 27 31 f0 3f 00 00 00 40 19 47 f0 3f
       1.012000560760498 1.0173580646514893
000090 00 00 00 00 36 58 f0 3f 00 00 00 c0 00 54 f0 3f
       1.021535873413086 1.0205085277557373
0000a0 00 00 00 a0 61 53 f0 3f 00 00 00 60 8e 4b f0 3f
       1.0203567743301392 1.0184463262557983
0000b0 00 00 00 a0 c7 5e f0 3f 00 00 00 e0 e7 51 f0 3f
       1.0231395959854126 1.0199965238571167
0000c0 00 00 00 40 6e 37 f0 3f 00 00 00 e0 5b 60 f0 3f
       1.0135328769683838 1.0235251188278198
0000d0 00 00 00 00 4b 70 f0 3f 00 00 00 60 ab 6b f0 3f
       1.0274152755737305 1.0262864828109741
0000e0 00 00 00 c0 30 59 f0 3f 00 00 00 80 78 4d f0 3f
       1.0217750072479248 1.018913745880127
0000f0 00 00 00 00 43 6e f0 3f 00 00 00 00 00 7c f0 3f
       1.0269193649291992 1.0302734375
000100 00 00 00 e0 36 5e f0 3f 00 00 00 20 1a 3f f0 3f
       1.0230015516281128 1.0154057741165161
000110 00 00 00 80 e3 34 f0 3f 00 00 00 c0 87 32 f0 3f
       1.0129122734069824 1.0123364925384521
000120 00 00 00 20 f9 3e f0 3f 00 00 00 40 4c 4d f0 3f
       1.0153743028640747 1.018871545791626
000130 00 00 00 20 6d 22 f0 3f 00 00 00 e0 e0 3c f0 3f
       1.0084048509597778 1.0148628950119019
000140 00 00 00 c0 05 6f f0 3f 00 00 00 e0 cd 44 f0 3f
       1.0271050930023193 1.0167979001998901
000150 00 00 00 20 0f 73 f0 3f 00 00 00 a0 d7 79 f0 3f
       1.0280905961990356 1.029746651649475
000160 00 00 00 20 9b 3a f0 3f 00 00 00 a0 37 65 f0 3f
       1.0143080949783325 1.02471125125885
000170 00 00 00 a0 04 6f f0 3f 00 00 00 40 0d 3b f0 3f
       1.0271040201187134 1.0144169330596924
000180 00 00 00 e0 b7 45 f0 3f 00 00 00 40 f5 48 f0 3f
       1.0170210599899292 1.0178120136260986
000190 00 00 00 e0 73 3e f0 3f 00 00 00 60 b8 42 f0 3f
       1.0152472257614136 1.0162891149520874
0001a0 00 00 00 c0 f7 3d f0 3f 00 00 00 e0 59 48 f0 3f
       1.0151288509368896 1.017663836479187
0001b0 00 00 00 a0 e8 2c f0 3f 00 00 00 c0 04 34 f0 3f
       1.010964035987854 1.012699842453003
0001c0 00 00 00 60 48 6e f0 3f 00 00 00 00 5c 5c f0 3f
       1.02692449092865 1.0225486755371094
0001d0 00 00 00 00 2f 3d f0 3f 00 00 00 e0 87 4d f0 3f
       1.014937400817871 1.0189284086227417
0001e0 00 00 00 80 ce 63 f0 3f 00 00 00 c0 8d 4b f0 3f
       1.024366855621338 1.0184457302093506
0001f0 00 00 00 20 5d 1b f0 3f 00 00 00 40 46 6e f0 3f
       1.0066806077957153 1.0269224643707275

beta f8 [1, 64]
000000 00 00 00 60 af 2c 97 3f 00 00 00 00 a0 aa 9b 3f
       0.02263139747083187 0.027018070220947266
000010 00 00 00 80 75 0c a2 3f 00 00 00 60 0c 56 91 3f
       0.035251304507255554 0.016929810866713524
000020 00 00 00 00 2e b0 a1 3f 00 00 00 60 50 7a 9d 3f
       0.034547269344329834 0.028786903247237206
000030 00 00 00 00 78 67 9a 3f 00 00 00 20 f5 f5 98 3f
       0.025785326957702637 0.024375753477215767
000040 00 00 00 80 e6 8e 9d 3f 00 00 00 80 6f a4 a0 3f
       0.028865434229373932 0.03250454366207123
000050 00 00 00 80 de 7b 9a 3f 00 00 00 60 98 a9 9f 3f
       0.025863148272037506 0.030920391902327538
000060 00 00 00 a0 79 96 9c 3f 00 00 00 40 ea 87 91 3f
       0.02791776694357395 0.017120037227869034
000070 00 00 00 c0 eb a3 98 3f 00 00 00 60 4a cf 9a 3f
       0.024062808603048325 0.026181375607848167
000080 00 00 00 40 a6 31 94 3f 00 00 00 e0 fa ec 98 3f
       0.019720647484064102 0.024341506883502007
000090 00 00 00 80 97 fc 9c 3f 00 00 00 80 9c ef 9b 3f
       0.028307311236858368 0.027281232178211212
0000a0 00 00 00 80 4f 99 9b 3f 00 00 00 40 e5 f8 99 3f
       0.026952020823955536 0.02536352351307869
0000b0 00 00 00 20 a0 6c 9f 3f 00 00 00 00 22 8d 9b 3f
       0.030687810853123665 0.026905566453933716
0000c0 00 00 00 e0 08 dc 95 3f 00 00 00 20 4a 80 9f 3f
       0.021347178146243095 0.030762823298573494
0000d0 00 00 00 40 18 e6 a0 3f 00 00 00 e0 db 5f a0 3f
       0.0330054834485054 0.031981345266103745
0000e0 00 00 00 80 1c 3a 9d 3f 00 00 00 20 84 d9 9a 3f
       0.028541989624500275 0.026220383122563362
0000f0 00 00 00 40 3c 5e a1 3f 00 00 00 a0 e8 5d a2 3f
       0.03392208367586136 0.03587271645665169
000100 00 00 00 80 79 60 9e 3f 00 00 00 20 38 39 97 3f
       0.029664896428585052 0.02267921157181263
000110 00 00 00 a0 24 08 95 3f 00 00 00 80 95 7e 94 3f
       0.020538875833153725 0.02001412957906723
000120 00 00 00 00 73 06 97 3f 00 00 00 a0 77 bf 9a 3f
       0.022485539317131042 0.02612101472914219
000130 00 00 00 c0 f6 cd 90 3f 00 00 00 20 2d fd 96 3f
       0.016410689800977707 0.022450165823101997
000140 00 00 00 c0 ef 37 a1 3f 00 00 00 e0 dd 1b 99 3f
       0.0336298868060112 0.02452036552131176
000150 00 00 00 a0 17 98 a1 3f 00 00 00 40 9d dd a1 3f
       0.03436349704861641 0.034893907606601715
000160 00 00 00 e0 e7 7a 96 3f 00 00 00 00 8d 75 a0 3f
       0.021953223273158073 0.032146841287612915
000170 00 00 00 e0 c7 3f a1 3f 00 00 00 a0 95 a7 96 3f
       0.03368973359465599 0.022123659029603004
000180 00 00 00 a0 d3 82 99 3f 00 00 00 e0 a3 11 9a 3f
       0.024913126602768898 0.025457916781306267
000190 00 00 00 e0 f1 31 97 3f 00 00 00 e0 a0 26 98 3f
       0.022651461884379387 0.02358485572040081
0001a0 00 00 00 60 82 4b 97 3f 00 00 00 c0 e1 00 99 3f
       0.022748982533812523 0.02441742643713951
0001b0 00 00 00 c0 7a 0f 93 3f 00 00 00 40 f8 16 95 3f
       0.01861373707652092 0.020595435053110123
0001c0 00 00 00 80 e0 d5 a0 3f 00 00 00 20 6e a5 9d 3f
       0.03288175165653229 0.028951378539204597
0001d0 00 00 00 40 c2 24 97 3f 00 00 00 60 d1 c6 9a 3f
       0.022601161152124405 0.026149054989218712
0001e0 00 00 00 c0 73 5c 9f 3f 00 00 00 c0 6b 78 9a 3f
       0.030626114457845688 0.025849994271993637
0001f0 00 00 00 20 2b 49 8e 3f 00 00 00 20 fa 33 a1 3f
       0.014787995256483555 0.03359967842698097

weight f8 [24, 64]
000000 00 00 00 60 4a f7 5c bf 00 00 00 80 bb 16 7b bf
       -0.001767943031154573 -0.006613476201891899
000010 00 00 00 e0 ac d1 85 bf 00 00 00 80 e9 73 2f bf
       -0.010653830133378506 -0.00023996568052098155
000020 00 00 00 00 ed 8a 70 bf 00 00 00 80 ff 5b 87 3f
       -0.004038739949464798 0.011405941098928452
000030 00 00 00 60 0a 06 84 bf 00 00 00 e0 98 50 6a bf
       -0.009777146391570568 -0.0032122598495334387
000040 00 00 00 00 61 c0 79 bf 00 00 00 80 c7 13 7b 3f
       -0.006286982446908951 0.006610659882426262
000050 00 00 00 e0 2a 5b 5f bf 00 00 00 40 08 4f 7b bf
       -0.0019138258649036288 -0.006667167879641056
000060 00 00 00 40 6d 63 85 bf 00 00 00 60 22 d3 57 bf
       -0.010443547740578651 -0.001454146928153932
000070 00 00 00 80 24 c2 77 3f 00 00 00 c0 95 8b 41 3f
       0.005800383165478706 0.0005354386521503329
000080 00 00 00 00 bf a7 32 3f 00 00 00 20 82 1f 78 3f
       0.0002846566494554281 0.005889423657208681
000090 00 00 00 60 08 f9 80 3f 00 00 00 a0 82 2b 7d 3f
       0.008287492208182812 0.007121572736650705
0000a0 00 00 00 20 55 4c 79 3f 00 00 00 20 ed 28 7f 3f
       0.006176311988383532 0.007607389707118273
0000b0 00 00 00 80 25 65 86 bf 00 00 00 20 93 2c 83 3f
       -0.010935109108686447 0.009362363256514072
0000c0 00 00 00 a0 ca a0 52 bf 00 00 00 00 6a 2d 83 bf
       -0.0011369684943929315 -0.009363964200019836
0000d0 00 00 00 a0 c8 3b 75 3f 00 00 00 00 95 3d 79 bf
       0.005183967296034098 -0.006162244826555252
0000e0 00 00 00 e0 ca 67 88 3f 00 00 00 e0 bc 5f 78 bf
       0.011916718445718288 -0.005950677674263716
0000f0 00 00 00 c0 92 a4 74 bf 00 00 00 60 e7 2f 75 bf
       -0.005039761774241924 -0.0051726377569139
000100 00 00 00 00 73 3f 82 3f 00 00 00 e0 db 10 80 3f
       0.008910082280635834 0.007844655774533749
000110 00 00 00 c0 d9 76 71 3f 00 00 00 c0 52 59 76 bf
       0.004263735376298428 -0.005456279031932354
000120 00 00 00 40 dd a6 7b 3f 00 00 00 60 42 6a 77 3f
       0.006750931032001972 0.005716571118682623
000130 00 00 00 00 a0 b3 71 bf 00 00 00 60 95 0f 6e 3f
       -0.004321694374084473 0.0036695401649922132
000140 00 00 00 20 b2 5a 8a 3f 00 00 00 a0 58 b8 7a bf
       0.012868301011621952 -0.006523462478071451
000150 00 00 00 20 16 d6 74 bf 00 00 00 00 3a 64 67 3f
       -0.005086981225758791 0.002855408936738968
000160 00 00 00 a0 49 25 52 3f 00 00 00 20 0c 44 81 bf
       0.0011075228685513139 -0.008430571295320988
000170 00 00 00 40 a3 57 8a bf 00 00 00 60 37 63 5d bf
       -0.012862468138337135 -0.001793674542568624
000180 00 00 00 60 78 80 7b bf 00 00 00 60 f8 0a 82 bf
       -0.006714315619319677 -0.008809986524283886
000190 00 00 00 00 2e 3e 6c 3f 00 00 00 80 04 89 1e bf
       0.0034476183354854584 -0.00011648263898678124
0001a0 00 00 00 20 c0 c6 4b bf 00 00 00 80 21 a4 7b bf
       -0.0008476675138808787 -0.0067483242601156235
0001b0 00 00 00 00 a4 98 67 3f 00 00 00 e0 ba 87 5b 3f
       0.002880401909351349 0.0016803097678348422
0001c0 00 00 00 80 21 90 8b 3f 00 00 00 c0 9a 2d 87 3f
       0.013458501547574997 0.011317452415823936
0001d0 00 00 00 e0 c0 63 38 bf 00 00 00 a0 df 94 62 bf
       -0.0003721567045431584 -0.0022682540584355593
0001e0 00 00 00 40 40 bb 60 3f 00 00 00 20 d3 97 74 3f
       0.0020424132235348225 0.0050276038236916065
0001f0 00 00 00 40 6a 81 75 3f 00 00 00 20 95 a8 82 bf
       0.005250372923910618 -0.009110608138144016
000200 00 00 00 80 a0 34 46 bf 00 00 00 00 34 cf 7f bf
       -0.0006776603404432535 -0.007765963673591614
000210 00 00 00 00 54 9a 84 bf 00 00 00 a0 dd 8a 60 bf
       -0.010059982538223267 -0.0020193413365632296
000220 00 00 00 80 2a 50 6d bf 00 00 00 80 9a cc 82 3f
       -0.0035782651975750923 0.009179312735795975
000230 00 00 00 e0 31 db 7c bf 00 00 00 20 5b c3 73 bf
       -0.0070449779741466045 -0.004824977833777666
000240 00 00 00 40 8f 12 7c bf 00 00 00 20 66 cc 74 3f
       -0.006853637285530567 0.005077742505818605
000250 00 00 00 80 78 24 6d bf 00 00 00 a0 7d 1e 7b bf
       -0.003557429648935795 -0.006620875094085932
000260 00 00 00 c0 49 70 86 bf 00 00 00 e0 95 9d 58 bf
       -0.010956360027194023 -0.0015024150488898158
000270 00 00 00 a0 33 67 6f 3f 00 00 00 60 31 7f 5b 3f
       0.003833390073850751 0.00167827436234802
000280 00 00 00 c0 29 cf 5a bf 00 00 00 e0 15 40 75 3f
       -0.0016363055910915136 0.005188069771975279
000290 00 00 00 40 11 15 79 3f 00 00 00 80 03 ad 70 3f
       0.00612360704690218 0.004071248695254326
0002a0 00 00 00 40 4f 1e 78 3f 00 00 00 80 c8 c2 7b 3f
       0.005888280458748341 0.006777556613087654
0002b0 00 00 00 a0 32 bd 83 bf 00 00 00 a0 74 87 7d 3f
       -0.009638209827244282 0.007209258619695902
0002c0 00 00 00 60 82 b8 65 bf 00 00 00 a0 4b 19 85 bf
       -0.002651457441970706 -0.010302153415977955
0002d0 00 00 00 e0 53 ab 75 3f 00 00 00 40 97 5b 79 bf
       0.005290343891829252 -0.006190863437950611
0002e0 00 00 00 20 07 c5 83 3f 00 00 00 e0 54 d4 76 bf
       0.009653144516050816 -0.005573588889092207
0002f0 00 00 00 a0 40 83 73 bf 00 00 00 20 20 2a 73 bf
       -0.004763843957334757 -0.004678845871239901
000300 00 00 00 a0 d5 70 79 3f 00 00 00 20 da 20 7c 3f
       0.006211122963577509 0.006867267657071352
000310 00 00 00 20 f5 85 56 3f 00 00 00 80 b1 72 6b bf
       0.0013747113989666104 -0.0033505884930491447
000320 00 00 00 a0 06 1d 80 3f 00 00 00 c0 7f 40 74 3f
       0.007867862470448017 0.0049443235620856285
000330 00 00 00 a0 c4 b2 64 bf 00 00 00 e0 1c fd 73 3f
       -0.002526649506762624 0.004880059044808149
000340 00 00 00 00 89 1e 85 3f 00 00 00 c0 1a 8f 75 bf
       0.010312147438526154 -0.005263428203761578
000350 00 00 00 40 0c 51 74 bf 00 00 00 80 cd 7b 61 3f
       -0.004960105754435062 0.0021342290565371513
000360 00 00 00 20 72 2e 6b 3f 00 00 00 40 8a ae 82 bf
       0.0033180455211549997 -0.0091219712048769
000370 00 00 00 00 d6 4b 85 bf 00 00 00 e0 e9 c5 65 bf
       -0.01039855182170868 -0.002657849108800292
000380 00 00 00 20 6e 6a 70 bf 00 00 00 a0 f0 d6 7d bf
       -0.004007749725133181 -0.007285060826689005
000390 00 00 00 80 8f 27 72 3f 00 00 00 40 03 d8 37 3f
       0.004432259127497673 0.00036382750840857625
0003a0 00 00 00 c0 01 f8 62 bf 00 00 00 60 c5 3e 7d bf
       -0.002315524499863386 -0.007139941211789846
0003b0 00 00 00 80 e1 2f 4b 3f 00 00 00 80 e1 1d 67 3f
       0.0008296824526041746 0.002821865491569042
0003c0 00 00 00 c0 25 53 8b 3f 00 00 00 80 6d b1 82 3f
       0.013342184945940971 0.009127479046583176
0003d0 00 00 00 a0 1e 70 5b bf 00 00 00 60 0d b9 6c bf
       -0.0016746806213632226 -0.003506208537146449
0003e0 00 00 00 e0 a3 d0 6b 3f 00 00 00 e0 c8 a3 75 3f
       0.0033953858073800802 0.005283150356262922
0003f0 00 00 00 a0 9f 44 6c 3f 00 00 00 c0 2d 9f 7e bf
       0.0034506910014897585 -0.007476023398339748
000400 00 00 00 a0 2a cf 6c bf 00 00 00 60 95 4a 81 3f
       -0.003516753436997533 0.00844303797930479
000410 00 00 00 a0 39 a8 81 3f 00 00 00 c0 be bd 7e 3f
       0.008621645160019398 0.007505173794925213
000420 00 00 00 c0 79 c3 84 3f 00 00 00 20 ea ee 83 bf
       0.010138465091586113 -0.00973303709179163
000430 00 00 00 00 22 27 78 3f 00 00 00 40 1e ae 79 3f
       0.0058966949582099915 0.006269567646086216
000440 00 00 00 c0 b0 30 7d 3f 00 00 00 00 49 29 54 bf
       0.007126512937247753 -0.001230546273291111
000450 00 00 00 80 6a 46 78 3f 00 00 00 a0 43 df 85 3f
       0.005926528945565224 0.010679748840630054
000460 00 00 00 a0 bd 8c 7c 3f 00 00 00 40 0e 00 7f 3f
       0.006970158312469721 0.007568412460386753
000470 00 00 00 c0 82 61 6f bf 00 00 00 c0 3e 3b 74 bf
       -0.003830676432698965 -0.004939313046634197
000480 00 00 00 20 2d cd 78 3f 00 00 00 c0 90 d4 72 bf
       0.006055046338587999 -0.004597249440848827
000490 00 00 00 00 03 4f 84 bf 00 00 00 00 83 d6 71 bf
       -0.009916327893733978 -0.004354964941740036
0004a0 00 00 00 c0 e2 fd 66 bf 00 00 00 e0 2b 08 71 bf
       -0.0028066090308129787 -0.004158183466643095
0004b0 00 00 00 80 69 44 83 3f 00 00 00 40 2c d7 80 bf
       0.009407829493284225 -0.008222909644246101
0004c0 00 00 00 00 31 83 76 3f 00 00 00 20 1a 69 6d 3f
       0.005496207624673843 0.003590155625715852
0004d0 00 00 00 a0 3b df 80 bf 00 00 00 c0 4e cd 6f 3f
       -0.008238282985985279 0.0038820779882371426
0004e0 00 00 00 80 5d 5d 82 bf 00 00 00 20 24 be 58 3f
       -0.008967142552137375 0.0015101769240573049
0004f0 00 00 00 80 2b 2d 85 3f 00 00 00 e0 b7 a5 80 3f
       0.010340061038732529 0.008128582499921322
000500 00 00 00 80 08 2f 81 bf 00 00 00 60 d9 d7 69 bf
       -0.008390489965677261 -0.003154682694002986
000510 00 00 00 60 b0 12 5d bf 00 00 00 20 70 b6 63 3f
       -0.001774475327692926 0.0024063291493803263
000520 00 00 00 40 f9 8f 53 bf 00 00 00 20 2d fc 84 bf
       -0.0011939939577132463 -0.010246613062918186
000530 00 00 00 00 3d 0b 55 bf 00 00 00 00 aa 8d 82 bf
       -0.0012844176962971687 -0.00905926525592804
000540 00 00 00 20 6c 16 87 bf 00 00 00 a0 5c 4b 74 3f
       -0.011273236013948917 0.004954683128744364
000550 00 00 00 60 94 3d 80 3f 00 00 00 60 26 aa 7c bf
       0.007929953746497631 -0.006998205091804266
000560 00 00 00 e0 46 96 75 bf 00 00 00 a0 11 9b 87 3f
       -0.005270268302410841 0.011526239104568958
000570 00 00 00 80 1e ea 83 3f 00 00 00 e0 12 b9 7e 3f
       0.009723890572786331 0.00750071881338954
000580 00 00 00 a0 2a d7 69 3f 00 00 00 c0 8d 28 76 3f
       0.003154357196763158 0.005409768782556057
000590 00 00 00 e0 47 e7 80 bf 00 00 00 c0 cb 13 7b bf
       -0.008253633044660091 -0.00661067571491003
0005a0 00 00 00 60 9f 02 7f 3f 00 00 00 20 50 82 45 bf
       0.00757086044177413 -0.0006564036593772471
0005b0 00 00 00 40 1c a2 60 3f 00 00 00 e0 60 73 79 bf
       0.002030425239354372 -0.006213549058884382
0005c0 00 00 00 20 03 c0 81 bf 00 00 00 80 a1 96 7b bf
       -0.008667015470564365 -0.006735449656844139
0005d0 00 00 00 60 f2 94 78 3f 00 00 00 20 55 0a 79 3f
       0.006001421716064215 0.006113369483500719
0005e0 00 00 00 20 c9 6f 77 bf 00 00 00 c0 94 de 85 bf
       -0.005721841473132372 -0.010678445920348167
0005f0 00 00 00 20 0b 40 20 bf 00 00 00 20 70 48 84 3f
       -0.00012397895625326782 0.00990378949791193
000600 00 00 00 c0 8d 32 65 3f 00 00 00 a0 d1 8f 6e 3f
       0.0025875824503600597 0.0037306875456124544
000610 00 00 00 00 89 29 91 3f 00 00 00 00 da 0e 57 3f
       0.016760006546974182 0.001407349482178688
000620 00 00 00 80 0e 09 72 3f 00 00 00 a0 05 3d 89 bf
       0.004403168335556984 -0.01232342142611742
000630 00 00 00 40 a9 0f 87 3f 00 00 00 c0 8e fa 30 bf
       0.011260339990258217 -0.00025907502276822925
000640 00 00 00 60 d2 d0 64 bf 00 00 00 40 9b a1 71 bf
       -0.0025409802328795195 -0.0043045105412602425
000650 00 00 00 a0 a8 07 6a bf 00 00 00 a0 39 3d 7e 3f
       -0.003177480073645711 0.00738260755315423
000660 00 00 00 c0 03 4b 85 3f 00 00 00 c0 c5 e1 55 3f
       0.010396985337138176 0.0013355666305869818
000670 00 00 00 e0 de 7d 83 bf 00 00 00 40 c3 54 5a 3f
       -0.009517422877252102 0.001607123063877225
000680 00 00 00 40 dd 8a 40 bf 00 00 00 e0 b2 8a 80 bf
       -0.0005048351595178246 -0.0080770468339324
000690 00 00 00 c0 66 b1 8a bf 00 00 00 80 68 0e 87 bf
       -0.013033678755164146 -0.011257950216531754
0006a0 00 00 00 00 b1 dd 78 bf 00 00 00 00 e0 30 80 bf
       -0.006070796400308609 -0.007905721664428711
0006b0 00 00 00 a0 31 8c 8a 3f 00 00 00 80 06 3a 85 bf
       0.012962711043655872 -0.010364580899477005
0006c0 00 00 00 80 66 8d 61 bf 00 00 00 00 01 a3 8c 3f
       -0.002142620272934437 0.013982780277729034
0006d0 00 00 00 60 95 44 6b bf 00 00 00 a0 da 25 4a bf
       -0.003328601596876979 -0.0007979695801623166
0006e0 00 00 00 c0 1d 5d 8c bf 00 00 00 00 ed 68 77 3f
       -0.013849480077624321 0.0057152993977069855
0006f0 00 00 00 20 af 07 86 3f 00 00 00 80 1b 66 5e 3f
       0.010756843723356724 0.0018553989939391613
000700 00 00 00 80 24 57 8b bf 00 00 00 a0 c4 4b 80 bf
       -0.013349805027246475 -0.007957016117870808
000710 00 00 00 00 ff 5e 80 bf 00 00 00 60 d5 66 83 3f
       -0.00799369066953659 0.009473483078181744
000720 00 00 00 a0 57 2b 7b bf 00 00 00 a0 3c 84 83 bf
       -0.0066331312991678715 -0.009529565460979939
000730 00 00 00 20 30 54 78 3f 00 00 00 c0 e3 c1 6e bf
       0.0059396629221737385 -0.0037545631639659405
000740 00 00 00 e0 1a fa 8e bf 00 00 00 80 55 47 82 3f
       -0.015125474892556667 0.008925121277570724
000750 00 00 00 60 92 70 66 3f 00 00 00 a0 87 79 6e bf
       0.0027392252814024687 -0.0037200592923909426
000760 00 00 00 60 67 d8 69 3f 00 00 00 e0 8f 44 8d 3f
       0.0031549471896141768 0.014290927909314632
000770 00 00 00 80 ed d5 80 3f 00 00 00 80 72 fb 62 3f
       0.008220534771680832 0.0023171650245785713
000780 00 00 00 a0 d9 40 83 3f 00 00 00 a0 d8 d9 82 3f
       0.009401035495102406 0.009204571135342121
000790 00 00 00 40 3c e3 4c bf 00 00 00 c0 cd 6b 58 bf
       -0.0008815807523205876 -0.0014905461575835943
0007a0 00 00 00 e0 22 20 52 3f 00 00 00 60 7d 72 6c 3f
       0.0011062946869060397 0.003472561715170741
0007b0 00 00 00 20 30 06 76 bf 00 00 00 60 e3 20 02 bf
       -0.005376995075494051 -3.457731145317666e-05
0007c0 00 00 00 80 0a a2 8b bf 00 00 00 20 34 d4 88 bf
       -0.013492662459611893 -0.012123496271669865
0007d0 00 00 00 40 1d 99 52 bf 00 00 00 00 c6 d2 13 bf
       -0.0011351380962878466 -7.562001701444387e-05
0007e0 00 00 00 40 9c 59 74 bf 00 00 00 60 31 d2 81 bf
       -0.004968271590769291 -0.008701692335307598
0007f0 00 00 00 20 4a e5 78 bf 00 00 00 a0 ba 37 88 3f
       -0.006078042555600405 0.011825044639408588
