reann2.0_20250825/MPtrj-test/REANN_PES_FLOAT.pt (torch, 448699 bytes, 84 tensors)

contracted_coeff f4 [3, 3, 8, 108]
0	0xbd13223c	-0.03592132
1	0xbccd4d1e	-0.025061186
2	0x3cae2e5e	0.021262344
3	0xbc9c95b7	-0.019114358
4	0xbb124931	-0.0022321458
5	0xbad6b42d	-0.0016380601
6	0x3b043ae8	0.0020176712
7	0xbb63fee8	-0.0034789387
8	0xbb94c806	-0.004540446
9	0x3cdab31c	0.026696734
10	0xbbc3a80b	-0.00597096
11	0x3ca13962	0.019680683
12	0x3c81c08f	0.01583889
13	0xbcb0e495	-0.021593371
14	0xbad25fc5	-0.001605027
15	0xbce6cd22	-0.028173987
16	0xbb45b575	-0.0030167971
17	0xbd0a3a2d	-0.033746887
18	0x3d0757bf	0.033042666
19	0x3b601945	0.003419475
20	0xbce90776	-0.02844594
21	0xbcab3ec5	-0.020903954
22	0xbc73b5db	-0.014874901
23	0x3c6febca	0.014643619
24	0x3c0ad177	0.008472792
25	0x3be9da14	0.0071365926
26	0xbce348bb	-0.027744642
27	0xbd0ebb41	-0.034846548
28	0x3ca762a0	0.02043277
29	0x3cb91ed8	0.022597715
30	0xbb68ad2d	-0.0035503611
31	0x3b9eec93	0.004849979
32	0x3c73dcf2	0.01488422
33	0xbcbf1ee4	-0.02333016
34	0xbd027bef	-0.031856474
35	0x3aa6b330	0.0012718197
36	0x3ce4a3f9	0.02791022
37	0xbcc8a997	-0.02449493
38	0xbb496fb5	-0.0030736749
39	0xbd176db6	-0.036969863
40	0x3ccdf46c	0.025140963
41	0x3bedd4a4	0.0072580148
42	0x3c4a86e4	0.012361262
43	0x3c3ed220	0.011646777
44	0xbc9785a9	-0.018496351
45	0xbb270751	-0.0025486539
46	0x3ce44021	0.02786261
47	0x3d0165a9	0.03159109
48	0x3bee59ac	0.0072738733
49	0x3c87ec58	0.01659219
50	0xbbfe2430	-0.0077557787
51	0x3b698a40	0.0035635382
52	0x3b63660a	0.0034698271
53	0xbcc8f331	-0.024530025
54	0x3cc30e10	0.023810416
55	0x3ba94ba6	0.0051664887
56	0xbcb03c31	-0.021513076
57	0x3b69e73d	0.0035690807
58	0xbc589e5d	-0.0132213505
59	0xbcc8587b	-0.024456253
60	0xbcb93989	-0.022610443
61	0x3cc1f623	0.023676937
62	0xbb851ab9	-0.0040620235
63	0x3c0a1e58	0.008430086
64	0x3c52f656	0.012876114
65	0x3d0b60e1	0.034027938
66	0xbad4ddf5	-0.0016240465
67	0x3c777647	0.015103883
68	0xbc34e92b	-0.01104192
69	0x3cba050b	0.022707483
70	0x3cd87c77	0.026426537
71	0xbb9d31ef	-0.0047972123
72	0xbcea4511	-0.028597387
73	0xbb6c9302	-0.0036098366
74	0x3beb74e5	0.007185566
75	0xbc8d6b71	-0.017263146
76	0xbc29365d	-0.010327903
77	0x3d1394f7	0.036030736
78	0xbc068b42	-0.008211913
79	0x3bd86a89	0.006604497
80	0xbb5d8ce5	-0.0033805904
81	0xbc40d96e	-0.011770589
82	0x3c83fd8c	0.016112112
83	0x3cd845ca	0.026400466
84	0x3d078ffe	0.033096306
85	0x3cb530af	0.02211794
86	0x3b12685f	0.0022340042
87	0x3cce86a7	0.025210692
88	0x3c96fb17	0.018430276
89	0x3cacd29d	0.021096522
90	0xbca10e5f	-0.019660173
91	0x3c7a67de	0.015283553
92	0xbc922d0a	-0.017843742
93	0xbcf403ec	-0.029787026
94	0x3d320fc3	0.043472063
95	0xbc161e08	-0.009162433
96	0x3c58074c	0.013185333
97	0x3c6d1d42	0.014472308
98	0x3c805896	0.015667241
99	0x3d056a96	0.03257235
100	0xbd0054df	-0.03133094
101	0x3c3b27ef	0.011423095
102	0x3c4019ac	0.011724871
103	0x3ca42015	0.02003483
104	0x3cdf0242	0.027222756
105	0x3c88faa9	0.016721087
106	0x3d064f3d	0.03279041
107	0x3c133484	0.008984689
108	0x3ca9c953	0.020725882
109	0x3c36a9c5	0.011148875
110	0xbbd24bd2	-0.00641773
111	0x3cfe575f	0.031047521
112	0x3cbd39f8	0.02309893
113	0x3ba4eca0	0.0050330907
114	0xbc43136c	-0.011906486
115	0x3c3193e9	0.010838487
116	0x3c8893d8	0.01667206
117	0xbc5b55ee	-0.013387186
118	0xbb03e00f	-0.0020122563
119	0xbcb6e0db	-0.022324016
120	0xbc1a278f	-0.009408846
121	0xbc568983	-0.013094309
122	0x3af65aef	0.0018795411
123	0x3c18a085	0.009315615
124	0xbc7b0842	-0.015321793
125	0x3ac1a267	0.0014773131
126	0x3ccd3ffe	0.025054928
127	0xbcd2e4c6	-0.025743853
128	0xbc770a5b	-0.0150781525
129	0x3cc7b659	0.024378942
130	0xbb03054b	-0.0019992169
131	0x3c3398cd	0.0109617235
132	0x3c8a72d7	0.016900463
133	0xbc7e1032	-0.015506791
134	0xbce71e56	-0.028212707
135	0x3b8e135e	0.004335805
136	0x3bab827a	0.00523406
137	0x3c1d3b1d	0.009596613
138	0xbc824042	-0.015899781
139	0xbc21557d	-0.009847042
140	0xbbadbc59	-0.005301994
141	0xbc4f7105	-0.012661223
142	0x3ce109ea	0.027470548
143	0x3b76318d	0.0037566156
144	0x3b452c41	0.0030086192
145	0xba819ce6	-0.0009888678
146	0x3cfe4ccf	0.031042485
147	0xbb3245a1	-0.0027202147
148	0xbbb2203b	-0.005435971
149	0x3c927f5c	0.017882995
150	0x3cb5dc21	0.022199692
151	0xbbc334c6	-0.005957219
152	0x3c86cfb6	0.016456466
153	0x3c1a2079	0.009407156
154	0x3af952b3	0.0019021839
155	0x3cf79f85	0.030227432
156	0xbbfb0b79	-0.0076612798
157	0x3c55e321	0.01305464
158	0x3c7866c5	0.015161221
159	0xbd169da4	-0.03677143
160	0xbd00be05	-0.031431217
161	0xbce07525	-0.027399609
162	0x3ca7b6f3	0.02047298
163	0x3c9ab06c	0.018882953
164	0xbb8aeb40	-0.0042394698
165	0x3c368b74	0.011141647
166	0xbcebcf21	-0.02878529
167	0x3b678cbe	0.0035331692
168	0x3d132934	0.035927966
169	0xbc87bc92	-0.01656941
170	0xbc7eebbb	-0.015559132
171	0x3b1f16c2	0.002427504
172	0xbcb3e574	-0.021959998
173	0x3cf8a8b5	0.030353883
174	0xbc85fbdc	-0.016355447
175	0x3ce52698	0.027972504
176	0x3cd389bd	0.025822515
177	0x3ae1b4c8	0.0017220015
178	0x3d219362	0.039447196
179	0x3cc96f0d	0.024589086
180	0x3c11b327	0.008892811
181	0x3c41ce57	0.01182898
182	0xbbfd2f64	-0.0077265967
183	0x3d0a90ae	0.033829384
184	0x3ced5c18	0.028974578
185	0x3cfabd3a	0.030607808
186	0x3d199575	0.03749605
187	0x3c67adcd	0.014140558
188	0x3ca6c4ba	0.020357478
189	0xbb876768	-0.0041322
190	0xbce3e300	-0.027818203
191	0x3cdbae92	0.02681664
192	0xbae543a0	-0.0017491467
193	0xbc4ffd2a	-0.012694636
194	0x3cd3d115	0.025856534
195	0xbc33b954	-0.010969479
196	0x3d056066	0.032562636
197	0x3a3fd1a5	0.0007317311
198	0x3cb929de	0.022602972
199	0x3c0804bb	0.008301909
200	0xbd22fa37	-0.039789405
201	0xbc04c772	-0.008104192
202	0xbcb9d693	-0.022685325
203	0xbcc3ce9f	-0.023902236
204	0x3c8923d6	0.01674072
205	0x3cc9dd79	0.02464174
206	0x3c8152dd	0.015786583
207	0x3bea9d57	0.0071598697
208	0xbcaf8907	-0.021427644
209	0x3d32a16a	0.043610968
210	0xbc7023bc	-0.014656957
211	0x3cda4d4f	0.026648192
212	0x3cd81fc2	0.02638233
213	0x3ca79dad	0.020460928
214	0xbcab8f55	-0.02094237
215	0xbb8eedcb	-0.004361843
216	0xbc333705	-0.010938411
217	0x3c5becbc	0.013423141
218	0xbcfb1229	-0.030648308
219	0x3cc58fd1	0.024116429
220	0xbd21d6ca	-0.03951148
221	0x3c398073	0.011322129
222	0x3cb88bf5	0.022527674
223	0x3cf0f1b9	0.029412137
224	0xbce0d4a1	-0.02744514
225	0x3b11cf81	0.0022248926
226	0x3c885a83	0.016644722
227	0xbbb246e7	-0.005440581
228	0x3c12329c	0.008923199
229	0x3ca828eb	0.020527324
230	0xbd056e25	-0.032575745
231	0x3c8477f1	0.016170474
232	0xbc8896b5	-0.016673425
233	0xbb81bf45	-0.0039595687
234	0xbbaafbe4	-0.005218016
235	0x3cb6eb51	0.022329004
236	0xbcbd7f6e	-0.023132052
237	0x3bbdd366	0.005793023
238	0xbc77df6a	-0.01512895
239	0xbcbaee24	-0.022818632
240	0x3d036143	0.032075178
241	0xbc410829	-0.011781731
242	0xbbaff5ec	-0.0053698923
243	0xbc5862cf	-0.013207152
244	0x3b846f99	0.004041624
245	0x3c5fea04	0.0136666335
246	0x3c84e094	0.016220368
247	0xbc5aaac5	-0.013346379
248	0xbcb676dc	-0.022273473
249	0x3cd40212	0.025879893
250	0x3cc103c1	0.02356136
251	0xbc235187	-0.009968168
252	0xbbe63926	-0.0070258556
253	0xbc1a1841	-0.009405197
254	0x3d180824	0.03711714
255	0xbcd8b0a5	-0.026451418

weight f4 [64, 118]
0	0xbc16ee5d	-0.009212104
1	0x3daf70e5	0.08566455
2	0xbe0b7850	-0.13620114
3	0xbd9cc3e3	-0.0765455
4	0x3e305764	0.17220837
5	0xbd88a5d7	-0.066722564
6	0xbdcf7efb	-0.101316415
7	0x3c53ddb9	0.012931281
8	0xbdc56055	-0.096375145
9	0xbde3e678	-0.11127943
10	0xbdeeba88	-0.11656672
11	0xbd434eb1	-0.047682468
12	0xbe3a5b97	-0.18199001
13	0xbe11477f	-0.1418743
14	0xbe1b418f	-0.15161727
15	0x3c3fbc84	0.0117026605
16	0x3e352065	0.17688139
17	0x3db31ecd	0.08746109
18	0x3e35b5f9	0.17745198
19	0x3dec9dd1	0.115535386
20	0xbba1f173	-0.004942113
21	0x3db39598	0.08768767
22	0xbcbfd996	-0.023419183
23	0x3e0f988c	0.14023036
24	0xbe34e2d9	-0.1766466
25	0xbe1bb34f	-0.1520512
26	0x3e129a58	0.1431669
27	0xbdb3a390	-0.087714314
28	0x3d08a819	0.033363435
29	0xbe1d59d1	-0.15366293
30	0x3e1d6f63	0.15374522
31	0xbd020b78	-0.03174922
32	0xbd570310	-0.052493155
33	0xbd8e044d	-0.06934414
34	0xbe382790	-0.17983842
35	0xbdbd1e73	-0.09234323
36	0xbc910340	-0.017701745
37	0xbd6c8458	-0.0577434
38	0x3d858861	0.06520153
39	0x3d6b0474	0.057377294
40	0xbe2db8ca	-0.16965023
41	0xbe0d3395	-0.13789208
42	0xbe179d06	-0.14805993
43	0x3df48709	0.119398184
44	0x3d86ec58	0.06588048
45	0xbd1e8b6c	-0.03870718
46	0xbcec433d	-0.028840655
47	0x3de11a05	0.10991291
48	0xbe0d373c	-0.13790601
49	0x3d821483	0.063515685
50	0xbd066ffb	-0.032821637
51	0xbc429878	-0.011877172
52	0xbd713cab	-0.058895748
53	0xbd2325c6	-0.039830945
54	0x3ce67b74	0.028135039
55	0xbe22f480	-0.15913582
56	0xbdf1f2ad	-0.11813865
57	0xbe398bc7	-0.18119727
58	0x3daf934d	0.08573017
59	0xbd93812b	-0.07202371
60	0xbde237e4	-0.110458165
61	0xbdfd6f4b	-0.12374743
62	0x3dede993	0.11616816
63	0x3e2413e5	0.16023214
64	0xbe38170d	-0.17977543
65	0xbdbd5ea6	-0.092465684
66	0x3ddab8e3	0.106797956
67	0xbdce16c3	-0.10062935
68	0xbe2dc58c	-0.1696989
69	0x3c143c90	0.009047642
70	0x3dd60e68	0.104519665
71	0xbe18b7d9	-0.14913882
72	0x3dabaef8	0.08382982
73	0xbd5591d2	-0.05214102
74	0xbd8f312c	-0.06991801
75	0x3d1e4871	0.038643304
76	0xbe25e2da	-0.16199818
77	0x3dd91e95	0.10601536
78	0x3cd39568	0.025828078
79	0x3d839017	0.06423967
80	0xbe2bc503	-0.16774373
81	0xbdce2775	-0.100661196
82	0xbd695441	-0.056965116
83	0xbe23d986	-0.16000947
84	0xbc733192	-0.014843361
85	0xbde42385	-0.11139587
86	0xbdd47da3	-0.10375526
87	0xbe122e11	-0.14275385
88	0xbdb86393	-0.09003367
89	0x3dcce405	0.10004429
90	0x3e18b8af	0.14914201
91	0x3e166641	0.14687444
92	0xbe1d1419	-0.15339698
93	0xbe072cee	-0.13200733
94	0x3e264238	0.16236198
95	0xbe024e24	-0.12725121
96	0xbdb8e32b	-0.09027704
97	0x3e1312e1	0.1436267
98	0x3ca30a30	0.019902319
99	0x3e250d30	0.16118312
100	0xbd5dbf06	-0.054137252
101	0xbd0f1d18	-0.034939855
102	0x3e2ffde7	0.171867
103	0x3d7c0a51	0.061533276
104	0x3d019041	0.031631712
105	0xbda05811	-0.07829297
106	0xbe223c9b	-0.15843432
107	0xbdb713c3	-0.08939316
108	0xbdef351e	-0.11680053
109	0xbd5798e5	-0.052636046
110	0x3cd3d3a2	0.02585775
111	0xbd880791	-0.06642068
112	0x3c83d58c	0.016093038
113	0xbd566ad5	-0.052347977
114	0xbe0e3172	-0.1388605
115	0xbdcddf21	-0.10052324
116	0xbe02088d	-0.12698574
117	0xbdd9bf86	-0.10632233
118	0xbd366ce1	-0.04453743
119	0xbd79caa4	-0.06098427
120	0x3d9fd612	0.078045025
121	0x3d23edd4	0.040021732
122	0xbe2c21b6	-0.16809735
123	0x3e05e2cb	0.13074796
124	0xbd4c7223	-0.049913537
125	0xbdeaeb72	-0.11470689
126	0x3e14af00	0.14519882
127	0x3e1f0dfe	0.15532681
128	0xbdb59850	-0.08866942
129	0x3d359fa3	0.044341695
130	0x3e46962c	0.19393224
131	0x3d8a4622	0.06751658
132	0xbdd998fe	-0.10624884
133	0x3e484d68	0.19560778
134	0x3e0be624	0.1366201
135	0xbdf49897	-0.11943167
136	0xbd40af4f	-0.047042187
137	0x3ce81305	0.028329382
138	0x3e181173	0.14850406
139	0x3d6e6426	0.058200978
140	0xbd1bd862	-0.038048156
141	0x3e318288	0.1733495
142	0x3dd9b6c8	0.10630566
143	0xbda843ad	-0.08216033
144	0x3dec9781	0.115523346
145	0xbdaa5261	-0.08316494
146	0x3c1fd36c	0.009754997
147	0x3e1ded0f	0.15422462
148	0x3df27cb4	0.118401915
149	0x3dbf332d	0.09335933
150	0x3e0750fb	0.13214485
151	0x3cf035d8	0.02932255
152	0x3dae185f	0.08500742
153	0xbc32eaca	-0.010920236
154	0xbe2b6f08	-0.16741574
155	0xbca88241	-0.020569922
156	0x3df50b63	0.119650625
157	0x3e0e9d9f	0.13927315
158	0x3c4c0555	0.012452443
159	0x3ddb48d7	0.107072525
160	0x3e08cda6	0.13359699
161	0x3e2c69f2	0.1683729
162	0xbc692d24	-0.014231954
163	0xbdc9cc8a	-0.09853466
164	0x3daff98c	0.08592519
165	0x3b902dea	0.0044000046
166	0xbbdd2c58	-0.006749671
167	0x3d2c83f6	0.042118035
168	0x3dd6c064	0.10485914
169	0xbe0bf52d	-0.13667746
170	0x3e04a151	0.12952162
171	0x3c89d2ec	0.016824208
172	0xbcd09184	-0.025460012
173	0xbdaf077d	-0.0854635
174	0x3e0c440a	0.1369783
175	0xbd92cc8f	-0.07167923
176	0x3d223a10	0.039606154
177	0x3d8b6d62	0.068079725
178	0xbdf46e94	-0.119351536
179	0x3e386de5	0.18010671
180	0xbd71bf24	-0.059020177
181	0x3dd88e6e	0.10574041
182	0x3e419a17	0.18906437
183	0x3dadc709	0.084852286
184	0xbe0d935a	-0.13825741
185	0xbdb1420e	-0.08655177
186	0x3c0459b5	0.008078028
187	0x3d1836d1	0.037161652
188	0x3c147810	0.009061828
189	0x3e23d9c2	0.16001037
190	0x3d252ae7	0.040324118
191	0xbdf5f506	-0.12009625
192	0x3d343d8b	0.044004004
193	0xbe22a1d7	-0.1588205
194	0x3da2ce8c	0.07949552
195	0x3e20b413	0.15693693
196	0x3b79042c	0.0037996871
197	0xbe0579ba	-0.13034716
198	0xbe3b7af3	-0.1830862
199	0x3e2988c7	0.16556083
200	0xbe109dc4	-0.14122683
201	0xbdca8de8	-0.09890348
202	0xbdfdcc46	-0.12392478
203	0xbdb31cd7	-0.08745735
204	0x3de2f5a4	0.110820085
205	0xbe2b0ae9	-0.1670338
206	0xbd57af97	-0.05265769
207	0x3e134f63	0.14385752
208	0xbc626522	-0.013818057
209	0x3da8ff80	0.08251858
210	0x3e2332b2	0.15937307
211	0x3d80c463	0.06287458
212	0x3dc1af35	0.09457246
213	0xbd6ac3fd	-0.057315815
214	0x3e273c0b	0.16331498
215	0x3d56dee6	0.052458666
216	0xbe19df41	-0.15026571
217	0xbe0d9cdf	-0.13829373
218	0xbbfe087d	-0.0077524767
219	0x3db7593c	0.08952567
220	0x3e34886a	0.17630163
221	0xbe2d3f64	-0.16918713
222	0x3e2731ad	0.16327544
223	0xbd4d5e1d	-0.05013858
224	0x3ca5b3b4	0.02022729
225	0x3ddafaeb	0.1069239
226	0xbdb5bf1b	-0.08874341
227	0x3d718594	0.05896528
228	0xbd3af9da	-0.045648433
229	0xbe2c2b61	-0.16813423
230	0x3d8f2cb3	0.069909476
231	0x3e1b2492	0.15150669
232	0xbc83d722	-0.016093794
233	0xbd9f36c0	-0.077741146
234	0x3b208e56	0.0024498901
235	0xbd9ad580	-0.07560253
236	0xbd7ce014	-0.061737135
237	0xbe20a2d6	-0.15687117
238	0xbd1972fd	-0.037463177
239	0xbc1dce65	-0.009631728
240	0xbd9f4c8f	-0.07778274
241	0x3dd6a605	0.104808845
242	0x3dac0c58	0.08400792
243	0x3c72908a	0.014804969
244	0xbe05dd8c	-0.13072795
245	0x3e24294d	0.1603138
246	0x3bb31fe1	0.0054664467
247	0x3d73cd35	0.059521873
248	0x3d893203	0.06698992
249	0xbe2b8cee	-0.16752979
250	0xbe23925b	-0.15973799
251	0xbd4faac6	-0.05069997
252	0x3e2f4011	0.17114283
253	0xbe309410	-0.17243981
254	0xbdb6389d	-0.08897517
255	0x3d8d2d58	0.06893414

bias f4 [64]
0	0x3d455f33	0.048186492
1	0x3c6f3724	0.014600549
2	0x3cebccec	0.028784238
3	0x3d9e9f93	0.0774528
4	0x3d7f9a22	0.062402852
5	0xbd964163	-0.0733669
6	0x3da0f200	0.07858658
7	0x3d27e412	0.04098899
8	0x3d11155d	0.035420764
9	0x3cebf644	0.028803952
10	0x3d92f9f6	0.071765825
11	0x3d0101c7	0.031495836
12	0xbd310172	-0.04321427
13	0xbd9d410d	-0.07678423
14	0xbbfa8797	-0.007645558
15	0x3bc97a02	0.0061485777
16	0x3d960725	0.073255815
17	0x3d16a989	0.036782775
18	0xbd4a8374	-0.04944177
19	0x3d6f7d57	0.058469143
20	0x3d3b82fa	0.045779206
21	0xbd8a0e73	-0.06741037
22	0x3d880474	0.06641474
23	0x3d99f1b6	0.07516806
24	0x3dd09476	0.10184567
25	0x3d5cfb90	0.053950846
26	0xbdc6a133	-0.09698715
27	0x3da4fbbf	0.08055829
28	0x3c4d5cdf	0.012534349
29	0xbae5b970	-0.0017526578
30	0x3dca1505	0.098672904
31	0xbc96850e	-0.018373992
32	0xbdb47ea5	-0.08813218
33	0x3d9cac48	0.076500475
34	0x3c8c9dab	0.017165026
35	0xbd58a092	-0.052887507
36	0x3d9f547c	0.07779786
37	0x3da82d6a	0.08211787
38	0xbd2a3233	-0.04155178
39	0xbda86658	-0.082226455
40	0xbd4e8e4d	-0.050428677
41	0x3d2cc0b9	0.042175982
42	0xbd108567	-0.035283472
43	0xbc4e9d31	-0.01261072
44	0xbda6f963	-0.081530355
45	0xbc16e611	-0.009210126
46	0x3cf18b1d	0.02948528
47	0xbd8bab9b	-0.068198405
48	0xbd01b26e	-0.031664304
49	0x3d84a038	0.06475872
50	0xbdb5b0a0	-0.08871579
51	0x3d407cf2	0.046994157
52	0x3dbaf812	0.09129347
53	0x3d4f94c9	0.050679002
54	0x3dcff1a1	0.10153509
55	0xbd7aebc9	-0.06126002
56	0xbc2d41fc	-0.010574814
57	0xbd90f1b0	-0.07077348
58	0x3d31d876	0.043419324
59	0x3d57146f	0.05250972
60	0xbc6ed64a	-0.014577458
61	0xbd17817c	-0.03698872
62	0x3d9e88b0	0.07740915
63	0x3caf6960	0.021412551

alpha f4 [1, 64]
0	0x3f81f60c	1.0153213
1	0x3f828519	1.0196868
2	0x3f83987c	1.028091
3	0x3f8122c5	1.0088736
4	0x3f838a7b	1.0276636
5	0x3f82d934	1.0222535
6	0x3f824cf8	1.0179739
7	0x3f8230c2	1.017113
8	0x3f82e267	1.0225343
9	0x3f83836c	1.0274482
10	0x3f82605d	1.0185658
11	0x3f8309b3	1.0237335
12	0x3f82a028	1.0205126
13	0x3f812758	1.0090132
14	0x3f821f6f	1.0165843
15	0x3f82729d	1.0191227
16	0x3f81893c	1.0120006
17	0x3f8238ca	1.0173581
18	0x3f82c1b0	1.0215359
19	0x3f82a006	1.0205085
20	0x3f829b0d	1.0203568
21	0x3f825c73	1.0184463
22	0x3f82f63d	1.0231396
23	0x3f828f3f	1.0199965
24	0x3f81bb72	1.0135329
25	0x3f8302df	1.0235251
26	0x3f838258	1.0274153
27	0x3f835d5b	1.0262865
28	0x3f82c986	1.021775
29	0x3f826bc4	1.0189137
30	0x3f837218	1.0269194
31	0x3f83e000	1.0302734
32	0x3f82f1b7	1.0230016
33	0x3f81f8d1	1.0154058
34	0x3f81a71c	1.0129123
35	0x3f81943e	1.0123365
36	0x3f81f7c9	1.0153743
37	0x3f826a62	1.0188715
38	0x3f811369	1.0084049
39	0x3f81e707	1.0148629
40	0x3f83782e	1.0271051
41	0x3f82266f	1.0167979
42	0x3f839879	1.0280906
43	0x3f83cebd	1.0297467
44	0x3f81d4d9	1.0143081
45	0x3f8329bd	1.0247113
46	0x3f837825	1.027104
47	0x3f81d86a	1.0144169
48	0x3f822dbf	1.0170211
49	0x3f8247aa	1.017812
50	0x3f81f39f	1.0152472
51	0x3f8215c3	1.0162891
52	0x3f81efbe	1.0151289
53	0x3f8242cf	1.0176638
54	0x3f816745	1.010964
55	0x3f81a026	1.0126998
56	0x3f837243	1.0269245
57	0x3f82e2e0	1.0225487
58	0x3f81e978	1.0149374
59	0x3f826c3f	1.0189284
60	0x3f831e74	1.0243669
61	0x3f825c6e	1.0184457
62	0x3f80dae9	1.0066806
63	0x3f837232	1.0269225

beta f4 [1, 64]
0	0x3cb9657b	0.022631397
1	0x3cdd5500	0.02701807
2	0x3d1063ac	0.035251305
3	0x3c8ab063	0.01692981
4	0x3d0d8170	0.03454727
5	0x3cebd283	0.028786903
6	0x3cd33bc0	0.025785327
7	0x3cc7afa9	0.024375753
8	0x3cec7734	0.028865434
9	0x3d05237c	0.032504544
10	0x3cd3def4	0.025863148
11	0x3cfd4cc3	0.030920392
12	0x3ce4b3cd	0.027917767
13	0x3c8c3f52	0.017120037
14	0x3cc51f5e	0.024062809
15	0x3cd67a53	0.026181376
16	0x3ca18d32	0.019720647
17	0x3cc767d7	0.024341507
18	0x3ce7e4bc	0.028307311
19	0x3cdf7ce4	0.027281232
20	0x3cdcca7c	0.02695202
21	0x3ccfc72a	0.025363524
22	0x3cfb6501	0.03068781
23	0x3cdc6910	0.026905566
24	0x3caee047	0.021347178
25	0x3cfc0251	0.030762823
26	0x3d0730c2	0.033005483
27	0x3d02fedf	0.031981345
28	0x3ce9d0e4	0.02854199
29	0x3cd6cc21	0.026220383
30	0x3d0af1e2	0.033922084
31	0x3d12ef45	0.035872716
32	0x3cf303cc	0.029664896
33	0x3cb9c9c1	0.022679212
34	0x3ca84125	0.020538876
35	0x3ca3f4ac	0.02001413
36	0x3cb83398	0.02248554
37	0x3cd5fbbd	0.026121015
38	0x3c866fb6	0.01641069
39	0x3cb7e969	0.022450166
40	0x3d09bf7e	0.033629887
41	0x3cc8deef	0.024520366
42	0x3d0cc0bd	0.034363497
43	0x3d0eecea	0.034893908
44	0x3cb3d73f	0.021953223
45	0x3d03ac68	0.03214684
46	0x3d09fe3f	0.033689734
47	0x3cb53cad	0.022123659
48	0x3ccc169d	0.024913127
49	0x3cd08d1f	0.025457917
50	0x3cb98f8f	0.022651462
51	0x3cc13507	0.023584856
52	0x3cba5c13	0.022748983
53	0x3cc8070e	0.024417426
54	0x3c987bd6	0.018613737
55	0x3ca8b7c2	0.020595435
56	0x3d06af04	0.03288175
57	0x3ced2b71	0.028951379
58	0x3cb92612	0.022601161
59	0x3cd6368b	0.026149055
60	0x3cfae39e	0.030626114
61	0x3cd3c35e	0.025849994
62	0x3c724959	0.014787995
63	0x3d099fd1	0.03359968

weight f4 [24, 64]
0	0xbae7ba53	-0.001767943
1	0xbbd8b5dc	-0.006613476
2	0xbc2e8d67	-0.01065383
3	0xb97b9f4c	-0.00023996568
4	0xbb845768	-0.00403874
5	0x3c3adffc	0.011405941
6	0xbc203053	-0.009777146
7	0xbb5284c7	-0.0032122598
8	0xbbce0308	-0.0062869824
9	0x3bd89e3c	0.00661066
10	0xbafad957	-0.0019138259
11	0xbbda7842	-0.006667168
12	0xbc2b1b6a	-0.010443548
13	0xbabe9913	-0.0014541469
14	0x3bbe1124	0.005800383
15	0x3a0c5cae	0.00053543865
16	0x39953df8	0.00028465665
17	0x3bc0fc11	0.0058894237
18	0x3c07c843	0.008287492
19	0x3be95c15	0.0071215727
20	0x3bca62a9	0.006176312
21	0x3bf94769	0.0076073897
22	0xbc33292c	-0.010935109
23	0x3c196499	0.009362363
24	0xba950655	-0.0011369685
25	0xbc196b50	-0.009363964
26	0x3ba9de45	0.0051839673
27	0xbbc9eca8	-0.006162245
28	0x3c433e57	0.011916718
29	0xbbc2fde7	-0.0059506777
30	0xbba52496	-0.005039762
31	0xbba97f3b	-0.0051726378
32	0x3c11fb98	0.008910082
33	0x3c0086df	0.007844656
34	0x3b8bb6ce	0.0042637354
35	0xbbb2ca96	-0.005456279
36	0x3bdd36ea	0.006750931
37	0x3bbb5213	0.005716571
38	0xbb8d9d00	-0.0043216944
39	0x3b707cab	0.0036695402
40	0x3c52d591	0.012868301
41	0xbbd5c2c5	-0.0065234625
42	0xbba6b0b1	-0.005086981
43	0x3b3b21d0	0.002855409
44	0x3a912a4d	0.0011075229
45	0xbc0a2061	-0.008430571
46	0xbc52bd1a	-0.012862468
47	0xbaeb19bb	-0.0017936745
48	0xbbdc03c3	-0.0067143156
49	0xbc1057c3	-0.0088099865
50	0x3b61f170	0.0034476183
51	0xb8f44824	-0.00011648264
52	0xba5e3601	-0.0008476675
53	0xbbdd210c	-0.0067483243
54	0x3b3cc520	0.002880402
55	0x3adc3dd7	0.0016803098
56	0x3c5c810c	0.013458502
57	0x3c396cd6	0.011317452
58	0xb9c31e07	-0.0003721567
59	0xbb14a6fd	-0.002268254
60	0x3b05da02	0.0020424132
61	0x3ba4be99	0.005027604
62	0x3bac0b52	0.005250373
63	0xbc1544a9	-0.009110608
64	0xba31a504	-0.00067766034
65	0xbbfe79a0	-0.0077659637
66	0xbc24d2a0	-0.010059983
67	0xbb0456ed	-0.0020193413
68	0xbb6a8154	-0.0035782652
69	0x3c1664d4	0.009179313
70	0xbbe6d98f	-0.007044978
71	0xbb9e1ad9	-0.004824978
72	0xbbe0947a	-0.0068536373
73	0x3ba66331	0.0050777425
74	0xbb6923c4	-0.0035574296
75	0xbbd8f3ed	-0.006620875
76	0xbc33824e	-0.01095636
77	0xbac4ecaf	-0.001502415
78	0x3b7b399d	0.00383339
79	0x3adbf98b	0.0016782744
80	0xbad6794e	-0.0016363056
81	0x3baa00af	0.00518807
82	0x3bc8a88a	0.006123607
83	0x3b85681c	0.0040712487
84	0x3bc0f27a	0.0058882805
85	0x3bde1644	0.0067775566
86	0xbc1de995	-0.00963821
87	0x3bec3ba5	0.0072092586
88	0xbb2dc413	-0.0026514574
89	0xbc28ca5d	-0.010302153
90	0x3bad5a9f	0.005290344
91	0xbbcadcba	-0.0061908634
92	0x3c1e2839	0.0096531445
93	0xbbb6a2a7	-0.005573589
94	0xbb9c1a05	-0.004763844
95	0xbb995101	-0.004678846
96	0x3bcb86ad	0.006211123
97	0x3be106d1	0.0068672677
98	0x3ab42fa9	0.0013747114
99	0xbb5b958c	-0.0033505885
100	0x3c00e835	0.0078678625
101	0x3ba203fe	0.0049443236
102	0xbb259625	-0.0025266495
103	0x3b9fe8e7	0.004880059
104	0x3c28f448	0.010312147
105	0xbbac78d6	-0.005263428
106	0xbba28862	-0.0049601058
107	0x3b0bde6c	0.002134229
108	0x3b597391	0.0033180455
109	0xbc157452	-0.009121971
110	0xbc2a5eb0	-0.010398552
111	0xbb2e2f4f	-0.002657849
112	0xbb835371	-0.0040077497
113	0xbbeeb785	-0.007285061
114	0x3b913c7c	0.004432259
115	0x39bec01a	0.0003638275
116	0xbb17c00e	-0.0023155245
117	0xbbe9f62b	-0.007139941
118	0x3a597f0c	0.00082968245
119	0x3b38ef0c	0.0028218655
120	0x3c5a992e	0.013342185
121	0x3c158b6c	0.009127479
122	0xbadb80f5	-0.0016746806
123	0xbb65c86b	-0.0035062085
124	0x3b5e851f	0.0033953858
125	0x3bad1e47	0.0052831504
126	0x3b6224fd	0.003450691
127	0xbbf4f96e	-0.0074760234
128	0xbb667955	-0.0035167534
129	0x3c0a54ab	0.008443038
130	0x3c0d41cd	0.008621645
131	0x3bf5edf6	0.007505174
132	0x3c261bce	0.010138465
133	0xbc1f7751	-0.009733037
134	0x3bc13910	0.005896695
135	0x3bcd70f2	0.0062695676
136	0x3be98586	0.007126513
137	0xbaa14a48	-0.0012305463
138	0x3bc23354	0.005926529
139	0x3c2efa1d	0.010679749
140	0x3be465ed	0.0069701583
141	0x3bf80072	0.0075684125
142	0xbb7b0c16	-0.0038306764
143	0xbba1d9f6	-0.004939313
144	0x3bc66969	0.0060550463
145	0xbb96a486	-0.0045972494
146	0xbc227818	-0.009916328
147	0xbb8eb418	-0.004354965
148	0xbb37ef16	-0.002806609
149	0xbb88415f	-0.0041581835
150	0x3c1a234c	0.0094078295
151	0xbc06b962	-0.00822291
152	0x3bb41988	0.0054962076
153	0x3b6b48d1	0.0035901556
154	0xbc06f9dd	-0.008238283
155	0x3b7e6a76	0.003882078
156	0xbc12eaec	-0.008967143
157	0x3ac5f121	0.0015101769
158	0x3c29695c	0.010340061
159	0x3c052dbf	0.0081285825
160	0xbc097844	-0.00839049
161	0xbb4ebecb	-0.0031546827
162	0xbae89583	-0.0017744753
163	0x3b1db381	0.0024063291
164	0xba9c7fca	-0.001193994
165	0xbc27e169	-0.010246613
166	0xbaa859e8	-0.0012844177
167	0xbc146d50	-0.009059265
168	0xbc38b361	-0.011273236
169	0x3ba25ae5	0.004954683
170	0x3c01eca3	0.007929954
171	0xbbe55133	-0.006998205
172	0xbbacb237	-0.0052702683
173	0x3c3cd88d	0.011526239
174	0x3c1f50f4	0.009723891
175	0x3bf5c897	0.007500719
176	0x3b4eb955	0.0031543572
177	0x3bb1446e	0.005409769
178	0xbc073a3f	-0.008253633
179	0xbbd89e5e	-0.0066106757
180	0x3bf814fb	0.0075708604
181	0xba2c1281	-0.00065640366
182	0x3b0510e2	0.0020304252
183	0xbbcb9b07	-0.006213549
184	0xbc0e0019	-0.0086670155
185	0xbbdcb50c	-0.0067354497
186	0x3bc4a793	0.0060014217
187	0x3bc852a9	0.0061133695
188	0xbbbb7e49	-0.0057218415
189	0xbc2ef4a6	-0.010678446
190	0xb9020059	-0.00012397896
191	0x3c224381	0.0099037895
192	0x3b29946e	0.0025875825
193	0x3b747e8d	0.0037306875
194	0x3c894c48	0.016760007
195	0x3ab876d0	0.0014073495
196	0x3b904874	0.0044031683
197	0xbc49e82d	-0.012323421
198	0x3c387d4a	0.01126034
199	0xb987d476	-0.00025907502
200	0xbb268693	-0.0025409802
201	0xbb8d0cda	-0.0043045105
202	0xbb503d45	-0.00317748
203	0x3bf1e9cd	0.0073826076
204	0x3c2a581e	0.010396985
205	0x3aaf0e2e	0.0013355666
206	0xbc1beef7	-0.009517423
207	0x3ad2a61a	0.0016071231
208	0xba0456ea	-0.00050483516
209	0xbc045597	-0.008077047
210	0xbc558b36	-0.013033679
211	0xbc387344	-0.01125795
212	0xbbc6ed88	-0.0060707964
213	0xbc018700	-0.007905722
214	0x3c54618d	0.012962711
215	0xbc29d034	-0.010364581
216	0xbb0c6b34	-0.0021426203
217	0x3c651808	0.01398278
218	0xbb5a24ab	-0.0033286016
219	0xba512ed5	-0.0007979696
220	0xbc62e8ee	-0.01384948
221	0x3bbb4768	0.0057152994
222	0x3c303d79	0.010756844
223	0x3af330dc	0.001855399
224	0xbc5ab924	-0.013349805
225	0xbc025e25	-0.007957016
226	0xbc02f7f8	-0.007993691
227	0x3c1b36ab	0.009473483
228	0xbbd95abd	-0.0066331313
229	0xbc1c21e5	-0.009529565
230	0x3bc2a181	0.005939663
231	0xbb760f1e	-0.0037545632
232	0xbc77d0d7	-0.015125475
233	0x3c123aac	0.008925121
234	0x3b338493	0.0027392253
235	0xbb73cc3d	-0.0037200593
236	0x3b4ec33b	0.0031549472
237	0x3c6a247f	0.014290928
238	0x3c06af6c	0.008220535
239	0x3b17db94	0.002317165
240	0x3c1a06cd	0.0094010355
241	0x3c16cec5	0.009204571
242	0xba6719e2	-0.00088158075
243	0xbac35e6e	-0.0014905462
244	0x3a910117	0.0011062947
245	0x3b6393eb	0.0034725617
246	0xbbb03181	-0.005376995
247	0xb811071b	-3.457731e-05
248	0xbc5d1054	-0.013492662
249	0xbc46a1a1	-0.012123496
250	0xba94c8ea	-0.0011351381
251	0xb89e9630	-7.562002e-05
252	0xbba2cce2	-0.0049682716
253	0xbc0e918b	-0.008701692
254	0xbbc72a51	-0.0060780426
255	0x3c41bdd5	0.011825045

bias f4 [24]
0	0x39166f46	0.00014346567
1	0x3bbd3b4d	0.0057748915
2	0x3c634009	0.013870248
3	0xbbba19cc	-0.0056793448
4	0xbb9b8687	-0.0047462615
5	0xbbf36b0c	-0.0074285325
6	0xbb378f3e	-0.0028008963
7	0x3b9a132a	0.0047019916
8	0x3f7e4bfc	0.9933469
9	0x3f7e5a73	0.99356765
10	0x3f7c87a4	0.9864447
11	0x3f7b8282	0.98246014
12	0x3f7de7e9	0.9918199
13	0x3f7aa4a4	0.9790747
14	0x3f7c9792	0.9866878
15	0x3f7b3e95	0.9814237
16	0x3e7acdea	0.24492612
17	0x3ef17c95	0.4716536
18	0x3fd5c604	1.6701055
19	0x40059de6	2.0877624
20	0x3f141813	0.57849234
21	0x3ff4c625	1.9122969
22	0x3fa60a75	1.2971941
23	0x3e024b79	0.12724103

weight f4 [64, 118]
0	0x3ca739c2	0.020413283
1	0xbe39a903	-0.18130879
2	0x3b795176	0.003804294
3	0xbe0efbfd	-0.13963313
4	0xbe3425e2	-0.17592576
5	0x3b8f5fa4	0.004375415
6	0x3e057e9c	0.13036579
7	0x3d108c4f	0.03529006
8	0xbdc14c4e	-0.09438382
9	0xbe3d3ce5	-0.1848026
10	0xbd1e5de6	-0.038663767
11	0x3e05c7b8	0.13064468
12	0x3c9deb51	0.019277247
13	0x3d44bf3d	0.04803394
14	0xbe35a684	-0.17739302
15	0xbe5da378	-0.2164439
16	0xbe1808c8	-0.148471
17	0x3da9b1fe	0.082859024
18	0xbce41601	-0.027842524
19	0xbcc3ec20	-0.023916304
20	0x3e146400	0.14491272
21	0x3da1ed20	0.07906556
22	0xbe1b5750	-0.15170026
23	0xbe26eb6c	-0.16300744
24	0xbe2cfc8d	-0.16893215
25	0x3dce07be	0.100600705
26	0x3db6ae8b	0.0892001
27	0xbe1d1b5d	-0.1534247
28	0xbce05117	-0.027382417
29	0x3d071b3a	0.03298495
30	0xbdae1c5a	-0.085015014
31	0x3d8b48de	0.06801008
32	0x3e1f20ab	0.15539806
33	0xbe116eb1	-0.14202382
34	0xbe25c503	-0.16188435
35	0x3e0318ef	0.1280248
36	0xbe1ad8e0	-0.15121794
37	0x3e38b22c	0.18036717
38	0x3d896c2f	0.067100875
39	0xbe35f1e9	-0.17768063
40	0xbdd76199	-0.10516662
41	0x3dded78e	0.108809575
42	0xbc859d67	-0.016310407
43	0x3c8987c8	0.016788378
44	0x3e082a76	0.13297448
45	0xbdabf235	-0.08395807
46	0xbd21ca88	-0.03949979
47	0x3e232f72	0.15936068
48	0x3dc903ec	0.09815201
49	0x3e428e56	0.1899961
50	0x3d800330	0.06250608
51	0x3e3a3c62	0.18187097
52	0xbcdfbf8e	-0.02731302
53	0x3d9fc4c8	0.07801205
54	0xbe15478d	-0.14578076
55	0xbd4a1691	-0.049337927
56	0xbd772d11	-0.060345713
57	0xbd603b93	-0.054744314
58	0x3dd1f9fd	0.102527596
59	0x3e054ca8	0.13017523
60	0x3e06ebdc	0.1317591
61	0x3cca2189	0.024674194
62	0xbd0e4dc6	-0.03474214
63	0x3d2696cb	0.04067115
64	0xbe383dad	-0.17992277
65	0xbe2604cc	-0.16212767
66	0xbcb21d27	-0.021742417
67	0xbc8af927	-0.016964508
68	0x3dbd48a7	0.09242373
69	0x3d77d6eb	0.060507696
70	0xbd98b270	-0.07455909
71	0x3da6c9d3	0.08143964
72	0xbcfbe477	-0.030748589
73	0xbdf4b958	-0.11949414
74	0x3d55bb38	0.0521805
75	0x3e0fefe8	0.1405636
76	0x3d46627e	0.048433773
77	0xbd9b122a	-0.07571824
78	0x3e055762	0.13021615
79	0xbde03285	-0.10947136
80	0x3cfbe698	0.030749604
81	0x3e243fd6	0.16039976
82	0xbab24292	-0.0013600162
83	0xbe3cb052	-0.18426636
84	0x3df5c3e2	0.12000252
85	0xbe070fd7	-0.13189636
86	0x3d885900	0.066576004
87	0xbc666616	-0.014062425
88	0x3e1be186	0.15222749
89	0x3d926ae8	0.07149297
90	0xbc797386	-0.015225297
91	0xbdfa62ea	-0.122258976
92	0x3d8de26b	0.069279514
93	0x3d7b41f6	0.061342202
94	0xbca737be	-0.020412322
95	0xbd28a3b1	-0.041171733
96	0xbccee9f4	-0.025258042
97	0xbde89623	-0.11356761
98	0x3d10948e	0.035297923
99	0x3e101a7c	0.14072603
100	0xbe16b262	-0.14716485
101	0xbe200c8e	-0.15629789
102	0x3df4eedd	0.11959622
103	0xbe20789c	-0.15671009
104	0xbdd1e348	-0.102484286
105	0xbdec6ada	-0.11543818
106	0xbe12b54e	-0.14326975
107	0xbddc857d	-0.10767648
108	0x3d7f34b6	0.06230613
109	0x3e06f857	0.13180672
110	0x3d26fd57	0.040768947
111	0x3e376068	0.1790787
112	0xbdeafd92	-0.11474146
113	0xbcb60c4f	-0.022222666
114	0x3e1e0a36	0.15433583
115	0x3d73c132	0.059510417
116	0xbdb74b64	-0.089499265
117	0xbe060f54	-0.13091785
118	0x3c1d14a6	0.0095874425
119	0x3dc4f664	0.09617308
120	0xbe2e8f8f	-0.17046951
121	0xbbb3caa6	-0.005486804
122	0x3dbb4c1f	0.09145378
123	0x3e09225b	0.13392012
124	0xbdb6e4c6	-0.08930354
125	0x3d9f1766	0.07768135
126	0x3de8df6b	0.113707386
127	0x3e6cbe76	0.2311953
128	0xbd173b09	-0.036921535
129	0xbd3ad499	-0.045612905
130	0x3bab814b	0.005233919
131	0xbe1e7b85	-0.15476806
132	0xbe0fbf2b	-0.14037769
133	0x3e509532	0.20369413
134	0x3e17b5f0	0.14815497
135	0xbddec6cb	-0.108777605
136	0x3cafdfa9	0.021468954
137	0x3e19347d	0.14961429
138	0x3e194efa	0.14971533
139	0xbda3d751	-0.08000053
140	0xbdf73cce	-0.120721444
141	0x3e28f29d	0.164988
142	0x3e1c6d02	0.15275958
143	0xbd918611	-0.07105649
144	0xbda25962	-0.07927205
145	0xbddf6b21	-0.10909105
146	0xbdc66b28	-0.09688407
147	0xbbc915a4	-0.006136613
148	0xbe361d5b	-0.17784636
149	0xbe38148c	-0.17976588
150	0xbdf33889	-0.118760176
151	0x3db583cc	0.08863029
152	0x3de05416	0.10953538
153	0x3e3af08b	0.18255822
154	0xbde9415d	-0.1138942
155	0x3ddc5574	0.107584864
156	0xbdb24eaa	-0.0870641
157	0x3ce79a0e	0.028271701
158	0xbd7117f6	-0.05886074
159	0x3de74300	0.11292076
160	0xbc797557	-0.01522573
161	0x3d3aa155	0.045564014
162	0xbe22e195	-0.15906365
163	0x3e3eacb4	0.18620569
164	0x3be3cb12	0.006951698
165	0xbe1b348b	-0.15156762
166	0x3e077a40	0.13230228
167	0x3e19f95d	0.15036531
168	0x3e25a20f	0.16175102
169	0xbdb0bc72	-0.08629693
170	0x3cb8b53e	0.02254736
171	0xbe26127b	-0.16217987
172	0xbd04252f	-0.032262024
173	0xbe33d9a8	-0.17563498
174	0x3e0f7c69	0.14012302
175	0x3e31a8f8	0.17349613
176	0x3d04762b	0.032339256
177	0x3c732df3	0.014842498
178	0x3e0c61d4	0.13709193
179	0xbcd33b4c	-0.02578511
180	0xbe00d045	-0.12579449
181	0xbd764c5e	-0.060131423
182	0xbe132404	-0.14369208
183	0x3e2bf365	0.16792066
184	0x3e388a1d	0.18021436
185	0xbe10a045	-0.14123638
186	0xbdef6080	-0.11688328
187	0x3df1ff45	0.11816267
188	0xbdfe6eec	-0.124235004
189	0xbca223ff	-0.019792555
190	0x3bdb326b	0.00668936
191	0x3dd8722e	0.10568653
192	0x3e528cb5	0.20561488
193	0xbdc764cf	-0.097360246
194	0xbd932067	-0.07183915
195	0x3e2b1ce6	0.16710243
196	0x3df35c97	0.118828945
197	0x3db48fd8	0.088164985
198	0x3d7bbdd6	0.06146034
199	0xbca7c0d8	-0.020477697
200	0x3c41be73	0.011825192
201	0xbd3ebb8e	-0.046565585
202	0xbddbe2cc	-0.107366174
203	0xbdb02d52	-0.08602394
204	0x3dcb0360	0.09912753
205	0xbe344871	-0.17605759
206	0xbda511de	-0.080600485
207	0x3e26d971	0.16293885
208	0xbdf27bac	-0.11839995
209	0xbd135bf1	-0.035976354
210	0xbd5f7064	-0.054550543
211	0x3e46b968	0.19406664
212	0xbda033b7	-0.07822364
213	0xbd62e98b	-0.055398505
214	0x3e01bec7	0.12670432
215	0xbe091440	-0.13386631
216	0x3de5fb39	0.112295575
217	0x3cea33da	0.028589178
218	0x3d0931b4	0.033494666
219	0xbd638e91	-0.055555884
220	0x3e14a958	0.14517725
221	0x3dc8e58d	0.09809408
222	0x3e0edead	0.13952132
223	0x3ddf8b47	0.10915237
224	0x3cfd97ea	0.030956227
225	0xbe1114d1	-0.14168097
226	0xbe1ca983	-0.15299039
227	0x3e29ff38	0.16601264
228	0xbe199d82	-0.1500149
229	0xbd47894e	-0.04871493
230	0x3da5bc48	0.080925524
231	0xbe2b77da	-0.16744938
232	0x3e2f253c	0.17104048
233	0x3c0eed46	0.008723563
234	0xbd164d1b	-0.036694627
235	0xbe17e892	-0.14834812
236	0xbde22553	-0.11042275
237	0xbaf575df	-0.0018727145
238	0x3cc44b8c	0.023961805
239	0x3e079b6c	0.13242882
240	0xbe24797f	-0.16061972
241	0xbdc0b69b	-0.09409829
242	0x3b1f80e7	0.0024338306
243	0xbdc90dce	-0.09817086
244	0xbc1c65eb	-0.0095457835
245	0xbe37f0a3	-0.1796289
246	0x3c9dc0ef	0.019257037
247	0xbe20130c	-0.15632266
248	0x3e26e351	0.16297652
249	0xbe0531eb	-0.13007323
250	0x3c55907b	0.013034935
251	0x3c9af98d	0.018917823
252	0xbdff422f	-0.124637954
253	0x3e0ccfaa	0.13751093
254	0x3def3402	0.116798416
255	0xbddd959d	-0.10819552

bias f4 [64]
0	0x3d413916	0.047173582
1	0x3cea1d45	0.02857841
2	0x3c929140	0.017891526
3	0x3cce1073	0.025154328
4	0xbd8b7b87	-0.0681067
5	0xbd4bb0a2	-0.049728997
6	0x3d46342c	0.0483896
7	0xbdbabd11	-0.09118093
8	0xbdb15dae	-0.08660446
9	0xbcc4ecf2	-0.024038766
10	0xbc9bd8ab	-0.019024214
11	0x3c5c64e2	0.013451787
12	0x3db7693b	0.08955618
13	0xbdd055f6	-0.10172646
14	0x3ca3267d	0.019915814
15	0x3c4b8ea9	0.01242415
16	0x3d2d484f	0.042305287
17	0x3d9c2d36	0.07625811
18	0xbc860794	-0.016361035
19	0xbdd0b377	-0.1019048
20	0x3d8a62aa	0.067571
21	0xbca54014	-0.020172156
22	0x3d40711a	0.046982862
23	0x3d9e858c	0.07740316
24	0x3d68a7c1	0.056800608
25	0xbdb9f8dc	-0.09080669
26	0xbcced928	-0.025250033
27	0x3cf6be6f	0.030120103
28	0x3d62bdf0	0.05535692
29	0x3b048464	0.0020220513
30	0xbdb7d5e9	-0.08976347
31	0xbc8c11f0	-0.017098397
32	0x3d641a60	0.055689216
33	0x3dab98db	0.08378764
34	0x3d8fb87d	0.0701761
35	0xbc37a3bc	-0.011208471
36	0xbd656768	-0.05600682
37	0xbcd298c1	-0.025707604
38	0xbdd36129	-0.10321266
39	0x3a324f21	0.0006801952
40	0x3ba6fb40	0.0050958693
41	0x3a21a7d8	0.0006166673
42	0xbdc31a45	-0.09526495
43	0xbd7926fe	-0.0608282
44	0x3da1fd12	0.079095975
45	0x3c023936	0.00794821
46	0xbd794111	-0.060853068
47	0xbcb995c2	-0.022654418
48	0xbd406c79	-0.046978448
49	0x3d0f3ef7	0.034972157
50	0x3d9c1090	0.076203465
51	0xbcedb843	-0.029018527
52	0xbd8075ab	-0.062724434
53	0xbdc0aed1	-0.094083436
54	0x3dd347f0	0.10316455
55	0xbdbeb89e	-0.09312557
56	0xbd8f74ee	-0.070047244
57	0xbdb40896	-0.087907
58	0xbd006302	-0.03134442
59	0x3d856cdf	0.06514906
60	0xbdb44833	-0.088028334
61	0x3d8bddd2	0.06829418
62	0xbda932b6	-0.082616255
63	0xbdba9218	-0.091098964

alpha f4 [1, 64]
0	0x3f84fbde	1.0389364
1	0x3f85f8df	1.0466574
2	0x3f853514	1.0406823
3	0x3f853a0a	1.0408337
4	0x3f817d13	1.0116295
5	0x3f83dcff	1.0301818
6	0x3f83b53c	1.0289683
7	0x3f8366e5	1.0265776
8	0x3f831254	1.0239968
9	0x3f82d93d	1.0222546
10	0x3f8221cd	1.0166565
11	0x3f82f3fa	1.0230706
12	0x3f815cd7	1.0106457
13	0x3f811760	1.0085258
14	0x3f85c426	1.0450485
15	0x3f844e63	1.0336422
16	0x3f84f33c	1.0386729
17	0x3f84782a	1.0349171
18	0x3f84918f	1.0356921
19	0x3f82c18f	1.0215319
20	0x3f845957	1.0339764
21	0x3f85dd00	1.0458069
22	0x3f858359	1.0430709
23	0x3f8508a2	1.039326
24	0x3f84e202	1.0381472
25	0x3f81b9bd	1.0134808
26	0x3f84f493	1.0387138
27	0x3f849078	1.0356588
28	0x3f81b0eb	1.0132116
29	0x3f85258c	1.0402083
30	0x3f8275c0	1.0192184
31	0x3f835e17	1.0263089
32	0x3f815278	1.0103292
33	0x3f81cb8a	1.014024
34	0x3f831faf	1.0244044
35	0x3f853d66	1.0409362
36	0x3f85dc48	1.045785
37	0x3f856292	1.0420706
38	0x3f82279b	1.0168337
39	0x3f81626e	1.0108163
40	0x3f8346ce	1.0255983
41	0x3f861992	1.0476553
42	0x3f8479d3	1.0349678
43	0x3f8253be	1.0181806
44	0x3f828da9	1.0199481
45	0x3f839c08	1.0281992
46	0x3f822b4d	1.0169464
47	0x3f848d7b	1.0355676
48	0x3f841279	1.0318137
49	0x3f8433e6	1.0328338
50	0x3f8596f3	1.0436691
51	0x3f85c57d	1.0450894
52	0x3f81e268	1.0147219
53	0x3f81472a	1.0099843
54	0x3f842181	1.0322725
55	0x3f814e01	1.010193
56	0x3f839b48	1.0281763
57	0x3f845a32	1.0340025
58	0x3f854ecc	1.0414672
59	0x3f839e42	1.0282671
60	0x3f835120	1.0259132
61	0x3f8316ad	1.0241295
62	0x3f814faf	1.0102443
63	0x3f82ba59	1.0213119

beta f4 [1, 64]
0	0x3d34a7dc	0.044105396
1	0x3d55d1f2	0.052202173
2	0x3d3c7ac1	0.046015505
3	0x3d3f19ee	0.046655588
4	0x3c9f1a6c	0.019421779
5	0x3d1493cc	0.036273763
6	0x3d0ff3ab	0.03514449
7	0x3d087577	0.03331515
8	0x3cfa8e4f	0.030585436
9	0x3ceb5655	0.02872769
10	0x3cc800ae	0.024414387
11	0x3cfa6bea	0.030569036
12	0x3c9a4000	0.018829346
13	0x3c82b7c7	0.015956772
14	0x3d4e3e42	0.050352342
15	0x3d20be00	0.039243698
16	0x3d38b5cb	0.045095246
17	0x3d27766e	0.040884428
18	0x3d275887	0.04085591
19	0x3cec9df6	0.028883915
20	0x3d20ddfa	0.039274193
21	0x3d53ce0f	0.051710185
22	0x3d485029	0.04890457
23	0x3d3b0ce9	0.04566661
24	0x3d35782c	0.044304058
25	0x3cb010f7	0.021492464
26	0x3d339a4b	0.043848317
27	0x3d2c4dd6	0.042066418
28	0x3cacb434	0.021082021
29	0x3d3e2fad	0.046432186
30	0x3cdbf889	0.02685191
31	0x3d06b254	0.03288491
32	0x3c94e962	0.018177692
33	0x3cad1209	0.021126764
34	0x3cfe6cdb	0.031057766
35	0x3d3f6aa6	0.046732567
36	0x3d4d4edd	0.050124038
37	0x3d41edd9	0.04734597
38	0x3ccae07e	0.02476525
39	0x3c9a6107	0.018845094
40	0x3d034460	0.03204763
41	0x3d58ddb9	0.052945826
42	0x3d25956d	0.040425707
43	0x3ccd5907	0.025066866
44	0x3ce3dfa1	0.027816596
45	0x3d0fe428	0.035129696
46	0x3ccc5b45	0.024945864
47	0x3d28e6a2	0.041235574
48	0x3d1d6637	0.038427558
49	0x3d1f5d0d	0.0389071
50	0x3d49af84	0.04923965
51	0x3d505fa5	0.050872464
52	0x3cb95fe9	0.022628741
53	0x3c961c71	0.018324109
54	0x3d205e17	0.03915223
55	0x3c92459a	0.017855454
56	0x3d0fffb8	0.03515598
57	0x3d22dbbe	0.039760344
58	0x3d3fe979	0.046853516
59	0x3d0e92c6	0.034807943
60	0x3d05f0ef	0.032700475
61	0x3cfb67b9	0.030689107
62	0x3c9744e9	0.018465476
63	0x3ceb7e69	0.0287468

weight f4 [108, 64]
0	0xbcdc02f8	-0.026856884
1	0x3cebad7b	0.028769245
2	0xbcb484e8	-0.02203603
3	0x3cbd7bce	0.023130324
4	0x3c07ade0	0.008281201
5	0xbc972e94	-0.018454827
6	0xbca7d197	-0.020485682
7	0xbc7a1ce7	-0.01526568
8	0xbc5660b8	-0.013084583
9	0xbc1657ed	-0.009176237
10	0xbc2443e8	-0.010025956
11	0xbc60df9d	-0.013725189
12	0x3be08935	0.006852294
13	0xba5aa63e	-0.0008340812
14	0x3ccb93b7	0.02485071
15	0xbc972ecb	-0.01845493
16	0x3cb3bc33	0.021940326
17	0x3ca83c07	0.020536436
18	0xbcad8624	-0.021182127
19	0xbc4cb826	-0.012495076
20	0xbc9f6375	-0.019456604
21	0x3ceb2ae3	0.028706973
22	0x3cd0a589	0.025469558
23	0x3ca88693	0.020571982
24	0x3cb5b52f	0.022181122
25	0xbbd6f790	-0.0065602735
26	0xbca8aa05	-0.020588884
27	0x3c958d8c	0.018255971
28	0x3be89aca	0.0070985304
29	0x3cd8a98e	0.026448037
30	0xbc310e5a	-0.010806644
31	0xbc6528cf	-0.01398678
32	0x3b5e2fe8	0.0033903066
33	0x3ab62a71	0.0013898147
34	0xbc8a7341	-0.01690066
35	0x3cd7352d	0.026270473
36	0xbced1fe6	-0.028945874
37	0xbcb838b2	-0.022487972
38	0xbc31937c	-0.010838386
39	0x3b6cac9d	0.0036113628
40	0xbc6e8808	-0.0145588
41	0x3cfedb3e	0.031110402
42	0xbc9ba583	-0.01899982
43	0xbb86f258	-0.004118245
44	0x3c475ac0	0.012167633
45	0x3c8386a4	0.016055413
46	0xbc3020ce	-0.010750009
47	0xbcb5576d	-0.022136414
48	0xbca01719	-0.019542264
49	0x3c9bc2c4	0.01901377
50	0x3cab7ffc	0.020935051
51	0x3ce051af	0.0273827
52	0xbbcce61c	-0.006253017
53	0xbba3215d	-0.0049783424
54	0x3c89f36d	0.016839707
55	0xba64fa12	-0.0008734773
56	0xbc8fc682	-0.01755071
57	0xbc9a85bb	-0.018862596
58	0xbcc7bf24	-0.024383135
59	0x3c80a18c	0.015702032
60	0xbc72c4a8	-0.014817394
61	0x3b4baebc	0.0031079492
62	0xbb925166	-0.00446527
63	0xbc1ee1c6	-0.009697383
64	0xbd26e7ed	-0.040748525
65	0x3d47fb92	0.0488239
66	0xbd2a8460	-0.04163015
67	0x3d351665	0.04421081
68	0x3aad1b02	0.0013206901
69	0xbd0530c2	-0.032517202
70	0xbd021e1c	-0.031766996
71	0xbcefab44	-0.02925647
72	0xbce0fda9	-0.027464705
73	0xbce3193e	-0.027721997
74	0xbcc4b2c3	-0.024011021
75	0xbd00500a	-0.03132633
76	0x3c812416	0.015764277
77	0xbc3287fb	-0.010896678
78	0x3d375482	0.044758327
79	0xbd11a41f	-0.03555691
80	0x3d33aa58	0.043863624
81	0x3d15dc08	0.03658679
82	0xbd278295	-0.040896017
83	0xbced6692	-0.028979573
84	0xbd13622a	-0.03598229
85	0x3d40e6ee	0.04709523
86	0x3d323f6c	0.043517515
87	0x3d2f2834	0.04276295
88	0x3d23b719	0.039969537
89	0xbc9d4710	-0.019198924
90	0xbd24a4ef	-0.040196355
91	0x3d28d6bd	0.041220415
92	0x3c9ad6c0	0.018901229
93	0x3d3872b8	0.04503128
94	0xbcae129e	-0.021249112
95	0xbd0b21ac	-0.03396766
96	0x3c67ea59	0.014154994
97	0x3c57d72d	0.0131738605
98	0xbce234a7	-0.027612997
99	0x3d37ccf6	0.0448732
100	0xbd48832e	-0.048953228
101	0xbd31d24f	-0.043413457
102	0xbccb0075	-0.024780491
103	0x3c6b6f27	0.0143697625
104	0xbcf6e842	-0.030140046
105	0x3d42e0f2	0.047577806
106	0xbd271904	-0.04079534
107	0xbc8c4b3c	-0.017125718
108	0x3ce858bf	0.02836263
109	0x3d1355d9	0.035970543
110	0xbcc15261	-0.023598852
111	0xbd248c79	-0.040173028
112	0xbd22e6b9	-0.039770816
113	0x3d19fd0e	0.037594847
114	0x3d343995	0.044000227
115	0x3d3c4a22	0.045969136
116	0xbc995406	-0.018716823
117	0xbc6fdfe3	-0.014640781
118	0x3d11e12f	0.035615142
119	0xbc3d58aa	-0.011556784
120	0xbcf6671a	-0.03007846
121	0xbd2193dc	-0.03944765
122	0xbd336619	-0.04379854
123	0x3cefba59	0.029263662
124	0xbd0779c6	-0.033075117
125	0x3c887c62	0.016660873
126	0xbc6e1c8a	-0.014533171
127	0xbcde7898	-0.027157113
128	0x3cca327d	0.024682278
129	0xbcc62c7f	-0.02419114
130	0x3cc045ca	0.023470778
131	0xbc2f4d3c	-0.010699566
132	0xbb50418c	-0.003177735
133	0x3c4dce96	0.012561461
134	0x3c115f63	0.00887284
135	0x3b5c9c82	0.0033662622
136	0xbb09313c	-0.0020933887
137	0x3bd22d6c	0.006414106
138	0x3b711e26	0.0036791652
139	0x3ac7c0d7	0.0015239966
140	0x3a7141c3	0.00092032197
141	0xba824369	-0.0009938303
142	0xbc74e1ac	-0.0149463825
143	0x3c5beb32	0.013422774
144	0xbca6c891	-0.02035931
145	0xbcaae5b4	-0.020861484
146	0x3c9bacb1	0.019003244
147	0x3ac4f6a4	0.0015027118
148	0x3cdc2998	0.026875302
149	0xbc6005df	-0.013673275
150	0xbcb47076	-0.022026282
151	0xbc0c420d	-0.00856067
152	0xbb836857	-0.004010241
153	0xbac49520	-0.0014998056
154	0x3c94f345	0.018182406
155	0xbc0ef4f3	-0.008725393
156	0x3abcf0cd	0.0014415026
157	0xbca5f84d	-0.02026
158	0x3bc15bed	0.005900851
159	0x3ad5e666	0.0016319274
160	0x3b211a33	0.0024582266
161	0xbbf062c7	-0.007335994
162	0x3c36515c	0.011127796
163	0xbc944567	-0.0180995
164	0x3c87ce57	0.016577883
165	0x3c3bb2dc	0.011456218
166	0x3ade4959	0.0016959115
167	0x392f5707	0.00016721721
168	0x3c7149dd	0.014727083
169	0xbc414ee3	-0.011798593
170	0x3c4ec764	0.012620781
171	0x3c306d0c	0.010768186
172	0xbb44f453	-0.0030052855
173	0xbb3a05a4	-0.002838471
174	0xbac2295e	-0.0014813354
175	0x3cc02d3f	0.023459075
176	0x3bc9465e	0.0061424216
177	0x3aa67f4d	0.0012702734
178	0xbc3df6b6	-0.011594465
179	0xbcbf4ba9	-0.023351507
180	0x3b49bebe	0.0030783857
181	0x3ac9396a	0.0015352194
182	0xbc07b22d	-0.0082822265
183	0xba6f8857	-0.00091374427
184	0x3c960f83	0.018317943
185	0x3b3a224b	0.0028401788
186	0x3c2b031b	0.010437752
187	0xbc04d521	-0.0081074545
188	0x3b607169	0.0034247285
189	0xbc6fddcc	-0.014640283
190	0x383c9fc4	4.4971486e-05
191	0x3bdb3be7	0.0066904905
192	0xbd1b0e0f	-0.037855204
193	0x3d3a15a1	0.045430783
194	0xbd21e33d	-0.039523352
195	0x3d2ba613	0.041906428
196	0xbb8e7175	-0.004347021
197	0xbcfb91bd	-0.030709142
198	0xbcf3c2fd	-0.029756064
199	0xbcdafc17	-0.026731534
200	0xbce8788f	-0.0283778
201	0xbcc6f3ed	-0.024286235
202	0xbccea5db	-0.02522557
203	0xbd042728	-0.032263905
204	0x3c8a8dff	0.016913412
205	0xbc3d7ec8	-0.011565872
206	0x3d2daad9	0.04239926
207	0xbd0602ab	-0.032717388
208	0x3d220e65	0.03956451
209	0x3d0705cf	0.032964524
210	0xbd1345d4	-0.035955265
211	0xbcf9c95f	-0.030491529
212	0xbcf892b7	-0.030343397
213	0x3d320e97	0.043470945
214	0x3d25eed7	0.04051098
215	0x3d260af6	0.040537797
216	0x3d1be685	0.038061637
217	0xbcafbc3f	-0.021452067
218	0xbd17eb91	-0.037089888
219	0x3d259704	0.040427223
220	0x3cb3b6bf	0.021937726
221	0x3d246443	0.04013468
222	0xbca7858e	-0.020449426
223	0xbd0dfbf6	-0.034664117
224	0x3c88a03c	0.016677968
225	0x3c431f99	0.011909389
226	0xbca982b7	-0.020692213
227	0x3d2ce866	0.04221382
228	0xbd39e947	-0.045388486
229	0xbd2510e3	-0.040299308
230	0xbcd88f8d	-0.026435638
231	0x3c879828	0.016552046
232	0xbce0c694	-0.02743844
233	0x3d352b65	0.044230837
234	0xbd1e715d	-0.03868233
235	0xbc84426e	-0.016144957
236	0x3ce9df05	0.028548727
237	0x3d140966	0.036141776
238	0xbcce066b	-0.025149545
239	0xbd0ed9a1	-0.034875516
240	0xbd1ceb20	-0.03831017
241	0x3d186f0f	0.03721529
242	0x3d2d6c5b	0.042339664
243	0x3d2d3884	0.042290226
244	0xbca45128	-0.02005823
245	0xbc9d899a	-0.019230653
246	0x3d0fceb1	0.035109226
247	0xbc529612	-0.012853162
248	0xbcde672a	-0.027148802
249	0xbd1bb47a	-0.038013913
250	0xbd29b42a	-0.041431583
251	0x3ce25a29	0.027630882
252	0xbd06d3fb	-0.032917004
253	0x3c8bdd3f	0.017073272
254	0xbc8ce4a0	-0.01719886
255	0xbcde4268	-0.027131274

bias f4 [108]
0	0x3bc26f84	0.005933704
1	0x3c6b7aa8	0.014372505
2	0xbb653224	-0.0034972513
3	0x3c82aadd	0.015950615
4	0xbc962ae2	-0.018330995
5	0x3c695263	0.014240834
6	0x3bb13542	0.00540796
7	0xbc669ffc	-0.014076229
8	0xbb1ebb12	-0.002422039
9	0xbc357367	-0.011074877
10	0xbab3a07a	-0.0013704442
11	0x3c534d47	0.012896842
12	0x3c629346	0.013829058
13	0x3bba7a8d	0.0056908787
14	0x3aa50629	0.0012590337
15	0xbb2bdd36	-0.0026224381
16	0x3bd25783	0.0064191236
17	0x3c5f141f	0.013615637
18	0x3c673460	0.014111608
19	0x3c21cd91	0.009875671
20	0x3c93a084	0.018020876
21	0x3c8b9e00	0.017043114
22	0x3c261df6	0.010138979
23	0x3c49b11a	0.012310291
24	0x3c44dfa9	0.012016215
25	0x3a3cd2be	0.0007203034
26	0xbb3578b0	-0.0027690344
27	0x3ab30ee6	0.0013661056
28	0x3c1504b2	0.009095358
29	0x3bb96232	0.0056574577
30	0x3ca211fb	0.019783964
31	0x3bdc110f	0.0067159007
32	0x3c630799	0.013856792
33	0xbb956c05	-0.004559996
34	0x3bc2ed8e	0.005948729
35	0x3c2a157e	0.010381101
36	0xbb394a8c	-0.0028273193
37	0x3c897b8f	0.01678255
38	0xbc641d5e	-0.013923017
39	0xbc81b4ce	-0.015833285
40	0x3bd4b3f5	0.006491179
41	0x3c32fa29	0.010923901
42	0x3c1bfa95	0.009520193
43	0x3c803a11	0.015652688
44	0x3bdc20dd	0.006717785
45	0x3c061d18	0.008185647
46	0x3b7402e0	0.003723316
47	0x3c51dcc5	0.012808983
48	0x3c906d4e	0.017630246
49	0xba65857a	-0.00087555463
50	0x3c2e4df7	0.010638705
51	0xbb4f99f2	-0.0031677452
52	0x3c822a2a	0.015889246
53	0xbaba78c0	-0.001422666
54	0x3cac5c1a	0.021040011
55	0x3ca7b7be	0.020473357
56	0x3b93b3c6	0.0045075146
57	0x3ca8a4d1	0.020586403
58	0x3ca4380f	0.020046262
59	0x3c57ff85	0.013183479
60	0xbc122222	-0.008919271
61	0x3c78e107	0.015190369
62	0xbc01c6e2	-0.0079209525
63	0x3b4edfae	0.003156643
64	0x3c4f9453	0.012669641
65	0x3c4b3ffd	0.012405393
66	0x3b4a2842	0.003084675
67	0xbc2fa656	-0.01072081
68	0xbc901817	-0.017589612
69	0x3c95c4ba	0.018282283
70	0xbc0e2df1	-0.0086779455
71	0x3c2379c2	0.00997776
72	0x3c95dfb4	0.018295147
73	0x3c473801	0.012159348
74	0x3c8a5f6e	0.016891208
75	0xbc106e93	-0.008815425
76	0x39e101bc	0.00042916636
77	0xbab9a195	-0.0014162535
78	0x3bf298b3	0.007403457
79	0x3c66899e	0.014070896
80	0x3b84d621	0.0040538465
81	0x3bdeeab4	0.006802881
82	0x3c9dc2de	0.019257959
83	0x3c2e0af0	0.010622725
84	0x3c17ab90	0.009257212
85	0x3c352061	0.011055083
86	0x3c49b18e	0.012310399
87	0xbbc4fbb9	-0.006011453
88	0xbc25c5c9	-0.010117956
89	0x3c88fff9	0.01672362
90	0x3c835e3a	0.016036142
91	0x3b8d230c	0.0043071564
92	0x3caccbb9	0.021093236
93	0xbc753bbe	-0.014967857
94	0x3b42d7df	0.002973072
95	0x3c631ad5	0.013861378
96	0x3c8497db	0.016185692
97	0x3c2fa0e3	0.010719511
98	0xbbbee09c	-0.0058251154
99	0x3b937072	0.0044994885
100	0xbca1803a	-0.019714464
101	0xb98ee140	-0.00027252175
102	0x3bf17307	0.0073684487
103	0x3c5624af	0.0130702695
104	0x3bc0daec	0.0058854725
105	0x3c53831c	0.012909677
106	0x3c7b5ed3	0.015342432
107	0xbb09c454	-0.0021021562
