reann2.0_20250825/inference/tmp/REANN_PES_DOUBLE.pt (torch, 824975 bytes, 92 tensors)

contracted_coeff f8 [3, 3, 8, 108]
0	0x3fbfdede20000000	0.12449444085359573
1	0x3fd7a7fc80000000	0.36962807178497314
2	0xbfdeffe4c0000000	-0.4843685030937195
3	0x3fc7dff620000000	0.18652226030826569
4	0xbfd3dd51a0000000	-0.31038323044776917
5	0x3fa63bb300000000	0.04342421889305115
6	0xbfe992a280000000	-0.799149751663208
7	0xbfb0580120000000	-0.06384284049272537
8	0xbfdc1f68c0000000	-0.4394170641899109
9	0x3fe17ce060000000	0.5464937090873718
10	0x3fad1722c0000000	0.05681713670492172
11	0x3fcb3b9020000000	0.2127552181482315
12	0x3fc6a6eae0000000	0.17696891725063324
13	0x3fbe3107c0000000	0.11793564260005951
14	0xbf9d62dbc0000000	-0.028697427362203598
15	0x3fae678c20000000	0.059383753687143326
16	0xbfe6b66760000000	-0.7097660899162292
17	0xbfe53a6560000000	-0.6633784174919128
18	0x3fc97d1e80000000	0.1991308331489563
19	0xbfc4b03440000000	-0.16162732243537903
20	0x3fe36814e0000000	0.6064552664756775
21	0x3fcc8e38e0000000	0.2230902761220932
22	0x3fc8d09100000000	0.19386494159698486
23	0x3fb554a400000000	0.08332276344299316
24	0xbfd4706100000000	-0.31935906410217285
25	0x3fcd2a6c60000000	0.22785715758800507
26	0xbfb16946c0000000	-0.06801263988018036
27	0xbfa8049300000000	-0.04690989851951599
28	0xbfd429ee80000000	-0.3150593042373657
29	0x3ff6afefc0000000	1.4179532527923584
30	0xbfa13eae00000000	-0.03368133306503296
31	0xbf638f2520000000	-0.002387592801824212
32	0x3fd2ea9760000000	0.2955683171749115
33	0x3fddb5cfa0000000	0.46422186493873596
34	0x3f8b188400000000	0.013230353593826294
35	0xbfc7978720000000	-0.18431176245212555
36	0xbfab8fa280000000	-0.05383022129535675
37	0x3fe9e7ad60000000	0.8095309138298035
38	0xbf6bbd1fe0000000	-0.0033860800322145224
39	0x3fe34181c0000000	0.6017464399337769
40	0x3fea211f60000000	0.8165432810783386
41	0xbfe38178e0000000	-0.6095547080039978
42	0x3fcd2e5740000000	0.2279767096042633
43	0x3fd1f19ae0000000	0.28037139773368835
44	0x3fe9da7e40000000	0.8079215288162231
45	0xbfe69ce480000000	-0.7066519260406494
46	0xbfd6615280000000	-0.3496900796890259
47	0x3fdb19de60000000	0.4234538972377777
48	0x3feae88440000000	0.8408833742141724
49	0x3fd5544660000000	0.3332687318325043
50	0xbfea0fb760000000	-0.8144184947013855
51	0x3fe86c4720000000	0.7632175087928772
52	0x3fde79d8c0000000	0.47618693113327026
53	0xbfcc516d00000000	-0.22123491764068604
54	0xbfea57fbc0000000	-0.8232401609420776
55	0xbfc178b320000000	-0.13649596273899078
56	0x3fc7143f00000000	0.1803053617477417
57	0xbfd9f17180000000	-0.405361533164978
58	0xbfc29b7d40000000	-0.14537015557289124
59	0x3fbfbdd640000000	0.12399043142795563
60	0x3fc282fb00000000	0.14462220668792725
61	0x3fc2206a20000000	0.14161421358585358
62	0xbfebdf1a00000000	-0.8709840774536133
63	0x3fe5842640000000	0.6723815202713013
64	0xbfdc297840000000	-0.44003111124038696
65	0x3f9e882720000000	0.02981625683605671
66	0xbfe3c24700000000	-0.6174654960632324
67	0x3fc0799580000000	0.12871044874191284
68	0xbfa09096e0000000	-0.032353129237890244
69	0xbf716f5760000000	-0.004256573971360922
70	0x3fbbd54640000000	0.10872305929660797
71	0x3fda58ed80000000	0.4116777181625366
72	0xbfd20de2c0000000	-0.2820975184440613
73	0xbfd25bff60000000	-0.28686508536338806
74	0xbfd73e0700000000	-0.3631608486175537
75	0xbfd7c34d20000000	-0.3712952435016632
76	0xbfe0465020000000	-0.508583128452301
77	0x3fe056ea40000000	0.5106097459793091
78	0xbfc5115740000000	-0.1645916998386383
79	0xbfbcaa6dc0000000	-0.1119755357503891
80	0x3fdc23c8a0000000	0.43968406319618225
81	0x3fbc7d7660000000	0.11128940433263779
82	0xbfe180c560000000	-0.5469691157341003
83	0x3fc5db0b00000000	0.17074716091156006
84	0x3fcc691980000000	0.22195738554000854
85	0xbfe2e92080000000	-0.5909578800201416
86	0xbfea4f31a0000000	-0.8221672177314758
87	0x3fe5ee9300000000	0.6853728294372559
88	0x3fbb5b27a0000000	0.10685966163873672
89	0xbfd22b2ec0000000	-0.283885657787323
90	0xbfbc300ba0000000	-0.11010811477899551
91	0xbff1ca80a0000000	-1.1119390726089478
92	0xbfa3ddda60000000	-0.03880197927355766
93	0xbfdf56cf00000000	-0.489673376083374
94	0x3fb99b6fc0000000	0.10002802312374115
95	0xbfe8300e60000000	-0.7558662295341492
96	0x3fe8c3e380000000	0.7739121913909912
97	0xbfc2d78c80000000	-0.14720302820205688
98	0x3fd3f0cd60000000	0.311572402715683
99	0x3fc73b4800000000	0.18149662017822266
100	0xbfa040c960000000	-0.03174428269267082
101	0xbf9f728340000000	-0.030710268765687943
102	0x3fc477daa0000000	0.15990765392780304
103	0xbfbbb9a360000000	-0.10830136388540268
104	0x3fdcc880e0000000	0.4497377574443817
105	0x3f6b013780000000	0.0032964786514639854
106	0xbf8a139d00000000	-0.012732721865177155
107	0x3fd8247fc0000000	0.3772277235984802
108	0x3fe1c4a460000000	0.5552541613578796
109	0x3fe558fbe0000000	0.6671122908592224
110	0xbff0bc7aa0000000	-1.0460153818130493
111	0xbfd31be5c0000000	-0.2985777258872986
112	0xbfe3e74540000000	-0.6219812631607056
113	0xbfb4cd2da0000000	-0.08125577121973038
114	0xbff8192e00000000	-1.5061473846435547
115	0x3fe339b1a0000000	0.6007927060127258
116	0xbfc8a08e40000000	-0.1923997700214386
117	0x3fcb69e9c0000000	0.2141697108745575
118	0x3fa9735280000000	0.049707964062690735
119	0x3fd18707a0000000	0.27386656403541565
120	0xbfbc5793a0000000	-0.11071131378412247
121	0x3fe4d1af60000000	0.6505963206291199
122	0x3fe6eedf60000000	0.7166592478752136
123	0x3fd4f9f3c0000000	0.327755868434906
124	0x3fe482ccc0000000	0.6409667730331421
125	0x3fdd828a60000000	0.4610925614833832
126	0x3fa5414b20000000	0.041513774544000626
127	0x3fa28d3f40000000	0.03623387962579727
128	0xbfb5ee74a0000000	-0.08566979318857193
129	0xbff5285440000000	-1.3223459720611572
130	0x3fae27bf20000000	0.0588969923555851
131	0x3fa4d247e0000000	0.040666814893484116
132	0xbfd4e35200000000	-0.32637453079223633
133	0xbfe2293ae0000000	-0.5675329566001892
134	0x3fd2f0f080000000	0.2959557771682739
135	0xbfe05a5540000000	-0.5110269784927368
136	0xbfc5dd9260000000	-0.170824334025383
137	0x3fb91f3ee0000000	0.09813302010297775
138	0xbfe2d32760000000	-0.5882756114006042
139	0x3fe9487ec0000000	0.7900995016098022
140	0xbfeea47920000000	-0.9575772881507874
141	0xbfe3c913e0000000	-0.6182956099510193
142	0xbfee20bf00000000	-0.9414973258972168
143	0xbfdb7fffc0000000	-0.4296874403953552
144	0xbfce0db3c0000000	-0.23479315638542175
145	0xbfdc750740000000	-0.4446428418159485
146	0xbfee1c3400000000	-0.9409427642822266
147	0xbfcca652a0000000	-0.22382576763629913
148	0xbfe1dddec0000000	-0.5583337545394897
149	0x3fb20f7340000000	0.07054825127124786
150	0xbfe4cd8200000000	-0.6500864028930664
151	0xbfd5783980000000	-0.33546292781829834
152	0x3fd5c167a0000000	0.3399294912815094
153	0xbfdc5d95c0000000	-0.44321197271347046
154	0x3fb3d4f340000000	0.07746811211109161
155	0x3fbda33bc0000000	0.11577199399471283
156	0x3fe45ac2a0000000	0.6360791325569153
157	0x3fd2100e80000000	0.282230019569397
158	0x3fdf567ba0000000	0.48965349793434143
159	0x3fcfbe4a80000000	0.24799472093582153
160	0xbfca6ec340000000	-0.2065052092075348
161	0x3fa7383640000000	0.04535073786973953
162	0x3fdd4bc4a0000000	0.45774951577186584
163	0xbfaab8bba0000000	-0.05219065025448799
164	0x3fe02f4800000000	0.5057716369628906
165	0x3fd9d5a7e0000000	0.4036655128002167
166	0x3fe36eeae0000000	0.607289731502533
167	0xbfa61803c0000000	-0.043151967227458954
168	0xbfdc9ae100000000	-0.44695305824279785
169	0x3fec097820000000	0.8761559128761292
170	0xbfde6c8040000000	-0.4753723740577698
171	0xbfeaf88da0000000	-0.8428409695625305
172	0x3fc3d01620000000	0.1547877937555313
173	0xbfc64cd220000000	-0.17421938478946686
174	0xbf9fd56500000000	-0.031087473034858704
175	0x3fe336d4a0000000	0.6004431843757629
176	0xbfa05c2ba0000000	-0.03195320442318916
177	0xbfd6e7a820000000	-0.35788920521736145
178	0x3fe21dffc0000000	0.5661619901657104
179	0x3fed5dfb00000000	0.917722225189209
180	0xbfb2d1a200000000	-0.07351124286651611
181	0xbfd279aa20000000	-0.28867581486701965
182	0x3fd5881d80000000	0.3364328145980835
183	0xbfcf39c660000000	-0.24395065009593964
184	0xbff0a028a0000000	-1.039101243019104
185	0x3fdd975ca0000000	0.4623633921146393
186	0xbfde47cf20000000	-0.4731328785419464
187	0x3ff0b527a0000000	1.0442272424697876
188	0x3fe19f0b60000000	0.5506646037101746
189	0x3fc9834940000000	0.1993190348148346
190	0x3f9dc8de40000000	0.029086563736200333
191	0x3fe24dd9e0000000	0.5720033049583435
192	0xbfd6462fa0000000	-0.3480338156223297
193	0x3fdd755b40000000	0.460287868976593
194	0x3ff06be960000000	1.0263456106185913
195	0xbfd5f23740000000	-0.34290868043899536
196	0xbfc521ec20000000	-0.16509772837162018
197	0xbfd4631200000000	-0.31854677200317383
198	0xbfe1240160000000	-0.5356451869010925
199	0x3fea9199e0000000	0.8302735686302185
200	0xbfd7c6ad40000000	-0.37150126695632935
201	0x3f78d57f40000000	0.0060629816725850105
202	0x3fd50f8d20000000	0.3290741741657257
203	0xbff18cfa60000000	-1.0969184637069702
204	0x3ff3c537e0000000	1.2356489896774292
205	0x3fe69f20c0000000	0.7069247961044312
206	0x3feb195840000000	0.8468438386917114
207	0x3f956365e0000000	0.020886985585093498
208	0xbfda79b100000000	-0.413677453994751
209	0xbfebcf0f40000000	-0.8690258264541626
210	0xbfe4bb7100000000	-0.647881031036377
211	0x3fe1c9df00000000	0.5558924674987793
212	0xbfe347e6a0000000	-0.6025269627571106
213	0x3f59aa0a20000000	0.0015664194943383336
214	0xbfd2900180000000	-0.29003942012786865
215	0xbfc0339260000000	-0.126573845744133
216	0xbfd560f880000000	-0.33404362201690674
217	0x3fe2d43400000000	0.5884037017822266
218	0xbfcd6a9d60000000	-0.22981612384319305
219	0x3fe1695540000000	0.5441080331802368
220	0xbfb4bb7c60000000	-0.08098580688238144
221	0xbfc111fba0000000	-0.13336129486560822
222	0xbf7c06dd40000000	-0.006842483766376972
223	0xbfdd4982e0000000	-0.4576117694377899
224	0xbfc7b0ebe0000000	-0.1850867122411728
225	0x3fdd6f2c80000000	0.45991051197052
226	0xbfe57ad9a0000000	-0.671246349811554
227	0x3fabf05080000000	0.05456782877445221
228	0xbfb76feac0000000	-0.09155146777629852
229	0x3fa05b1f00000000	0.03194519877433777
230	0xbfda7c8860000000	-0.413850873708725
231	0xbfc0b3fa40000000	-0.13049247860908508
232	0x3fcc6eb600000000	0.22212862968444824
233	0x3fdcf6e400000000	0.45256900787353516
234	0xbfe0566d60000000	-0.5105502009391785
235	0x3fbe3c1c00000000	0.11810469627380371
236	0xbfa73f1140000000	-0.04540304094552994
237	0x3fd861ca20000000	0.3809686005115509
238	0x3fc5434b00000000	0.1661161184310913
239	0x3fe265c720000000	0.5749240517616272
240	0xbfe08cc240000000	-0.517182469367981
241	0xbfce47bbc0000000	-0.23656412959098816
242	0xbfc0aa9b20000000	-0.13020648062229156
243	0x3f6b96a460000000	0.0033677301835268736
244	0x3fa4498700000000	0.03962346911430359
245	0xbfe6c524c0000000	-0.711565375328064
246	0x3fdfdd13e0000000	0.49786850810050964
247	0xbfab8cdd60000000	-0.053809087723493576
248	0x3fd81b0440000000	0.3766489624977112
249	0x3fd2503e80000000	0.28614771366119385
250	0x3fab85b5a0000000	0.053754497319459915
251	0x3fb8f0b760000000	0.09742303937673569
252	0xbfb49f1f00000000	-0.08055299520492554
253	0xbfe28f4840000000	-0.5799905061721802
254	0x3fce649d40000000	0.23744550347328186
255	0x3fcff77020000000	0.24973870813846588

cutoff f8 [1]
0	0x4014000000000000	5.0

initpot f8 [1]
0	0xc0183bcb80000000	-6.058393478393555

initpot f8 [1]
0	0x0000000000000000	0.0

weight f8 [64, 118]
0	0x3f70842e20000000	0.0040323068387806416
1	0xbf6c89e600000000	-0.0034837238490581512
2	0xbfb3d5eba0000000	-0.0774829164147377
3	0xbfe2615500000000	-0.5743813514709473
4	0xbfaea44780000000	-0.05984710156917572
5	0x3fd0ea24e0000000	0.26429101824760437
6	0x3fccced840000000	0.22506240010261536
7	0x3f9266d8c0000000	0.017970453947782516
8	0x3fc57cdac0000000	0.16787275671958923
9	0xbfc477ff00000000	-0.15991199016571045
10	0xbfd356fde0000000	-0.3021845519542694
11	0xbfcea85b40000000	-0.2395128309726715
12	0xbfdbdba360000000	-0.4352806508541107
13	0xbfc4433560000000	-0.15830104053020477
14	0xbfb82c9be0000000	-0.09443067759275436
15	0xbf72848ce0000000	-0.004520941060036421
16	0xbfc08aa520000000	-0.12923111021518707
17	0xbfc3d0a700000000	-0.15480506420135498
18	0xbfda6f4440000000	-0.4130411744117737
19	0xbfd7167480000000	-0.36074554920196533
20	0xbff1d15680000000	-1.1136078834533691
21	0x3fb098d920000000	0.06483227759599686
22	0xbfd5182a20000000	-0.32959988713264465
23	0xbfbb3ea840000000	-0.10642482340335846
24	0x3fdcb769a0000000	0.4486946165561676
25	0xbfdd579ca0000000	-0.4584724009037018
26	0xbfd9d61940000000	-0.4036925435066223
27	0xbfc63b3c60000000	-0.17368273437023163
28	0x3fc1e5dea0000000	0.13982756435871124
29	0xbfc419c780000000	-0.15703672170639038
30	0xbfedbb9280000000	-0.9291470050811768
31	0xbfa634b6a0000000	-0.04337092116475105
32	0xbfc1de2be0000000	-0.13959263265132904
33	0x3fb8b01500000000	0.09643679857254028
34	0x3fc88f8300000000	0.19187963008880615
35	0xbfa61b6fc0000000	-0.043178074061870575
36	0x3fba3f3f00000000	0.10252755880355835
37	0xbfc97918a0000000	-0.1990080624818802
38	0xbfe3233bc0000000	-0.5980509519577026
39	0xbfd15bba60000000	-0.27122363448143005
40	0x3fa947fc40000000	0.049377329647541046
41	0xbfa5196a60000000	-0.04120953008532524
42	0xbfdf8d1540000000	-0.4929860234260559
43	0x3fd5cfa6a0000000	0.3407990038394928
44	0xbfd54c7680000000	-0.33279192447662354
45	0x3fb5d999e0000000	0.08535157889127731
46	0xbfdc687f60000000	-0.44387802481651306
47	0xbfe83690e0000000	-0.7566608786582947
48	0xbfeddb27e0000000	-0.9330024123191833
49	0xbfe65e05a0000000	-0.6989772915840149
50	0xbff08e0ee0000000	-1.0346821546554565
51	0xbfb4b123a0000000	-0.08082792907953262
52	0x3fd2943580000000	0.29029595851898193
53	0x3fe179f8e0000000	0.5461391806602478
54	0x3fd8ea1ea0000000	0.389289528131485
55	0x3ff4147260000000	1.254991888999939
56	0xbff51aa860000000	-1.319008231163025
57	0xbfdb559c40000000	-0.4271002411842346
58	0xbfe3a1b060000000	-0.6134874224662781
59	0xbfe068a060000000	-0.5127717852592468
60	0xbfc4e2f900000000	-0.16317665576934814
61	0xbfe0d47c40000000	-0.5259381532669067
62	0xbff0e08440000000	-1.0548136234283447
63	0x3fb2d63f00000000	0.07358163595199585
64	0x3fa33aa4c0000000	0.03755678981542587
65	0xbfca880780000000	-0.20727628469467163
66	0xbfe2b5db40000000	-0.584699273109436
67	0x3fb16ae7a0000000	0.0680374875664711
68	0xbfd0211c20000000	-0.25202086567878723
69	0xbf9959fb40000000	-0.02475731447339058
70	0xbfe306bbe0000000	-0.5945720076560974
71	0xbfe4f8bcc0000000	-0.6553634405136108
72	0xbfbf32d0a0000000	-0.12186912447214127
73	0xbff24f50e0000000	-1.1443642377853394
74	0xbfe921ebc0000000	-0.7853907346725464
75	0xbfc4957780000000	-0.16081136465072632
76	0x3fd2c60f20000000	0.2933385670185089
77	0x3fbe660b00000000	0.11874455213546753
78	0x3fc6d33c60000000	0.17832140624523163
79	0x3fcce82d20000000	0.22583545744419098
80	0xbfd46e3640000000	-0.31922680139541626
81	0xbfd8388500000000	-0.3784496784210205
82	0xbfc6939ce0000000	-0.17637978494167328
83	0x3fccdb87c0000000	0.22544953227043152
84	0xbfe2424f20000000	-0.5705943703651428
85	0x3f92f977a0000000	0.01852976717054844
86	0xbfaa3e4dc0000000	-0.05125658959150314
87	0xbfb8539ea0000000	-0.095025934278965
88	0x3fb2bdd680000000	0.07320919632911682
89	0xbfa9baa940000000	-0.05025223642587662
90	0xbff351df40000000	-1.2074882984161377
91	0xbfe73c1320000000	-0.7260833382606506
92	0xbfed1acb00000000	-0.9095206260681152
93	0xbfc5d0a640000000	-0.17042997479438782
94	0xbfb365a060000000	-0.07576944679021835
95	0xbfcfee9c80000000	-0.2494693398475647
96	0x3fc09096e0000000	0.12941251695156097
97	0xbf8eac1fc0000000	-0.014976738020777702
98	0xbfa47db9c0000000	-0.040021710097789764
99	0xbfa95d87e0000000	-0.04954170808196068
100	0xbfa0f63d40000000	-0.033128656446933746
101	0xbfc3536d40000000	-0.15098348259925842
102	0x3fbb1edb60000000	0.1059395894408226
103	0xbfc554f700000000	-0.16665542125701904
104	0xbfc509e2c0000000	-0.16436418890953064
105	0xbfa9d669a0000000	-0.0504639632999897
106	0xbfb10577e0000000	-0.06648968905210495
107	0xbfc2bfacc0000000	-0.1464744508266449
108	0x3fc5f37dc0000000	0.171493262052536
109	0xbfac6ff440000000	-0.055541642010211945
110	0xbf9d350260000000	-0.02852252684533596
111	0xbfc38a4ea0000000	-0.15265829861164093
112	0x3f9ac663a0000000	0.026147419586777687
113	0xbfc3add160000000	-0.1537420004606247
114	0xbfc1bee400000000	-0.13863801956176758
115	0xbfc2af9020000000	-0.1459827572107315
116	0x3fb4cbf860000000	0.08123733848333359
117	0xbfc5f736e0000000	-0.1716068834066391
118	0xbfc4ff37c0000000	-0.16403862833976746
119	0x3fba226860000000	0.10208752006292343
120	0x3fb7c1e1c0000000	0.09280215203762054
121	0x3fb5e7c260000000	0.08556761592626572
122	0xbfa61fd820000000	-0.04321170225739479
123	0xbfd9e2ee60000000	-0.40447577834129333
124	0x3fcb28ee20000000	0.21218658983707428
125	0x3fa33a69e0000000	0.0375550352036953
126	0x3fcbe03d40000000	0.21778073906898499
127	0x3fa5ab3f80000000	0.04232214391231537
128	0x3fb1f1da00000000	0.07009661197662354
129	0x3fb430f380000000	0.07887193560600281
130	0x3fe878a300000000	0.7647261619567871
131	0x3fd62c1940000000	0.3464415669441223
132	0x3fcf84aec0000000	0.246236652135849
133	0x3fc0077be0000000	0.1252283900976181
134	0x3fd016ad80000000	0.2513841390609741
135	0x3fc7459600000000	0.18181109428405762
136	0x3fb822ee60000000	0.09428300708532333
137	0x3fb383a300000000	0.07622736692428589
138	0x3fd35e16c0000000	0.30261772871017456
139	0xbf9bd85820000000	-0.027192475274205208
140	0x3fd72eb880000000	0.36222660541534424
141	0x3fc162fc20000000	0.135833278298378
142	0xbfb76f7100000000	-0.09154421091079712
143	0x3fa64867c0000000	0.04352115839719772
144	0xbfc0ce1ca0000000	-0.1312900334596634
145	0xbfc0438fe0000000	-0.12706182897090912
146	0xbfb11f7440000000	-0.06688620150089264
147	0x3fefe46960000000	0.9966322779655457
148	0x3facae6f00000000	0.056018322706222534
149	0x3ff128e100000000	1.0724802017211914
150	0x3fb1017da0000000	0.06642899662256241
151	0x3fb41cc7a0000000	0.07856414467096329
152	0x3fcedb6ae0000000	0.24107109010219574
153	0x3fecc60fc0000000	0.8991774320602417
154	0x3fe1df0280000000	0.5584728717803955
155	0xbfdc86c4a0000000	-0.44572558999061584
156	0x3fee160100000000	0.9401860237121582
157	0x3fd0474780000000	0.25435054302215576
158	0x3fc368aea0000000	0.1516321450471878
159	0x3fcd410360000000	0.22854654490947723
160	0x3fd2844660000000	0.2893234193325043
161	0x3fa0145000000000	0.031404972076416016
162	0x3fd0131260000000	0.251164048910141
163	0x3fdd75b220000000	0.46030858159065247
164	0x3fb18fe7a0000000	0.0686020627617836
165	0xbfd44c1ca0000000	-0.3171454966068268
166	0x3fd4c42480000000	0.3244715929031372
167	0x3fcb6b0e00000000	0.2142045497894287
168	0x3fa98eb7a0000000	0.04991697147488594
169	0xbf936fafa0000000	-0.018980735912919044
170	0x3fd12c6900000000	0.26833558082580566
171	0x3fd5f23660000000	0.34290847182273865
172	0x3ff0efbfe0000000	1.0585325956344604
173	0x3fcc813680000000	0.22269326448440552
174	0x3fed87b480000000	0.9228155612945557
175	0x3ff20edcc0000000	1.1286284923553467
176	0x3fc7152a40000000	0.18033340573310852
177	0x3ff35ecde0000000	1.2106455564498901
178	0x3fc9cc1880000000	0.201541006565094
179	0x3fc0327bc0000000	0.1265406310558319
180	0x3fe99cf820000000	0.8004112839698792
181	0xbf77307920000000	-0.005661461967974901
182	0x3fe389bc60000000	0.6105634570121765
183	0x3fe4243ec0000000	0.6294244527816772
184	0x3fd12f6f60000000	0.26852020621299744
185	0x3fca82a060000000	0.2071114033460617
186	0x3fec09ed60000000	0.8762118220329285
187	0x3fe1283740000000	0.5361591577529907
188	0x3fd7774f40000000	0.3666570782661438
189	0x3febaadf20000000	0.8646083474159241
190	0x3fcf055160000000	0.2423497885465622
191	0x3fd21ff3e0000000	0.2832002341747284
192	0x3fc93417c0000000	0.19690224528312683
193	0x3fba149220000000	0.1018763855099678
194	0x3fadc511c0000000	0.05814414471387863
195	0x3fb1c586e0000000	0.06942027062177658
196	0x3fd4ff3380000000	0.32807624340057373
197	0x3fc9c29660000000	0.2012508362531662
198	0x3fbd9db5e0000000	0.11568772047758102
199	0x3feb297560000000	0.8488108515739441
200	0x3ff0b04580000000	1.0430350303649902
201	0x3fcc7f59e0000000	0.22263644635677338
202	0x3fc9f195a0000000	0.20268507301807404
203	0xbfc5d3d7a0000000	-0.1705274134874344
204	0xbfc65d01a0000000	-0.17471332848072052
205	0x3fc3bc6c00000000	0.15418767929077148
206	0xbf8aa8f260000000	-0.01301755290478468
207	0x3f9d81d760000000	0.02881561778485775
208	0x3fd5250d80000000	0.33038651943206787
209	0x3fe1d66300000000	0.5574202537536621
210	0x3fdcc67fe0000000	0.4496154487133026
211	0x3fb809fec0000000	0.09390251338481903
212	0x3ff0e829a0000000	1.0566803216934204
213	0x3ff1489e00000000	1.0802288055419922
214	0x3fbef4f100000000	0.12092500925064087
215	0x3fc46486c0000000	0.15931782126426697
216	0x3f8cb287c0000000	0.014012394472956657
217	0xbfc56e0fa0000000	-0.16742129623889923
218	0x3fa25fb740000000	0.035886503756046295
219	0x3f9c1c2340000000	0.027451086789369583
220	0x3fbf5f1c00000000	0.12254500389099121
221	0x3fc42e8c00000000	0.1576704978942871
222	0x3fb40aae80000000	0.0782879889011383
223	0x3fa646f460000000	0.04351009055972099
224	0xbfb9c8ef80000000	-0.1007222831249237
225	0x3fb3328f20000000	0.07499022036790848
226	0xbf942c1ba0000000	-0.01969950832426548
227	0x3fc27d3ae0000000	0.1444467157125473
228	0xbfb5d1c5a0000000	-0.08523211628198624
229	0x3fc1a00560000000	0.13769595324993134
230	0x3fba21cd40000000	0.10207827389240265
231	0xbfa5f114c0000000	-0.042854927480220795
232	0x3fb9982e80000000	0.09997835755348206
233	0x3fbe8f5ee0000000	0.11937516182661057
234	0xbfb5f75d20000000	-0.08580572158098221
235	0x3fc4c82b60000000	0.16235868632793427
236	0xbf87444a40000000	-0.011360721662640572
237	0xbfc2b374e0000000	-0.14610157907009125
238	0xbfad2c3780000000	-0.05697797238826752
239	0xbfd0271880000000	-0.252386212348938
240	0x3fe1a6cac0000000	0.5516103506088257
241	0x3fe0185b80000000	0.5029733180999756
242	0x3fdb3118a0000000	0.4248715937137604
243	0xbfbd0b7060000000	-0.11345579475164413
244	0x3fd5925500000000	0.33705639839172363
245	0xbfbf8f9720000000	-0.12328476458787918
246	0xbfd7c586a0000000	-0.37143102288246155
247	0xbf9ea906a0000000	-0.029941657558083534
248	0x3ff0315140000000	1.012040376663208
249	0x3fe082dc60000000	0.515974223613739
250	0x3fd4e01ac0000000	0.32617825269699097
251	0x3fbf5fc400000000	0.12255501747131348
252	0x3fe3ad6b20000000	0.6149192452430725
253	0x3fc8859040000000	0.1915760338306427
254	0x3fe6532960000000	0.6976515650749207
255	0xbfbd23a7a0000000	-0.11382529884576797

bias f8 [64]
0	0x3fc81fc660000000	0.18846969306468964
1	0xbfcbe20800000000	-0.2178354263305664
2	0xbf9b6ca560000000	-0.026781639084219933
3	0x3fc2a8af00000000	0.1457728147506714
4	0x3fb12dc420000000	0.06710458546876907
5	0x3fa4ef74c0000000	0.04088940471410751
6	0xbfc8b64a20000000	-0.19306303560733795
7	0xbf990a2d20000000	-0.024452881887555122
8	0x3fa3ff9340000000	0.03905925899744034
9	0x3fc1d2cda0000000	0.13924570381641388
10	0xbfbb49d580000000	-0.10659536719322205
11	0x3fa4f850c0000000	0.040956996381282806
12	0xbfd2efbce0000000	-0.2958824336528778
13	0xbfcf0d39c0000000	-0.24259111285209656
14	0x3fbb483880000000	0.10657075047492981
15	0xbf8a44b5c0000000	-0.012826366350054741
16	0xbfb3817900000000	-0.07619434595108032
17	0xbfb5965780000000	-0.08432528376579285
18	0xbfcd30ff40000000	-0.22805777192115784
19	0x3fba7d0a40000000	0.10347045958042145
20	0xbfd3540fe0000000	-0.30200573801994324
21	0x3fcb052500000000	0.21109449863433838
22	0x3f822617a0000000	0.008861717768013477
23	0x3f84dc1b60000000	0.01018544565886259
24	0xbfd2f175c0000000	-0.2959875464439392
25	0xbfca7e2140000000	-0.20697417855262756
26	0x3fc7642260000000	0.1827433556318283
27	0x3fc06e2a60000000	0.12836198508739471
28	0xbfa40d9f20000000	-0.03916642442345619
29	0xbfc3d86320000000	-0.15504111349582672
30	0xbfa3af44e0000000	-0.0384465716779232
31	0xbfc8d2b000000000	-0.19392967224121094
32	0xbfb41c5da0000000	-0.0785578265786171
33	0xbfc9cd2300000000	-0.20157277584075928
34	0xbfd0fa3160000000	-0.26527056097984314
35	0x3fc7887860000000	0.18385224044322968
36	0xbfa755f900000000	-0.045577794313430786
37	0x3f8e487620000000	0.014786646701395512
38	0x3fbc6543a0000000	0.11092016845941544
39	0xbfd1e8c6a0000000	-0.27983251214027405
40	0x3fa389be20000000	0.03816026821732521
41	0x3fd0a122a0000000	0.2598349153995514
42	0x3fc5473f60000000	0.16623680293560028
43	0x3fae1629a0000000	0.05876283720135689
44	0xbfc88a8be0000000	-0.19172810018062592
45	0x3fbb576740000000	0.10680241882801056
46	0x3fa89ba7e0000000	0.048062559217214584
47	0xbfbd992c60000000	-0.11561848968267441
48	0x3fada05e20000000	0.05786413326859474
49	0xbfa71f1f60000000	-0.045159321278333664
50	0xbf88d33c20000000	-0.012121648527681828
51	0x3f97405bc0000000	0.022706445306539536
52	0xbfc56179a0000000	-0.1670372039079666
53	0xbfb4cf7600000000	-0.081290602684021
54	0xbfb571d620000000	-0.08376825600862503
55	0xbf9ecd6a40000000	-0.03008047118782997
56	0x3fcb2e38c0000000	0.212348073720932
57	0xbfaaf47ca0000000	-0.052646536380052567
58	0x3fa96a5f40000000	0.04963967949151993
59	0xbfd28fc520000000	-0.2900250256061554
60	0x3fcb493280000000	0.21317130327224731
61	0xbfcb5f4460000000	-0.21384482085704803
62	0x3fa20214a0000000	0.035172123461961746
63	0xbfd3e49860000000	-0.3108273446559906

alpha f8 [1, 64]
0	0x3fe26a2c00000000	0.5754604339599609
1	0xbfc138fe20000000	-0.1345517784357071
2	0x3fe54d3f80000000	0.6656796932220459
3	0x3fd94d60c0000000	0.3953477740287781
4	0x3fe7b84940000000	0.7412458658218384
5	0x3fce80aee0000000	0.2383020967245102
6	0x3ff24a6f00000000	1.143172264099121
7	0x3fe72a78c0000000	0.723934531211853
8	0x3ff0334520000000	1.0125170946121216
9	0xbfb1d77b80000000	-0.06969425082206726
10	0x3fe17cee20000000	0.5465002655982971
11	0x3fdf3c8a80000000	0.48807013034820557
12	0x3fe2683800000000	0.5752220153808594
13	0x3fee95ef60000000	0.9558026194572449
14	0x3fed579260000000	0.916939914226532
15	0x3fe43cf980000000	0.6324431896209717
16	0x3fdf8b0e00000000	0.4928622245788574
17	0x3fd8d34e60000000	0.3878971040248871
18	0x3ff17e5440000000	1.0933420658111572
19	0x3fe963d700000000	0.7934374809265137
20	0x3fee43e720000000	0.9457889199256897
21	0x3fc80932a0000000	0.1877806931734085
22	0x3fb2de5660000000	0.07370509952306747
23	0x3fec61f680000000	0.8869583606719971
24	0x3fe0ed55c0000000	0.5289715528488159
25	0x3fea456da0000000	0.820975124835968
26	0x3feb87b2a0000000	0.860314667224884
27	0x3fe2e99d60000000	0.5910174250602722
28	0x3fd8b605e0000000	0.3861097991466522
29	0x3fe5c60be0000000	0.6804255843162537
30	0x3fe6c56ba0000000	0.7115991711616516
31	0x3fe4b51800000000	0.6471061706542969
32	0x3feca784c0000000	0.8954490423202515
33	0x3fed25c400000000	0.9108600616455078
34	0x3fe46d50c0000000	0.6383441686630249
35	0x3fc1d6ade0000000	0.13936398923397064
36	0x3fe9f92480000000	0.8116629123687744
37	0x3fd08c8020000000	0.2585754692554474
38	0x3fe87e6d00000000	0.7654328346252441
39	0x3feadec4c0000000	0.8396934270858765
40	0x3fed228e40000000	0.9104682207107544
41	0xbfcfd987e0000000	-0.2488260120153427
42	0xbfb6809280000000	-0.0878993570804596
43	0x3feba4fee0000000	0.863891065120697
44	0x3fc0ca91a0000000	0.13118191063404083
45	0x3fe1b54660000000	0.5533782839775085
46	0x3fefa27e20000000	0.9885855317115784
47	0x3fdad9d920000000	0.4195463955402374
48	0x3fde792040000000	0.476142942905426
49	0x3fe842c600000000	0.7581510543823242
50	0x3feb16e740000000	0.8465458154678345
51	0x3fe9e15440000000	0.8087559938430786
52	0x3feddf50a0000000	0.9335101246833801
53	0x3fed8a6c40000000	0.9231473207473755
54	0x3fe9f6b6a0000000	0.8113663792610168
55	0x3fe9105780000000	0.7832448482513428
56	0x3fe4d8bd00000000	0.6514573097229004
57	0x3fd5192ba0000000	0.3296612799167633
58	0x3feb769bc0000000	0.8582285642623901
59	0x3fea987000000000	0.8311080932617188
60	0x3fe45cb6a0000000	0.6363175511360168
61	0x3fecc01340000000	0.8984466791152954
62	0x3fb5dac580000000	0.08536943793296814
63	0x3fea3e97a0000000	0.8201406598091125

beta f8 [1, 64]
0	0x3f7c442d60000000	0.006900956388562918
1	0xbfd0ce0ea0000000	-0.26257672905921936
2	0x3fa41db980000000	0.03928928077220917
3	0xbf88296200000000	-0.011797681450843811
4	0x3f9d63c760000000	0.0287009384483099
5	0xbfc69214c0000000	-0.17633303999900818
6	0x3fc800afc0000000	0.18752095103263855
7	0x3fb3bc5140000000	0.077092245221138
8	0x3fd049bb40000000	0.25450021028518677
9	0xbfb6c1f220000000	-0.08889687806367874
10	0x3fa4b76320000000	0.04046163335442543
11	0xbfcbb195e0000000	-0.21635697782039642
12	0x3f90670760000000	0.01601802371442318
13	0x3fb25f1300000000	0.07176321744918823
14	0x3fb3dc4b20000000	0.07758016139268875
15	0x3fb005af80000000	0.06258675456047058
16	0x3fb99481c0000000	0.0999222844839096
17	0xbfc0aa1ce0000000	-0.13019143044948578
18	0x3fc592c6c0000000	0.16854175925254822
19	0x3fb3a69520000000	0.07676059752702713
20	0x3fb3db5160000000	0.0775652751326561
21	0x3fc35d56e0000000	0.15128599107265472
22	0xbfbf104680000000	-0.12134209275245667
23	0x3f94d7c320000000	0.020354317501187325
24	0x3fa28f0ba0000000	0.03624759986996651
25	0x3fcc033c40000000	0.21884873509407043
26	0x3fd0083b20000000	0.2505023777484894
27	0x3fb30c6c40000000	0.07440830767154694
28	0x3fc3c15440000000	0.15433743596076965
29	0x3fcfc1be60000000	0.24810008704662323
30	0x3fbed639a0000000	0.12045631557703018
31	0x3fb3f99760000000	0.07802721112966537
32	0x3fba5f8160000000	0.10301979631185532
33	0x3fd4a67200000000	0.3226590156555176
34	0x3f89003aa0000000	0.012207468040287495
35	0xbfce2bf680000000	-0.23571664094924927
36	0x3fb413df60000000	0.0784282311797142
37	0x3fbc8ba6a0000000	0.1115059033036232
38	0x3fa72dea20000000	0.04527217522263527
39	0x3f93d9da40000000	0.019385728985071182
40	0x3fab4e14a0000000	0.053330082446336746
41	0xbfa2fd25a0000000	-0.03708760812878609
42	0xbfb7501840000000	-0.0910658985376358
43	0x3fb1a6db80000000	0.0689522922039032
44	0x3fc6c8d6c0000000	0.17800411581993103
45	0x3f92867e40000000	0.018091175705194473
46	0x3fc2a10be0000000	0.14553974568843842
47	0x3f9fde1080000000	0.03112054616212845
48	0x3face00b00000000	0.056396812200546265
49	0x3f9bc24b00000000	0.02710835635662079
50	0x3fb29a0640000000	0.07266272604465485
51	0x3fc12b5200000000	0.13413453102111816
52	0x3fb918ba20000000	0.09803355485200882
53	0x3fb3b72f40000000	0.07701392471790314
54	0x3fc019e120000000	0.12578977644443512
55	0x3fb30090a0000000	0.07422737032175064
56	0xbfc69a73a0000000	-0.1765884906053543
57	0x3fbb71b9c0000000	0.10720406472682953
58	0x3fc23eb700000000	0.1425389051437378
59	0xbf3dfc1fe0000000	-0.0004575326747726649
60	0x3fa746cca0000000	0.04546203091740608
61	0x3fb35cd9e0000000	0.07563554495573044
62	0x3fd5a4d7e0000000	0.33818623423576355
63	0x3fb9209400000000	0.09815335273742676

weight f8 [24, 64]
0	0xbfc477d200000000	-0.15990662574768066
1	0x3fad186b40000000	0.05682692676782608
2	0x3fc3fc0940000000	0.15612903237342834
3	0xbfd9d4a240000000	-0.40360313653945923
4	0x3fb66e0260000000	0.08761610835790634
5	0xbf81e66860000000	-0.008740249089896679
6	0x3fcad6e700000000	0.20968329906463623
7	0xbfb9cf12a0000000	-0.10081592947244644
8	0x3fd160fe20000000	0.2715449631214142
9	0x3f826aef60000000	0.008993024937808514
10	0xbfd162fc40000000	-0.27166658639907837
11	0x3fd332dbc0000000	0.29997915029525757
12	0xbfd5a5d1c0000000	-0.33824580907821655
13	0x3fd0baa320000000	0.26139143109321594
14	0xbfc5d105a0000000	-0.17044134438037872
15	0x3f7d49cde0000000	0.007150463294237852
16	0xbfae807540000000	-0.05957380682229996
17	0xbfd5e9b100000000	-0.342388391494751
18	0x3f9323fb60000000	0.01869194768369198
19	0xbfafe64d60000000	-0.06230394169688225
20	0xbf9001b940000000	-0.015631575137376785
21	0x3fb9064100000000	0.0977516770362854
22	0xbfe0a6fea0000000	-0.5203850865364075
23	0xbf8a8cf700000000	-0.01296418160200119
24	0xbfcfffdc40000000	-0.24999573826789856
25	0xbf8c71bb80000000	-0.013888802379369736
26	0xbfd3c9b8e0000000	-0.3091871440410614
27	0xbfc2526960000000	-0.1431400030851364
28	0xbfb17d8860000000	-0.06832172721624374
29	0xbfbe80f020000000	-0.11915493756532669
30	0x3f419eb280000000	0.0005377170164138079
31	0x3fc1f19380000000	0.14018481969833374
32	0x3f90bd4c60000000	0.016347115859389305
33	0x3fb34b2360000000	0.07536526769399643
34	0xbfa0c718e0000000	-0.032768990844488144
35	0xbf568cc480000000	-0.0013763350434601307
36	0xbfb7874480000000	-0.09190776944160461
37	0xbfd5b7e2c0000000	-0.3393484950065613
38	0x3fb8097300000000	0.09389418363571167
39	0x3fb25d7a00000000	0.0717388391494751
40	0xbfc3972660000000	-0.1530502289533615
41	0xbfb2d7d180000000	-0.07360562682151794
42	0x3fca80d360000000	0.2070564478635788
43	0x3fceec2420000000	0.24158145487308502
44	0x3fbcd58440000000	0.11263300478458405
45	0x3fc9dd1a80000000	0.2020600438117981
46	0x3fd1ae2e60000000	0.27625617384910583
47	0x3fcaad7880000000	0.20841890573501587
48	0xbfd103ed60000000	-0.26586470007896423
49	0xbfd0ea38a0000000	-0.2642957270145416
50	0x3fbb682780000000	0.10705801844596863
51	0x3fa778b760000000	0.045842867344617844
52	0x3fc709bcc0000000	0.1799846589565277
53	0x3fa60d0900000000	0.04306820034980774
54	0x3fd276de20000000	0.28850510716438293
55	0x3fb2eaf0e0000000	0.07389741390943527
56	0xbfcf640dc0000000	-0.24524089694023132
57	0xbfe03a1b40000000	-0.507093071937561
58	0xbf73931ea0000000	-0.004778976086527109
59	0x3fb7ea84a0000000	0.09342221170663834
60	0xbf99350840000000	-0.024616364389657974
61	0x3fac123440000000	0.05482638627290726
62	0x3fc5426520000000	0.16608871519565582
63	0x3f8b329c60000000	0.013280126266181469
64	0xbfc1049da0000000	-0.13295336067676544
65	0x3fb7810fe0000000	0.09181308001279831
66	0xbfc8757980000000	-0.19108504056930542
67	0xbfb6aad3e0000000	-0.08854412287473679
68	0x3f84508840000000	0.009919228032231331
69	0xbf9524ed00000000	-0.020648673176765442
70	0x3facb5ffc0000000	0.0560760423541069
71	0xbf8e83d0a0000000	-0.01489985454827547
72	0x3f887a63a0000000	0.011952188797295094
73	0x3fa08f15c0000000	0.03234165161848068
74	0xbf7632e380000000	-0.005419624969363213
75	0xbf4cadd6a0000000	-0.0008752153371460736
76	0x3fc6bb8220000000	0.1775972992181778
77	0x3f9694dbe0000000	0.022052226588129997
78	0xbf85d1c0a0000000	-0.010653977282345295
79	0xbf29c4dbe0000000	-0.00019660171528812498
80	0xbf7f874ec0000000	-0.007697398774325848
81	0xbf85960f60000000	-0.010540123097598553
82	0xbf9dc18280000000	-0.029058493673801422
83	0xbf968a8320000000	-0.022012757137417793
84	0xbfc34faae0000000	-0.150868758559227
85	0x3fafd07c60000000	0.06213749572634697
86	0xbfaface0a0000000	-0.061865825206041336
87	0xbfb8fa9300000000	-0.09757345914840698
88	0x3fb11a3ae0000000	0.06680648773908615
89	0x3fb20118c0000000	0.07032923400402069
90	0xbf80fc8aa0000000	-0.008294184692203999
91	0xbfb6151160000000	-0.08625897020101547
92	0x3f81f73880000000	0.008772317320108414
93	0xbf819d3380000000	-0.008600618690252304
94	0xbfb7b6a540000000	-0.09263069927692413
95	0x3f99ae0b20000000	0.02507798559963703
96	0x3f83d03780000000	0.00967448577284813
97	0x3fa0cb20a0000000	0.03279973939061165
98	0xbfba607e80000000	-0.10303488373756409
99	0xbf9d16dba0000000	-0.02840750850737095
100	0x3fb3c02e80000000	0.07715120911598206
101	0x3fa130c0c0000000	0.03357508033514023
102	0x3f9439ca40000000	0.01975170150399208
103	0x3fa6225a00000000	0.04323083162307739
104	0xbf88ec8840000000	-0.012169899418950081
105	0x3f94094a80000000	0.019566692411899567
106	0xbfc211bf80000000	-0.14116662740707397
107	0xbfb3180080000000	-0.07458499073982239
108	0x3f95376f40000000	0.02071927860379219
109	0x3fa771df80000000	0.0457906574010849
110	0xbf8d2b60e0000000	-0.014242894016206264
111	0x3fb2ad1160000000	0.07295330613851547
112	0xbf8472b140000000	-0.00998438335955143
113	0x3fbdb715c0000000	0.11607490479946136
114	0xbfb1c9f8a0000000	-0.06948808580636978
115	0xbf7dfcc520000000	-0.007321138400584459
116	0x3f9dfddaa0000000	0.02928868867456913
117	0x3fa60afe20000000	0.04305261746048927
118	0x3fa4619a60000000	0.03980715200304985
119	0xbfa2889c40000000	-0.03619850426912308
120	0xbfbb8b33c0000000	-0.10759280622005463
121	0x3fa53bf080000000	0.04147292673587799
122	0xbfaebe7b20000000	-0.060047004371881485
123	0x3f9db8d2e0000000	0.029025359079241753
124	0xbf84b997a0000000	-0.010119614191353321
125	0x3f8ca07a80000000	0.013977963477373123
126	0x3fac9dac20000000	0.05589044466614723
127	0x3fad9c1560000000	0.05783144757151604
128	0xbfb07e8500000000	-0.06443053483963013
129	0xbfbb78c080000000	-0.10731127858161926
130	0xbf89991620000000	-0.01249902043491602
131	0x3fc19e9780000000	0.13765233755111694
132	0xbfa0d971e0000000	-0.03290897235274315
133	0x3fa9120e40000000	0.048965878784656525
134	0x3f381743a0000000	0.0003675975895021111
135	0x3f9dbfc220000000	0.02905181236565113
136	0xbf9b574100000000	-0.026700034737586975
137	0x3fc0bb8220000000	0.1307222992181778
138	0x3fd14ef700000000	0.2704446315765381
139	0x3f9761c0c0000000	0.02283383533358574
140	0xbfa459cda0000000	-0.03974764421582222
141	0x3fc08009e0000000	0.12890742719173431
142	0x3fb1a9c980000000	0.06899699568748474
143	0xbfb3e8d3e0000000	-0.07777141779661179
144	0xbfa4fdb800000000	-0.040998220443725586
145	0xbfbb371de0000000	-0.10630976408720016
146	0xbf8746b740000000	-0.011365348473191261
147	0xbfba856a20000000	-0.10359824448823929
148	0x3fbbf06500000000	0.10913687944412231
149	0xbfa5dd7580000000	-0.042705222964286804
150	0x3fa4fd96e0000000	0.040997233241796494
151	0x3f86bb4ca0000000	0.011099432595074177
152	0xbfc8daa160000000	-0.19417206943035126
153	0xbf60c50020000000	-0.0020470621529966593
154	0xbfb05a79a0000000	-0.0638805404305458
155	0xbf91b3a800000000	-0.01728689670562744
156	0xbfb39c0160000000	-0.07659920305013657
157	0xbf929d9e80000000	-0.01817939430475235
158	0x3faa6f9800000000	0.05163264274597168
159	0xbfafa7dd60000000	-0.061827581375837326
160	0xbfb51893a0000000	-0.08240626007318497
161	0x3f96bc0860000000	0.0222016628831625
162	0x3f276e3740000000	0.00017876076162792742
163	0x3fb697e880000000	0.08825543522834778
164	0xbf75d59e40000000	-0.005330675281584263
165	0xbfb053d380000000	-0.0637790858745575
166	0x3f8cd62e20000000	0.014080391265451908
167	0x3f598826a0000000	0.001558339805342257
168	0x3fc110ca00000000	0.13332486152648926
169	0x3fc32869a0000000	0.1496707946062088
170	0xbfe0a028a0000000	-0.519550621509552
171	0x3f87f8ce60000000	0.01170502882450819
172	0x3fab192d60000000	0.05292646214365959
173	0xbfabd102a0000000	-0.05432899668812752
174	0x3fa42c0400000000	0.03939831256866455
175	0x3fb7f115a0000000	0.09352240711450577
176	0xbf34532e00000000	-0.0003101336769759655
177	0xbf44461c20000000	-0.0006187093094922602
178	0xbf6e754c60000000	-0.003718041582033038
179	0xbfa38d9e00000000	-0.038189828395843506
180	0xbfaca772e0000000	-0.055965032428503036
181	0x3f987c5e40000000	0.02391192689538002
182	0xbf883975e0000000	-0.011828347109258175
183	0xbfa44b8960000000	-0.03963879868388176
184	0x3fba0051e0000000	0.10156738013029099
185	0x3f80e91620000000	0.00825707707554102
186	0xbf8669e520000000	-0.010944166220724583
187	0xbfac7f5500000000	-0.055658966302871704
188	0x3fbbdb94e0000000	0.10881929844617844
189	0x3f7a09a680000000	0.00635685957968235
190	0x3facc84280000000	0.05621536076068878
191	0xbfa2c33040000000	-0.036645419895648956
192	0xbf91af55e0000000	-0.017270414158701897
193	0xbf99595560000000	-0.02475484274327755
194	0xbfaa667240000000	-0.051562853157520294
195	0xbfc25be460000000	-0.14342932403087616
196	0xbf979aec00000000	-0.023051917552947998
197	0x3f98b483a0000000	0.02412610687315464
198	0xbfb014df80000000	-0.0628184974193573
199	0xbfa2931c80000000	-0.0362786203622818
200	0xbf96562000000000	-0.021812915802001953
201	0x3f99499600000000	0.024694770574569702
202	0x3f9b14ab60000000	0.026446035131812096
203	0xbf8d67a720000000	-0.014357858337461948
204	0x3f8120cb80000000	0.008363332599401474
205	0x3fb36eeae0000000	0.07591121643781662
206	0x3f7e18c7c0000000	0.007347851060330868
207	0x3fa42bdf60000000	0.0393972210586071
208	0xbfa12a4460000000	-0.03352559730410576
209	0xbfa904ea60000000	-0.048865627497434616
210	0xbf68ce9a40000000	-0.0030282032676041126
211	0x3f7e62d700000000	0.007418479770421982
212	0x3fbd335820000000	0.11406470090150833
213	0xbfb47b8660000000	-0.0800098404288292
214	0x3fb06300e0000000	0.06401067227125168
215	0x3fa30e0360000000	0.03721628710627556
216	0x3fc71d6040000000	0.18058398365974426
217	0x3f91509740000000	0.01690899208188057
218	0xbfb2057fa0000000	-0.07039640098810196
219	0xbfb71715e0000000	-0.09019600600004196
220	0xbfa5483500000000	-0.04156652092933655
221	0xbf98b6bd00000000	-0.024134591221809387
222	0xbfa19b90a0000000	-0.03438999131321907
223	0xbfc023d720000000	-0.1260937601327896
224	0x3eff7469e0000000	2.9997578167240135e-05
225	0x3f8fa41020000000	0.015449644066393375
226	0xbf90f2cfe0000000	-0.01655125431716442
227	0xbfbdd10560000000	-0.11647065728902817
228	0x3fb0ca0860000000	0.065582774579525
229	0x3f938c52a0000000	0.01908997632563114
230	0xbf80a61cc0000000	-0.008129334077239037
231	0x3fc1a47d60000000	0.13783232867717743
232	0x3fa9a0dd40000000	0.05005542188882828
233	0x3fa94a0640000000	0.04939288645982742
234	0xbfa2329220000000	-0.0355420745909214
235	0x3f963447a0000000	0.02168380655348301
236	0xbf7465df60000000	-0.00497996574267745
237	0xbfd0ddaec0000000	-0.263530433177948
238	0x3fa841cb00000000	0.04737696051597595
239	0x3f83224820000000	0.009342730976641178
240	0x3f8087e780000000	0.008071716874837875
241	0xbf99252c60000000	-0.024555867537856102
242	0x3f73937900000000	0.004779312759637833
243	0xbfa79ef5e0000000	-0.046134646981954575
244	0xbfa213d200000000	-0.035307466983795166
245	0x3f8eb5fb60000000	0.014995540492236614
246	0x3f5880b080000000	0.0014955257065594196
247	0xbfa903fe40000000	-0.04885859042406082
248	0xbfa6fd6e40000000	-0.04490227252244949
249	0x3f6f8a6540000000	0.003850171808153391
250	0x3f80df33e0000000	0.008238225243985653
251	0xbf920536a0000000	-0.01759801246225834
252	0x3fa4310ec0000000	0.03943677991628647
253	0xbf8584da60000000	-0.010507303290069103
254	0x3f602dd1c0000000	0.001974973361939192
255	0x3fac2f4d60000000	0.0550483874976635

bias f8 [24]
0	0xbfbe12b660000000	-0.11747302860021591
1	0xbf76ab3400000000	-0.005534365773200989
2	0x3facc78540000000	0.05620972067117691
3	0xbf4503ac20000000	-0.0006413069204427302
4	0x3fba8e0020000000	0.1037292554974556
5	0xbfbfa23d60000000	-0.12356933206319809
6	0xbfaabffd20000000	-0.052246008068323135
7	0xbfb770dc40000000	-0.09156586229801178
8	0x3ff2cc5140000000	1.174882173538208
9	0x3ff28d5420000000	1.1595040559768677
10	0x3ff0762a60000000	1.0288490056991577
11	0x3fe17a6c40000000	0.5461941957473755
12	0x3ff4a76c00000000	1.2908744812011719
13	0x3ff3810000000000	1.218994140625
14	0x3fef69fd80000000	0.9816882610321045
15	0x3ff2ff96a0000000	1.1873995065689087
16	0x3fcb805fa0000000	0.2148551493883133
17	0x3ff9aa2740000000	1.604041337966919
18	0x3fffe1f880000000	1.992668628692627
19	0x4004c4b820000000	2.5960543155670166
20	0x3fcb3f9c60000000	0.2128787487745285
21	0x3fc79746c0000000	0.18430408835411072
22	0x3ff5b7e2c0000000	1.3573939800262451
23	0x3fe5a7c5c0000000	0.6767300367355347

initpot f8 [1]
0	0x0000000000000000	0.0
