reann2.0_20250825/test/t1.reverse/REANN.pth (torch, 553495 bytes, 234 tensors)

getdensity.contracted_coeff f4 [2, 3, 8, 108]
000000 d9 e6 78 3e c9 d4 8d 3e 74 f7 22 3e eb da 8a 3d
       0.24306811 0.27701405 0.15914708 0.067800365
000010 c2 b0 d6 bd ff c9 4d be 01 f5 27 be 74 b7 2d bd
       -0.104829326 -0.20096587 -0.16402055 -0.042411283
000020 d8 77 76 3e f4 47 b7 3d 03 83 31 3e e9 2f 9c 3e
       0.24069154 0.08949271 0.17335133 0.30505303
000030 3d 22 9a 3d e2 08 c3 bc 8d 70 53 be 6d 5c cf bd
       0.07526062 -0.023807947 -0.20648403 -0.10125051
000040 f7 f7 25 3d ee 70 35 bd a7 92 6f bd d8 92 d7 bc
       0.04051968 -0.04429715 -0.058489468 -0.026315138
000050 78 5f c7 bd b4 3a ba 3d 5b 22 e1 bd 90 ff 02 3e
       -0.09735006 0.09093228 -0.10992881 0.12792802
000060 e9 2d 01 3e 14 ec ba be bb 99 84 3e 06 27 1f 3e
       0.1261517 -0.36508238 0.25898537 0.1554223
000070 66 1c 14 3e b8 c8 a2 3d 42 f5 07 bd e7 56 f1 3b
       0.14463958 0.0794844 -0.03319288 0.007365096
000080 1c 4d 15 be 16 ff 04 3e 1c ec f7 bc be 82 fd 3d
       -0.14580196 0.12987933 -0.030263953 0.12378453
000090 52 c7 77 3e 15 26 2d bc 97 0d 2f 3b 6a ed 93 3d
       0.24197128 -0.0105681615 0.002671098 0.072230175
0000a0 ad 9b 29 be 35 ca 28 be 95 bd fa 3d 27 9d b1 bd
       -0.16563292 -0.16483386 0.12243191 -0.086725526
0000b0 5b c0 e2 3d 05 2a 9a bd 46 07 df 3c d3 38 c8 3d
       0.11071845 -0.07527546 0.027225148 0.09776463
0000c0 9a 9e 18 be 28 99 2e be 59 5f 91 be f4 60 a6 3e
       -0.14904252 -0.17050612 -0.28393057 0.32495844
0000d0 3a 03 3a be 6b e8 29 bd 58 48 b1 3d b1 2d 0b 3d
       -0.18165293 -0.041481417 0.086563766 0.03397912
0000e0 63 ad 9f 3d 58 6b 6e 3e d0 e4 b4 3d b9 51 ff bd
       0.07796743 0.23283136 0.08832705 -0.12466759
0000f0 b5 5a bc 3e 65 8e 0d be f3 ec 18 be 39 5b 11 3e
       0.36787954 -0.1382385 -0.14934139 0.14194955
000100 95 6e 7b 3e 84 79 55 3d f0 fa a6 3d 8b 15 28 3e
       0.24553902 0.05211784 0.08153331 0.16414468
000110 70 90 f2 bd 91 15 ae 3e 2f 04 b0 bd 14 31 b1 be
       -0.118439555 0.3400083 -0.08594548 -0.34607756
000120 7c 74 0c be 95 2f f9 bd 3d ef b9 3e ac 94 7a bc
       -0.1371631 -0.12167279 0.36315337 -0.015294235
000130 7c ed 1a 3d 58 c4 0d bc 74 f7 21 3d a4 3b 03 be
       0.03782414 -0.008652769 0.03954263 -0.1281572
000140 24 92 f8 3d 66 b3 82 bd a8 d8 a7 bd 86 53 40 be
       0.12137249 -0.06381874 -0.08195621 -0.18781862
000150 4d d4 84 bc 25 5d c1 bd 2d 90 30 be b3 26 e2 bd
       -0.016214514 -0.09441594 -0.17242499 -0.110425375
000160 9a 92 68 3e 5d 2a 8f 3e 0f 88 6b be c0 9a c0 bd
       0.22712174 0.27962008 -0.23001121 -0.09404516
000170 c4 74 e2 bc 58 af 0c 3e 9e 4d 14 3e 8a c4 09 3e
       -0.027643569 0.13738763 0.14482734 0.1345388
000180 d6 1a 0f 3e 0e d1 53 3e 5e ba a1 3e dc 60 c6 3d
       0.13975081 0.20685217 0.315875 0.09686443
000190 f2 c6 02 be ab 05 d2 be 5b 41 96 bd b4 e3 a4 be
       -0.12771204 -0.4101995 -0.07336684 -0.32204974
0001a0 44 94 a6 3c 4c ae c3 bd a1 ec 34 be 6d 5d ba 3d
       0.02033437 -0.09554729 -0.17668392 0.09099851
0001b0 74 e5 c7 3e 4f ba 96 3d 80 98 47 3f fd 5e 24 be
       0.39042246 0.07359754 0.7796707 -0.1605186
0001c0 91 7e 8c bf 05 42 05 bf e1 db 0f bd 18 23 04 3f
       -1.0976125 -0.5205386 -0.035121802 0.5161605
0001d0 3e b4 ed 3c 96 99 6d 3e d5 5c de 3e 8b 03 08 3f
       0.02901661 0.2320312 0.434302 0.53130406
0001e0 51 33 5e be b4 1b 3a 3e de 32 b2 3d 46 1a 74 3e
       -0.21699263 0.1817463 0.087011084 0.23838148
0001f0 13 44 18 3f ce fc 1e be de 2c 80 be 6d d4 6e 3e
       0.59478873 -0.15526125 -0.2503423 0.23323222
000200 94 b9 c7 be d2 49 6a 3f 2f 88 b3 3d 3d 0d 05 be
       -0.39008772 0.9151889 0.08766209 -0.12993331
000210 46 de 8f 3f 41 29 3f 3e cc bc a9 3e 80 99 4b 3f
       1.1239707 0.18668081 0.33151853 0.795311
000220 2e fe 93 3f 70 1b 25 3f d2 a6 e1 bd 83 74 f3 3d
       1.1561944 0.6449499 -0.110181466 0.11887457
000230 12 6c 08 bf 34 6b 31 3f 45 74 4e bf ef 96 70 3e
       -0.532899 0.69304204 -0.80646163 0.23495077
000240 db 90 ef 3e 25 cc f3 be ef 77 c9 bd 61 9e a3 3c
       0.46790203 -0.47616687 -0.09837329 0.019972982
000250 5e 35 c8 bd d2 35 1d 3d 97 cb 35 be 9c 02 2d bf
       -0.09775804 0.038381405 -0.17753445 -0.67582107
000260 87 2d 5b 3f 2d bb 1b bf c9 a5 92 3d d7 bf 75 3e
       0.85616344 -0.6083248 0.07160527 0.23998962
000270 df 30 94 3e 4e ac 6f be 00 7f fa bd 63 08 16 3e
       0.28943536 -0.23405573 -0.122312546 0.14651637
000280 fc 41 43 be e4 aa 51 bf f6 62 71 3f 0b ce ee 3e
       -0.1906814 -0.81901383 0.9429163 0.46641573
000290 d2 df a6 bd 96 4c ba bd d3 e9 00 be dd 7f 8d be
       -0.08148159 -0.09096639 -0.12589197 -0.27636614
0002a0 aa 28 88 bf 77 5a 43 bf 6b f7 3e bf b6 1c 50 bd
       -1.063741 -0.76309913 -0.7459628 -0.05080863
0002b0 0f 32 3b 3e 5d 68 2c be 9a c4 74 be 05 08 a6 3e
       0.18280815 -0.16836686 -0.23903123 0.32427993
0002c0 a5 cd af 3d c0 fd 5f 3e 9f ff b0 be b1 6b 6c bc
       0.085841455 0.21874142 -0.34570023 -0.0144299725
0002d0 95 aa 6e bd 6b 29 89 bf 90 5c b2 3e 44 df d3 3d
       -0.05826815 -1.0715765 0.34836245 0.10345319
0002e0 0c 08 70 3c f1 d8 d1 bd f7 cc 1b 3f 7e ae 97 bd
       0.014650356 -0.102464564 0.60859627 -0.074063286
0002f0 22 24 56 3f c9 c3 11 bf 1b 29 a6 be 18 54 e9 bd
       0.83648884 -0.5693937 -0.32453236 -0.11392993
000300 f2 f6 57 bd a6 e5 f4 be 29 93 6e bf 09 6d e3 3e
       -0.05272574 -0.47831458 -0.931933 0.44419125
000310 7a db 98 3e fc 1c f6 3e 29 f2 d9 be 3b 61 57 3e
       0.29854947 0.48068988 -0.42567566 0.21033184
000320 f0 bc 47 be 33 6c 55 3f 97 fd 94 3f 64 f7 85 3f
       -0.19505668 0.83368224 1.163989 1.0466123
000330 b6 52 76 3f 19 5d 04 3e 53 c5 3c 3e 29 85 1c bd
       0.96219957 0.12926139 0.18434648 -0.03821293
000340 96 80 4b bf f8 05 1c bf 3b e5 31 bf 7a 70 ea be
       -0.7949308 -0.6094661 -0.694904 -0.45788938
000350 c1 18 a0 be 7c 9b 1a 3e 9d cb 48 3f 3d a9 49 3f
       -0.31268886 0.15098375 0.7843569 0.7877386
000360 c6 11 8e be f6 1f de be 87 9a f9 3c 9c 62 42 be
       -0.27747935 -0.4338376 0.030469192 -0.18982929
000370 34 15 89 3d f6 eb 40 3e 90 b2 40 3e 82 5f b9 3e
       0.06693497 0.18840012 0.18818116 0.3620568
000380 e5 d7 c0 3d fa d5 0d be 4b 27 b9 be 6c a3 c2 bd
       0.094161786 -0.13851157 -0.3616279 -0.095038265
000390 b6 e0 cd bd 20 95 e4 be 7e 0d 00 bf e4 e0 7d be
       -0.10052626 -0.44645023 -0.5002059 -0.2479282
0003a0 fa ac 50 bd 8c b8 00 bf e1 4a c9 3e 05 e5 5c 3e
       -0.050946213 -0.50281596 0.3931494 0.21571739
0003b0 1d af f0 3d 7d 16 b2 bd 31 eb 98 3e 7e 83 0f 3f
       0.1175215 -0.086956955 0.29866937 0.56060016
0003c0 e9 48 28 bc 9a 28 b9 3e e5 9f ac 3e 40 9b 7c bd
       -0.010271289 0.3616379 0.3371574 -0.061671495
0003d0 29 bb 82 bc 4d 37 89 bd 77 df 71 3e dd 30 dd 3e
       -0.015958386 -0.06700001 0.23620401 0.43201342
0003e0 fb 9d 8f be 1f 26 af bd dc 9b ca 3d 71 29 cb be
       -0.28050217 -0.08552193 0.09893009 -0.39680055
0003f0 ff e3 2e be f6 6b 21 be 30 06 4d be 4a 3b 6c be
       -0.17079161 -0.1576384 -0.20021892 -0.23069492

getdensity.emb_neighnn.net.0.weight f4 [64, 118]
000000 4a 60 1e 3e 4e 04 b6 3c 3b bd cf bd 9f 46 10 be
       0.15466419 0.02221885 -0.10143515 -0.1408944
000010 91 a1 cb 3c c5 63 08 be 01 80 ee bc 7e 95 b4 bd
       0.024857314 -0.13319309 -0.029113771 -0.08817576
000020 3d fb 15 3e 56 48 55 be 63 6e d4 3d 22 12 09 3e
       0.14646621 -0.20828375 0.10372617 0.13385823
000030 fc 23 0b 3e e0 25 00 be 65 3e 0f be 97 51 09 bd
       0.13587946 -0.12514448 -0.13988645 -0.033525076
000040 d3 fb 61 bd 17 56 c9 3d 36 76 80 bd 3c 93 17 be
       -0.0551718 0.098308735 -0.06272547 -0.14802259
000050 6b ed 29 bd 67 e6 23 be 4f eb 17 3e c8 9b b4 3d
       -0.041486185 -0.1600586 0.14835857 0.088187754
000060 13 fb ee bd e2 0a 8c bd aa b4 44 bd f7 81 ad 3d
       -0.11668982 -0.06838013 -0.048023857 0.084720545
000070 d9 bd a0 bd c9 0f f2 bd 9b 11 49 3d b4 d9 09 3e
       -0.078487106 -0.11819417 0.049089056 0.13461953
000080 7c 0d 0c be 59 97 7b bd e4 6a c4 3d 53 fe 7d 3c
       -0.13677019 -0.061423633 0.095907 0.01550253
000090 80 3e 37 3e 33 80 19 3e aa 82 20 3e 1d a4 82 bd
       0.17894936 0.1499031 0.15674844 -0.063789584
0000a0 a6 ae e4 bd f7 8a 05 bd 34 a8 a9 bd 28 36 d7 bd
       -0.11166124 -0.03260323 -0.08284035 -0.10508376
0000b0 40 13 01 3e 0e f0 ac 3b f3 2e cc bd d7 aa a8 bc
       0.12605 0.00527764 -0.09969892 -0.020589275
0000c0 c0 ab 0e 3d 0a 47 03 3d d6 ff a9 bd b9 ec 10 3e
       0.034831762 0.03205017 -0.0830075 0.14152803
0000d0 28 9e 18 bd a8 ca ce bd 58 fb 8d bd c6 31 2a be
       -0.037260205 -0.10097247 -0.06932706 -0.1662055
0000e0 9a be 01 bd e0 d0 d9 bd 05 88 3e bc c5 d0 24 be
       -0.031675912 -0.10635543 -0.011629109 -0.16095264
0000f0 a0 44 dd bc fe de c0 bd 7f 23 1a be 15 68 39 be
       -0.027010262 -0.094175324 -0.15052603 -0.1810611
000100 6f ed 83 3d 5e 68 7b 3d 7b 57 15 be ff a6 c0 3d
       0.06441771 0.06137883 -0.14584152 0.09406852
000110 7c c6 9b 3d 4f 89 83 3d f4 f6 0c be 4a 2c 1e 3d
       0.07606217 0.06422674 -0.1376608 0.038616456
000120 a7 ba f8 3d 6a 3b a7 3d e1 78 22 3e a8 c4 c0 bd
       0.12144976 0.08165629 0.15866424 -0.09412509
000130 a0 df dc 3c 81 2d 0a 3e 8a 88 89 bd e5 ac 13 be
       0.026962101 0.13493921 -0.06715496 -0.14421423
000140 4c 00 ce 3d 82 92 bd 3d 40 b4 fc 3d d6 ee 2a be
       0.100586504 0.0925646 0.123390675 -0.16692671
000150 41 80 17 bd 00 ed 21 3e b3 b3 1d 3e 3b 4e 1f bd
       -0.036987547 0.15813065 0.15400581 -0.038892966
000160 b1 4a 8f bc 99 1e 93 bd 10 47 d7 bd 06 d1 bf 3d
       -0.01749167 -0.071835704 -0.10511601 0.0936604
000170 ec b3 03 be cb 36 11 3e b0 cd 01 be 4b 11 f6 3c
       -0.12861603 0.14181058 -0.1267612 0.030037543
000180 78 8b 1a be cb 46 d9 3d f6 69 0a 3e ea 0a cd bc
       -0.15092266 0.10609206 0.13516983 -0.025029618
000190 c5 5c ea 3d 6b d1 c4 3d 66 bc 80 bd 56 83 b2 3d
       0.11443476 0.09610256 -0.06285934 0.087164566
0001a0 4c a9 98 3c 82 b3 b3 3d 81 75 2a 3e 70 9a 2c 3e
       0.018635415 0.08774473 0.16646387 0.16855788
0001b0 f2 24 f3 bd 6d 69 2b be ca ed d9 3d 02 e8 26 bd
       -0.11872281 -0.16739435 0.10641058 -0.040748604
0001c0 fc 2c fb 3d e5 11 02 bd e8 68 ce 3d 72 f2 3e bc
       0.122644395 -0.031755347 0.10078603 -0.011654483
0001d0 29 21 17 3e 19 e7 a4 bd 9b 3b 07 be 16 d8 25 bd
       0.14758743 -0.08051891 -0.13206331 -0.04048928
0001e0 0c 36 53 be ae 4f c5 bd eb 8d f4 3d 5d 2a d1 bd
       -0.20626086 -0.09634338 0.11941131 -0.10213158
0001f0 09 47 2f bd 4f 8b 01 3e 5a e0 e7 bd 16 c1 81 be
       -0.042792354 0.12650798 -0.113220885 -0.25342625
000200 3f af 9a bd b3 42 35 3d ab b2 eb 3d 03 c8 c3 3c
       -0.07552957 0.044253062 0.115086876 0.023899084
000210 2b 32 86 bb e3 e1 d1 3d bc 4d ec 3d ef 99 04 bd
       -0.004095336 0.102481626 0.11538264 -0.032373365
000220 c7 0b 11 bd d0 cd ba 3d 41 8b 0a be 39 2a e9 bd
       -0.035411622 0.09121287 -0.13529684 -0.113850065
000230 c8 d5 94 bd 6a db 2f 3e cb 65 29 3e b0 43 28 be
       -0.07267338 0.17173544 0.16542737 -0.1643207
000240 a3 f2 8b 3d b9 64 83 3d ed c9 17 3e 15 55 29 3e
       0.06833389 0.06415696 0.14823122 0.16536362
000250 4c 70 27 bd b7 e6 84 bc 7d 1d 2c 3d 76 7f 2a 3e
       -0.04087858 -0.016223295 0.04202031 0.16650185
000260 a3 b1 c3 bd 40 99 27 be 53 f9 10 3d 1e ed 59 bd
       -0.09555366 -0.16367054 0.035394024 -0.05320465
000270 d0 a0 e1 bc 61 ba 6a bc b7 c1 4e 3d 6a a3 d7 3d
       -0.027542502 -0.014326663 0.05047771 0.10529216
000280 f8 96 a2 bd 6a b4 d3 3d d3 8a 43 bc 12 0d 16 3e
       -0.07938951 0.103371456 -0.011934954 0.14653423
000290 03 25 07 3e f0 f2 2f 3e 3f 15 c2 bb e2 b1 4b bd
       0.13197713 0.17182517 -0.005922943 -0.04973019
0002a0 d9 ca dd 3c e7 12 16 be f9 91 d8 3d 50 ba de bb
       0.027074264 -0.14655648 0.10574717 -0.0067971125
0002b0 7c c7 0f 3e eb 80 32 bc 25 39 90 bd 0e 3d c6 3b
       0.14040941 -0.010894994 -0.070421495 0.0060497588
0002c0 c4 af 22 bc 80 ca 38 be 6c b8 cd bb cd ec 32 3e
       -0.009929601 -0.18045998 -0.0062780883 0.17473145
0002d0 85 eb 08 3e 4b 9d 8f bd 3a f9 66 bd 83 cd ec 3c
       0.13371094 -0.07012423 -0.056390025 0.02890659
0002e0 4b 5f 03 be 3c 6f 26 be 30 05 26 be 4d 16 d7 3d
       -0.1282932 -0.1625337 -0.16212916 0.105023004
0002f0 91 28 20 3e bb 36 00 be 21 19 11 be ee 2b 61 bd
       0.15640475 -0.12520878 -0.14169742 -0.054973535
000300 b9 c7 f8 3d 93 da 86 bd 42 36 d5 3d af 93 5c 3d
       0.12147469 -0.065846585 0.104107395 0.05385178
000310 c2 a5 a0 3b ca d2 e6 3d 1c ae 91 3d 61 e7 d0 bd
       0.0049025724 0.112706736 0.07113287 -0.10200382
000320 5c d6 a0 3d 44 70 ef 3d f5 fc 00 be 25 31 0d 3e
       0.07853386 0.11691335 -0.12596495 0.13788278
000330 6b 95 08 bd a8 c5 ab bd 8c fc 1d 3e 23 84 dc 3d
       -0.03334562 -0.08387309 0.1542837 0.107673906
000340 7a 0a d6 bd 2a 69 0e 3e 9d 42 24 be 7b ea 20 3e
       -0.10451217 0.13907304 -0.16041036 0.15714447
000350 ec ee 5a bd c9 93 e0 bd 8f ed 38 3e be 36 fa 3b
       -0.05345051 -0.10965688 0.18059371 0.0076359203
000360 38 ad 08 3e 55 b5 e3 bd a4 68 e3 bc 2d 04 f3 3d
       0.13347328 -0.11118571 -0.027759857 0.11866031
000370 e5 8a 1b bd 19 2e 50 bc 71 cf e0 3d 75 d0 02 3e
       -0.037974257 -0.012706303 0.10977066 0.12774833
000380 e3 90 e1 bd 01 f9 08 3e 8f 3b 79 bd 8a 5d 9e 3b
       -0.11013963 0.13376237 -0.060847815 0.004832928
000390 06 af c1 3b f8 b1 81 bd 9f 8b 39 3c 16 37 d8 bc
       0.005910757 -0.06332773 0.011324792 -0.026393455
0003a0 e1 5c 1f be fc c5 bc 3d d5 9f 9a bd b7 8b 19 3c
       -0.15562774 0.0921745 -0.07550017 0.0093716895
0003b0 bf 76 ca bd e8 50 33 bc 6c fb 82 3e 7c 28 2d be
       -0.0988593 -0.0109445825 0.25582445 -0.16909975
0003c0 48 b5 24 bd db 6f f9 bd 06 c5 32 be 03 f1 62 bd
       -0.040211946 -0.12179538 -0.17457971 -0.055405628
0003d0 e4 2b 8a bd ae ad 96 bc c4 74 bc 3d 9b db ee bd
       -0.06746653 -0.018393364 0.09201959 -0.1166298
0003e0 97 19 71 3d 5e 91 ef 3d 42 35 d2 3d ed db ec bd
       0.058862295 0.116976485 0.10264064 -0.11565385
0003f0 5f 05 00 be 08 6f ea 3b 43 f0 cf 3d 0a a3 47 bd
       -0.12502049 0.0071543492 0.10153248 -0.04873947

getdensity.emb_neighnn.net.0.bias f4 [64]
000000 93 77 d5 bd 49 17 57 bd 26 69 1e 3e 9b c0 10 bd
       -0.104231976 -0.05251244 0.15469798 -0.035339933
000010 b1 fc c3 3d aa c8 33 3e 48 97 88 3c cc ea 15 3e
       0.095696814 0.17557016 0.016673699 0.14640349
000020 e4 33 17 be 91 6c ff bd 71 ff e0 bd be cb 42 3d
       -0.14765888 -0.12471879 -0.109862216 0.047557585
000030 3e c8 18 bd a8 9f 65 3d 03 45 bf bd c7 bd c6 3d
       -0.03730034 0.056060463 -0.09339335 0.09704166
000040 0d 08 d5 3d 94 07 67 3d 18 84 be 3d 88 43 0e 3e
       0.10401926 0.05640371 0.09302539 0.13892949
000050 9c 99 81 b8 af f5 f4 3c fa 83 94 bd d9 99 08 bd
       -6.179811e-05 0.029902307 -0.07251735 -0.033349846
000060 95 89 c9 bd bf 45 13 be cf cc 07 be 98 a3 78 3d
       -0.09840695 -0.14382075 -0.13261722 0.06070289
000070 25 30 44 3d e0 77 0b be 80 23 17 3d e3 c8 10 be
       0.047897477 -0.13619947 0.03689909 -0.14139132
000080 61 ab cc bc 12 df e3 bd 38 e5 0a 3e bb 3b 51 3d
       -0.024984064 -0.11126532 0.13564003 0.051082354
000090 f4 11 6f 3e 8a 60 99 bc 13 f1 84 3d 22 c3 a4 bd
       0.23346692 -0.018722791 0.06491294 -0.08045031
0000a0 b9 73 ad 3c e6 41 d6 bd fe 86 6f 3e cd 5c aa bd
       0.021173345 -0.10461788 0.23391339 -0.083184816
0000b0 86 21 99 3d f0 b4 d1 3b 9d 50 57 bd cb f9 e7 bd
       0.07477097 0.0063997433 -0.052567113 -0.11326941
0000c0 ed 46 c4 3d e4 6e 2e be 41 ac 33 3e bb 18 70 3c
       0.095838405 -0.17034489 0.17546178 0.014654334
0000d0 b1 44 0a 3e 42 7e 89 3d ea 8e d2 bc 63 8f 33 3e
       0.13502766 0.06713535 -0.025702912 0.17535166
0000e0 63 fa 4c be 53 a2 e5 bd 9f 58 25 3e 98 5c e9 3d
       -0.2001739 -0.112126015 0.16147088 0.11394614
0000f0 e8 8f 12 3e 75 2d 35 be 22 a3 31 be 1a bd 42 3d
       0.14312708 -0.17693122 -0.17347386 0.047543623

getdensity.emb_neighnn.net.4.alpha f4 [1, 64]
000000 8c ea 8d 3f 66 3d 88 3f 85 ea 8d 3f 3f 6d 8f 3f
       1.1087203 1.0643737 1.1087195 1.1205214
000010 1e 75 8a 3f 0a aa 8d 3f 1c d8 8d 3f 98 bd 8c 3f
       1.0816991 1.1067517 1.1081576 1.099536
000020 ba 58 88 3f 22 fc 8c 3f 76 51 8e 3f 1d 50 8e 3f
       1.0652077 1.1014445 1.111861 1.1118199
000030 46 54 87 3f 6b b4 93 3f bc bb 86 3f 02 2f 89 3f
       1.0572593 1.1539434 1.0526042 1.0717471
000040 f0 44 8a 3f 93 bf 8d 3f 6a a8 8b 3f 4e c4 87 3f
       1.0802288 1.1074089 1.0910771 1.0606782
000050 62 cd 8c 3f 1c 7c 86 3f 6c 9a 8a 3f d6 28 87 3f
       1.1000178 1.0506625 1.0828376 1.0559337
000060 99 31 88 3f f4 32 8d 3f 39 2e 93 3f 7a a7 9d 3f
       1.0640136 1.1031175 1.1498481 1.2316735
000070 dc 18 9c 3f 7e f3 86 3f be db 87 3f d6 1d 8f 3f
       1.2195086 1.0543058 1.0613935 1.118098
000080 df 23 89 3f 74 92 86 3f ac 1e 86 3f 17 3d ac 3f
       1.0714072 1.0513444 1.047811 1.3456143
000090 7a 28 9c 3f 4e a6 8a 3f d5 00 88 3f 31 e1 8a 3f
       1.2199852 1.0832002 1.0625254 1.0849973
0000a0 91 a6 87 3f 45 b2 86 3f c1 ad 9d 3f 2d a9 89 3f
       1.0597707 1.0523154 1.231865 1.0754753
0000b0 30 09 87 3f 9a f8 88 3f 6c 19 8e 3f e5 87 86 3f
       1.0549679 1.0700867 1.1101508 1.0510222
0000c0 45 73 8e 3f ec b0 90 3f cc 0f 8d 3f 9c cd 8a 3f
       1.1128927 1.1303992 1.1020446 1.0843997
0000d0 27 37 8e 3f be c3 92 3f 20 a3 94 3f 18 e2 91 3f
       1.1110581 1.1465986 1.1612282 1.1397123
0000e0 90 40 96 3f b0 7a a9 3f d5 bf 8f 3f 8d 67 8e 3f
       1.1738453 1.3240566 1.1230417 1.1125351
0000f0 92 0d 89 3f 49 7e 8b 3f 99 80 8a 3f d8 cb 89 3f
       1.0707266 1.0897914 1.0820495 1.0765333

getdensity.emb_neighnn.net.4.beta f4 [1, 64]
000000 7d 2c e7 3d 6c d7 95 3d 74 08 c1 3d 8a d4 fe 3d
       0.11287782 0.07316479 0.094254404 0.12442882
000010 9e 01 b2 3d ea 06 e6 3d f6 86 be 3d 20 f6 ae 3d
       0.08691715 0.112317875 0.093030855 0.08543038
000020 47 47 82 3d a1 01 c3 3d 15 53 e2 3d 58 6a e6 3d
       0.06361251 0.09521795 0.11051003 0.11250752
000030 7e a6 7f 3d 76 ea 20 3e 81 74 76 3d f1 51 83 3d
       0.06241464 0.1571444 0.0601697 0.064121135
000040 e1 e7 b0 3d e3 81 d5 3d fe f8 c6 3d 2c 11 89 3d
       0.086379774 0.104251646 0.0971546 0.066927284
000050 f6 e1 26 3e 39 aa 58 3d 15 06 8b 3d 2c 3a 6e 3d
       0.16297135 0.052896712 0.067882694 0.058160946
000060 d7 0b 80 3d bf da db 3d e4 a5 17 3e 71 b0 8d 3e
       0.06252258 0.10735082 0.14809376 0.27673677
000070 cd d2 91 3e 93 79 3e 3d 29 97 89 3d 2e b9 c1 3d
       0.2848114 0.04650266 0.06718285 0.09459148
000080 4e 73 a0 3d 3f c1 65 3d 08 3f 51 3d 14 8d ec 3e
       0.078344926 0.056092497 0.051085502 0.46201384
000090 ea c2 34 3e 87 4e 8b 3d 78 b4 76 3d 2b 60 9e 3d
       0.17652479 0.06802087 0.060230702 0.07733186
0000a0 9e 09 65 3d 16 29 39 3d a3 b8 40 3e 99 58 93 3d
       0.055917375 0.0452052 0.18820433 0.07194633
0000b0 60 55 5d 3d 9b cb 92 3d a2 30 e9 3d 85 2e 6f 3d
       0.054036498 0.07167741 0.11386229 0.058393974
0000c0 c4 9c ee 3d e8 c3 ff 3d dc 35 dc 3d 98 a4 97 3d
       0.116509944 0.12488538 0.1075246 0.07404441
0000d0 63 f7 c5 3d 53 47 fd 3d 81 55 2a 3e 27 f0 f6 3d
       0.09666326 0.1236712 0.1663418 0.12057524
0000e0 16 df 09 3e ea 81 ce 3e 4e 2b e1 3d ee e7 ee 3d
       0.13464007 0.40333492 0.10994588 0.11665331
0000f0 1e 79 82 3d 96 68 c5 3d 2c e6 b6 3d 42 3e a7 3d
       0.063707575 0.09639089 0.089306206 0.081661716

getdensity.emb_neighnn.net.5.weight f4 [24, 64]
000000 f8 fb 02 3d 7c 31 a2 3c bb 3e 20 bc cc c4 d7 3d
       0.031978577 0.019798987 -0.009780581 0.10535583
000010 65 b3 ab bc 71 3c d5 bc d2 36 3c bc 65 d8 59 bc
       -0.020959565 -0.026029797 -0.01148768 -0.013296221
000020 24 be 96 3c 38 36 01 3d 50 32 1b 3d 0c 33 ca bc
       0.018401213 0.031545848 0.03788978 -0.024682544
000030 9f 63 98 3c 48 d2 42 bd fc c7 98 3c 8d c1 36 bc
       0.01860219 -0.04756382 0.018650047 -0.011154545
000040 c0 8e ad bc 1e d1 fa bc 4d d0 ba bc 21 05 9b bc
       -0.021186233 -0.030617293 -0.022804404 -0.018923344
000050 f1 af 0f 3e 3d 20 80 bc 0e 7b a5 3c aa be 95 3c
       0.1403196 -0.015640372 0.020200279 0.018279392
000060 05 7e 96 3c 56 4a d4 3c 6c 05 96 3d 4d ad 48 bc
       0.018370638 0.025914352 0.07325253 -0.012248349
000070 c4 f4 56 3d ef e9 a5 3c d2 9a 99 bc 94 21 9e 3c
       0.05247952 0.02025315 -0.018750582 0.01930312
000080 46 cd a4 3c 65 5e 97 3c 5f 0c 80 bc 4a 19 cd 3d
       0.020117413 0.018477628 -0.015630899 0.10014589
000090 f3 8f 23 bb ef ad a9 3c b5 b7 80 bc a6 91 9c 3c
       -0.0024957627 0.02071282 -0.015712598 0.01911242
0000a0 82 d9 60 bc 8b e0 a1 3c ac f0 ac bb 2b 58 9a 3c
       -0.013723733 0.01976039 -0.0052777138 0.01884087
0000b0 29 43 71 bc 5d f5 93 bc 45 56 11 3d 70 87 98 3c
       -0.014725485 -0.018061334 0.035482664 0.01861927
0000c0 15 dd fd bc 5b 37 85 3d 48 72 cb bc 61 b4 39 bc
       -0.03098921 0.06504699 -0.024834767 -0.01133451
0000d0 dd a9 1b 3b ba fe 34 bc 35 7b 3a bd c9 0d 29 3c
       0.002375237 -0.01104706 -0.045527656 0.010318228
0000e0 65 eb cd 3c 7b 46 62 3e e5 c0 4b 3c 16 3e fa bc
       0.025136659 0.22097199 0.012436126 -0.030547183
0000f0 cf 8e 2d bc 8b 9f c3 3c a3 87 b5 3c 85 c6 a4 bc
       -0.01059313 0.023879787 0.022159403 -0.020114193
000100 90 02 e1 bb 0f 28 0b bc c4 a9 92 3b 6f ae 11 3d
       -0.0068667606 -0.008493437 0.004475804 0.035566743
000110 64 c7 0c 3c 12 77 fb 3b 47 01 85 3b 7b fe 88 3b
       0.00859246 0.0076741064 0.00405899 0.004180727
000120 18 c4 be bb ff e1 be 3c 4a 07 a2 3c 9c 5d c0 3b
       -0.005821716 0.023301123 0.019778866 0.005870534
000130 07 e6 f3 bb 73 72 bd bb 71 40 fd bb fc 5f dc 3b
       -0.007443193 -0.0057814657 -0.0077286293 0.0067253094
000140 d0 b3 0d 3c e0 9d 47 bd 5c c2 0a 3c cd 28 06 3c
       0.008648828 -0.048734546 0.00846919 0.008188439
000150 41 d4 d3 3c d4 aa f1 3b f0 2f 40 bb f6 c9 d9 bb
       0.025858046 0.0073751006 -0.0029325448 -0.00664639
000160 c7 e7 c0 bb 25 77 f0 bb c4 82 c8 b9 45 62 91 bc
       -0.005887005 -0.007338422 -0.000382444 -0.017747054
000170 47 37 c8 bc 37 3f ae bb 88 a2 06 3c 88 f0 99 3c
       -0.02444042 -0.0053175944 0.008217461 0.018791452
000180 cf fc 0b bc 1a 0e e9 bb f5 f6 f7 3b 4a f7 3c 3e
       -0.008544161 -0.0071122767 0.0075672814 0.18453708
000190 6e a0 70 bc dc ab 3c bb 25 5e d2 3b 60 83 8b bb
       -0.014686687 -0.002878896 0.0064199143 -0.0042576045
0001a0 70 8a d4 3b 0d 28 b3 bb f4 20 3b bc 3b d9 a7 bb
       0.0064862296 -0.005467421 -0.011421431 -0.0051223314
0001b0 8a c9 de 3b 37 4d fe 3b e6 22 e2 bb c6 32 f9 bb
       0.0067989277 0.0077606696 -0.006901133 -0.0076049296
0001c0 e8 e0 da 3b 67 93 a4 3c df 6f 02 3c 85 03 c2 3b
       0.006679643 0.020089818 0.007961242 0.0059208297
0001d0 46 5f b9 bc 1f 41 be 39 bf 4a 1f bc 76 d0 9a bc
       -0.022628438 0.00036288143 -0.009722411 -0.01889823
0001e0 2f 76 11 3c 66 b0 7d 3b 8f 0e b0 bc 5f 8e df 3b
       0.008878275 0.0038709878 -0.021491317 0.006822392
0001f0 70 82 e6 3b 72 82 0c bc 82 84 0e bc 6f 9a 0b 3c
       0.0070345923 -0.008576022 -0.0086985845 0.008520707
000200 70 97 d4 bb 90 a7 71 bb 42 01 77 3b 69 af 35 bc
       -0.0064877793 -0.0036873557 0.0037689959 -0.011089184
000210 8b 5f 80 3b df 0c 3a 3b 63 67 84 3b 9d 0b 88 3b
       0.0039176396 0.002838902 0.004040645 0.004151775
000220 5a 16 8a bb 6a a8 5d bc de 03 8c bc 1d 59 bb 3b
       -0.0042140903 -0.013528923 -0.017091688 0.0057174102
000230 a8 e4 81 bb dc 72 2b 3d ef f1 7b bb d3 b3 67 3b
       -0.0039640255 0.041857585 -0.0038443764 0.0035354986
000240 1b 57 75 3b 85 7e f5 3c cb 53 65 3b bf 8c 7b 3b
       0.0037435952 0.029967556 0.0034992571 0.0038383452
000250 c9 fb ef bd e9 18 77 3b f7 3b a6 bb e8 94 83 bb
       -0.11717946 0.0037704057 -0.0050730663 -0.0040155537
000260 c1 60 89 bb ac e6 a3 bb f0 0e 08 bd 90 94 4d be
       -0.004192442 -0.0050018635 -0.03321737 -0.20076203
000270 be b2 05 be 7c cd 97 bb 44 b7 7c 3b be 6c a2 bb
       -0.13056466 -0.00463265 0.0038561383 -0.0049568107
000280 56 c1 7a bb 16 2e 81 bb c3 24 74 3b f0 20 92 bc
       -0.003826221 -0.0039422614 0.0037253357 -0.017837971
000290 9d c4 45 3b 31 21 ad bb 5b 6c 81 3b 77 4a 96 bb
       0.0030177005 -0.0052834977 0.0039496846 -0.0045865136
0002a0 99 07 76 3b 1b 5a 92 bb 0d 0b 81 3b 4a 2b 8f bb
       0.003754115 -0.004466308 0.003938085 -0.004369174
0002b0 8f 62 76 3b 73 72 84 3b 76 d1 ef bb f3 7e 7d bb
       0.0037595367 0.0040419637 -0.007318671 -0.0038680404
0002c0 b7 86 bb 3b 7a 2e 38 bd e0 2d 56 3b 1b 1a 74 3b
       0.0057228464 -0.0449662 0.0032681152 0.0037247005
0002d0 f4 55 d4 3a 91 df 91 3b 4f 55 eb 3c d3 25 ee 39
       0.0016199932 0.0044517 0.028727202 0.0004542308
0002e0 f5 c3 e2 bb c4 49 b3 be ff c6 af 39 2d ae a0 3b
       -0.0069203326 -0.35017216 0.00033526865 0.004903576
0002f0 d4 ed 61 3b 9d d3 81 bb 60 e0 76 bb e4 a5 80 3b
       0.0034474032 -0.003961994 -0.003767036 0.0039260257
000300 44 55 1e 3c d3 60 fe 3b 17 16 08 bc 15 1a 8a 3a
       0.009663884 0.007763007 -0.008306048 0.0010536338
000310 84 7f 00 bc 63 a2 f6 bb 7f df 0b bc db 52 0d bc
       -0.007842902 -0.007526682 -0.008537172 -0.008625711
000320 f1 a5 e6 3b 7c 2c 85 3c fd e3 96 3c 63 7d 2b bc
       0.0070388247 0.016256563 0.01841926 -0.010466906
000330 a0 38 f8 3b a9 89 7a bc 6b 22 f4 3b 37 5e 11 bc
       0.0075751096 -0.01529161 0.007450392 -0.00887256
000340 ca 4f fe bb 1e 32 df bc 5a f7 f9 bb 68 6a 08 bc
       -0.0077609764 -0.027245577 -0.0076283636 -0.0083261505
000350 69 9a a5 bc 3a ab 12 bc ba d1 ef 3b 37 2d ea 3b
       -0.02021523 -0.008951956 0.0073187025 0.0071465033
000360 cc c3 e6 3b 06 d4 12 3c a5 51 10 3c 8a 8c 50 3d
       0.007042384 0.008961683 0.008808528 0.05091528
000370 d6 d4 37 3d e5 c6 ff 3b 6e bc 08 bc da f2 35 3c
       0.04488071 0.0078056925 -0.008345706 0.011105264
000380 ea a4 fe 3b a9 bb ea 3b 1d 0f 13 bc 4f 77 af 3c
       0.007771124 0.007163484 -0.008975771 0.021419195
000390 cf 5f 11 bc 08 c8 f7 3b b3 e4 11 bc e7 bf da 3b
       -0.00887294 0.0075616874 -0.008904624 0.0066757086
0003a0 20 8c 15 bc fa dc fa 3b e2 55 11 bc 77 57 e4 3b
       -0.009127647 0.007655737 -0.008870574 0.0069684344
0003b0 d7 7b 14 bc f7 17 09 bc f2 fd 1f 3c 35 69 f0 3b
       -0.009062729 -0.00836753 0.009765135 0.0073367604
0003c0 3d 4a 20 bc eb 6f f6 3c 41 6e fa bb 4a 94 0e bc
       -0.009783325 0.030082664 -0.007642538 -0.008702347
0003d0 0c 0e 1c bc 68 92 0b bc 68 da 3f bc 2a 9c d5 bb
       -0.009524833 -0.008518793 -0.011709787 -0.0065188603
0003e0 7f 91 0a 3c fc 36 b3 3c ad 0d ca bb 9a 88 0f bc
       0.008457541 0.021876805 -0.006166181 -0.008760596
0003f0 7f 8f 0f bc 3b 7f 06 3c 00 aa 02 3c 8f 36 02 bc
       -0.0087622395 0.008209045 0.0079751015 -0.007947578

getdensity.emb_neighnn.net.5.bias f4 [24]
000000 a4 35 9f bc f4 a7 5e 3c 76 bd 82 bb 5d 4f a4 bb
       -0.019434758 0.013589848 -0.0039898707 -0.0050143437
000010 d4 86 5f 3c 6a 99 c4 3c 9b 9b df bc e3 b4 72 3c
       0.013642985 0.023998935 -0.027295878 0.014813635
000020 46 54 7c 3f 08 ca 88 3f 4f 4b 65 3f 01 fa 82 3f
       0.9856609 1.0686655 0.89568037 1.0232545
000030 67 3a 80 3f 95 de 8f 3f e6 1a 8e 3f 5e f6 77 3f
       1.0017823 1.1239802 1.1101959 0.968603
000040 d9 a3 dd 3f 79 b4 22 3e 7f 01 c1 3f 9b 21 d2 3f
       1.7315627 0.15889157 1.5078582 1.6416506
000050 31 98 ba 3f a5 f0 78 3f af 00 7b 3f 77 c3 aa 3f
       1.4577695 0.97242194 0.9804792 1.3340901

getdensity.emb_centernn.net.0.weight f4 [64, 118]
000000 3f 20 a5 3d 89 ae 46 bd e9 46 c9 bd 1c 94 1f 3e
       0.08062791 -0.048506293 -0.09827978 0.15583843
000010 c3 7a bb bd 1c f5 c5 bd 6d 24 30 be 21 1b 22 be
       -0.09154274 -0.096658915 -0.17201395 -0.15830661
000020 c7 19 a5 bc 6e af c9 bd a9 8d 1b 3e 95 07 66 bd
       -0.020153893 -0.09847914 0.15190758 -0.056159575
000030 78 41 1b be 9f 28 17 be 9c 72 2d be 36 9d 31 be
       -0.15161693 -0.1476159 -0.16938251 -0.17345127
000040 f6 f2 05 3d 8d 2f b4 3c 07 58 f2 3d 27 dc 00 be
       0.03270241 0.02199533 0.11833196 -0.12583981
000050 61 b2 a6 bd 5c ad 3a 3d 46 91 1f bd 75 24 99 bd
       -0.08139492 0.045575485 -0.038956903 -0.07477657
000060 a7 aa 21 3e 22 ec 42 3d 5d 6e 4b bd ed 89 ce 3d
       0.15787755 0.047588475 -0.049665798 0.10084901
000070 1a 32 79 3d 23 68 a0 3d b0 e3 e9 3d ff b1 5d bd
       0.060838796 0.078323625 0.11420381 -0.05412483
000080 bb 8e 36 3e dd 6e 2d 3d 2a e0 b7 3c da af 16 be
       0.17827885 0.042342056 0.022445757 -0.1471552
000090 4d 5b c1 bd ad a8 f2 bb a0 58 a7 bd f3 46 52 bd
       -0.09441242 -0.0074053616 -0.08171201 -0.051337194
0000a0 b3 87 eb bd 5f b8 21 3e 9b b3 e5 3d af 4b 37 bd
       -0.11500492 0.15792988 0.11215898 -0.044749912
0000b0 d3 65 0a bd 76 f8 30 3c 6d 4f 32 be b4 e2 ff bc
       -0.033788513 0.010801425 -0.17413111 -0.03123603
0000c0 aa 28 d9 3d 9a 00 8b 3d b1 72 8c 3c b3 7a 9f 3d
       0.10603459 0.06787224 0.017144533 0.07787075
0000d0 0b 35 e8 3c 72 69 81 3d 34 da f0 3d ad 1a 19 be
       0.028345605 0.0631894 0.11760369 -0.14951582
0000e0 6b ef 1a be 06 3c 4f bd 11 34 cc 3d b5 bd 13 3e
       -0.15130393 -0.050594352 0.099708684 0.14427836
0000f0 db c2 80 bc cb c7 e1 3d 6a b2 6c 3a b6 61 0c 3e
       -0.015717914 0.110244356 0.00090292713 0.13709149
000100 d1 ff 87 3d d1 47 3c 3d f0 30 71 3d 40 fa 19 3e
       0.0664059 0.045966927 0.05888456 0.15036869
000110 8a 0c 00 3d 49 bb 17 3d 4d fd 1b 3e c3 a1 1f be
       0.03126196 0.037043843 0.15233345 -0.15589051
000120 d4 3c ca 3c c9 42 13 be 4d 85 2c 3e cf 1f 35 be
       0.024687208 -0.14380945 0.16847725 -0.17687915
000130 98 db 8b bd 25 32 da ba 12 8d 24 3e d3 a8 5f bd
       -0.068289936 -0.0016647024 0.16069439 -0.054604363
000140 a7 58 ed bd eb 73 0c 3e f9 8d 99 3d 42 fa f3 3d
       -0.11589175 0.13716094 0.07497782 0.11912967
000150 6b 5a 2b be e9 2c 39 be eb 51 b0 3d df 0b 2b 3e
       -0.1673371 -0.18083538 0.086093746 0.16703747
000160 68 44 da bd ed c5 c1 bd 0c bf 16 3e 47 26 ea bd
       -0.10657579 -0.094615795 0.14721316 -0.11433082
000170 0f ac 74 3c 8f cc ed 3d 13 ea 09 3e 60 40 10 3e
       0.0149336 0.11611282 0.13468198 0.14087057
000180 a7 c2 e1 bd 81 ac df bc 65 06 b5 bd a6 62 8b 3d
       -0.11023455 -0.027303936 -0.0883911 0.06805925
000190 0e 25 c3 3b 07 aa 33 be 12 62 7d 3d 28 58 10 3e
       0.005955345 -0.17545329 0.061861105 0.14096129
0001a0 4f 58 8c bd b1 4b 87 bc ca 97 21 bd b5 a3 eb bd
       -0.06852781 -0.016515585 -0.039451398 -0.11505834
0001b0 18 0f e2 3d cb e4 bd bd 1d 20 8a bd d4 70 bf 3d
       0.11038035 -0.092721544 -0.06744406 0.09347692
0001c0 0b 46 cc bd f7 2d 03 3e b8 02 5e bd 51 27 32 bd
       -0.09974297 0.12810503 -0.05420181 -0.043494526
0001d0 49 c1 25 be 5a 83 f3 bd 95 49 32 be 31 21 00 bd
       -0.16187014 -0.11890288 -0.17410882 -0.031281654
0001e0 28 17 fb bd 66 2d 9e bd cc 9f 27 3e fa 64 2c 3e
       -0.12260276 -0.07723503 0.16369551 0.16835395
0001f0 8e 99 08 3e db d5 0f be 1a 37 2b 3e 62 82 1e 3d
       0.13339826 -0.14046423 0.16720238 0.03869856
000200 9a a4 1b be b9 c0 89 bd 76 76 8b 3d 10 18 14 3e
       -0.1519951 -0.06726212 0.06809704 0.14462304
000210 5f ec df bb 76 e4 64 bd cd fa 04 bd 33 69 82 bd
       -0.0068335976 -0.05588194 -0.032465745 -0.063677214
000220 a4 ad c3 bd 60 f1 d5 bd d6 d0 f5 bd 0b 5d f0 3d
       -0.09554604 -0.10446429 -0.12002723 0.117364965
000230 79 2a 90 3d 68 07 22 3e 60 3d 36 be c9 ef 72 3d
       0.07039351 0.15823138 -0.1779685 0.05931071
000240 89 c0 0a be 77 05 a1 3d bd 8c 1e 3e 6d 04 68 3d
       -0.13550009 0.078623705 0.15483375 0.056644846
000250 69 0a a6 3d 6d 10 a9 3d 5e fd fd bd 1e cc e2 bd
       0.08107454 0.08255086 -0.124018416 -0.110740885
000260 1a 2a 31 bd 96 5f 48 3d 3f 58 1d be f6 4a 1d 3e
       -0.04325304 0.048919283 -0.15365694 0.15360627
000270 be 44 ef bd 68 42 09 bd a5 d5 97 bd 7b 30 d4 3d
       -0.116830334 -0.033510596 -0.07413796 0.103608094
000280 66 45 5c 3c 8e c5 12 be 2c 10 67 3d 48 4a 1c 3e
       0.01344428 -0.14333174 0.056411907 0.15262711
000290 c1 c1 09 3d 5a 94 07 be fb e9 9b 3d 01 06 75 3d
       0.033632044 -0.13240185 0.076129876 0.05982018
0002a0 8e a0 24 be 73 34 0d 3e e4 48 c4 3d d4 16 a4 3d
       -0.16076872 0.13789539 0.09584215 0.080121666
0002b0 16 72 02 3e 0e 84 92 bc 15 30 5f 3c cb 49 bc bd
       0.12738833 -0.017885234 0.0136223035 -0.091937624
0002c0 8f fc 11 bc 53 38 c0 bd d4 e2 3a bd 9d 43 d6 bd
       -0.008910312 -0.09385743 -0.045626476 -0.10462115
0002d0 2f e0 c0 3d 07 f4 0f 3e b0 02 8e bd 17 51 ab 3c
       0.094177596 0.14057933 -0.06934106 0.02091269
0002e0 9a 25 e0 3d 00 81 a5 bc 88 e6 b0 3d 9b 0b ad bd
       0.10944672 -0.020203114 0.0863772 -0.08449479
0002f0 bc 54 98 3c ca 33 25 3c 22 e0 f2 bd 60 62 2d 3e
       0.018595092 0.010083148 -0.11859156 0.16932058
000300 c2 b0 d1 3d e1 0f 1d be fe fe c8 37 20 52 06 3d
       0.10238792 -0.15338089 2.3960598e-05 0.032793164
000310 c6 c8 19 3e a2 81 ca bd 59 2a 9d 3d ab b3 30 3d
       0.15017995 -0.09888007 0.07674093 0.043140095
000320 c2 b0 2b 3e 79 c5 b8 3d 93 f9 a2 3c 98 d7 34 be
       0.16766647 0.0902204 0.019894397 -0.17660367
000330 c6 21 19 be c8 99 12 bd a4 ad 3f 3c be 75 27 3d
       -0.1495429 -0.03579119 0.011699114 0.040883772
000340 28 f4 cc 3d f5 00 02 3e eb ee 1d be 58 3c 1f 3c
       0.100075066 0.12695678 -0.15423171 0.009718977
000350 63 a2 1a 3e 53 7a 1e be 7c 06 af 3d d6 96 1b 3e
       0.15101008 -0.1547635 0.08546159 0.15194258
000360 ae d7 12 be 16 e4 12 3e 2b c7 2e 3e c4 23 af bd
       -0.14340088 0.1434482 0.17068164 -0.085517436
000370 bb 10 1a be 60 91 22 3d a5 70 da 3c a4 5a ec 3d
       -0.15045445 0.03968942 0.026665041 0.11540726
000380 a9 fc 42 3d 6b 25 0c be fc 7c 86 3d 09 c6 e1 3c
       0.047604237 -0.13686149 0.06566808 0.02756025
000390 52 98 a0 3c 83 d1 bc bd a1 53 03 3e 74 d6 8a bd
       0.019603882 -0.09219649 0.1282487 -0.06779185
0003a0 f5 21 12 be a3 e1 15 3e 6d 80 f7 bb 20 33 57 bd
       -0.14270766 0.14636855 -0.0075531513 -0.05253899
0003b0 32 4e 9d 3d b8 97 a1 3d 74 b2 b8 bd 81 83 26 be
       0.0768093 0.07890266 -0.09018412 -0.16261102
0003c0 13 e4 22 3e 92 71 7e 3d 1b 8b 64 3a 78 45 34 3e
       0.15907316 0.062120028 0.0008718238 0.17604625
0003d0 e3 f7 04 be 3b ad b8 bd 40 bc 1b 3e b4 84 7c 3d
       -0.12985186 -0.09017416 0.1520853 0.061649993
0003e0 c8 f7 fd 3d 14 c3 a1 bd 47 9c c1 3c 19 6f da 3d
       0.12400776 -0.07898536 0.02363409 0.106657214
0003f0 02 cf 1d 3d c4 d8 98 bd 78 cd 6e 3d 75 c1 a2 bd
       0.038527496 -0.0746322 0.05830142 -0.07947055

getdensity.emb_centernn.net.0.bias f4 [64]
000000 a8 40 c9 3d 8d 02 c4 3d dd a7 b8 3d 64 ae 02 bd
       0.09826785 0.09570799 0.090163924 -0.031904593
000010 be 2a fb 3b 08 9f 8d 3c 20 16 41 bd a0 e1 30 bc
       0.0076650074 0.017287746 -0.04714024 -0.010795981
000020 b9 86 86 bc 4d 45 23 bd 66 83 13 bc a8 72 93 bd
       -0.016421663 -0.039861012 -0.009003496 -0.07199603
000030 be 5a 8b bd c9 e2 2d bd 58 93 92 3d df 23 83 3d
       -0.06804417 -0.042452607 0.0715701 0.06403326
000040 2b 26 e8 bc 1e 2e 81 bd 9f 3b 39 3d ef 1e cb 3d
       -0.028338512 -0.06307624 0.045222875 0.099180095
000050 da d4 af bb 1d 46 e5 bd 53 62 93 bd 2f f1 b1 bd
       -0.00536595 -0.11195014 -0.07196488 -0.0868858
000060 de ba 54 3d 3c c3 70 3c b4 c9 a0 3d 9d 6e cc bc
       0.051936023 0.014694985 0.07850972 -0.024955088
000070 69 79 2a bd 11 82 94 bd ee d0 2d 3d 83 80 25 bd
       -0.041619692 -0.07251371 0.04243558 -0.04040576
000080 fb 5d 9a 3c bf 91 93 3d 6a 4a cb 3c f9 72 c5 3b
       0.018843642 0.07205533 0.024815757 0.0060256687
000090 b1 20 a1 bd 67 8d 98 bd 51 80 af 3d d7 c6 91 bc
       -0.078675635 -0.07448845 0.08569396 -0.01779501
0000a0 56 61 ff 3a 2e d3 94 3b 55 bb 95 bd 92 c4 7d 3c
       0.0019483964 0.004541776 -0.073111214 0.015488761
0000b0 3e b6 4c bd fe 80 b7 3c a6 6a 6d bc a3 a9 90 bc
       -0.049978487 0.022400375 -0.014490759 -0.017659014
0000c0 04 3f a4 bd 6d 0f 80 3c 24 37 dd bb 40 d5 e9 bc
       -0.08019832 0.015632356 -0.006750958 -0.028544068
0000d0 6a 60 c6 bd 94 a2 4f bc dd 4a be bd e8 33 58 bd
       -0.09686358 -0.012673039 -0.09291623 -0.052783877
0000e0 c1 ff 72 3c fd 97 b9 bc 92 c0 28 bd 97 a1 12 3d
       0.014831484 -0.022655481 -0.041199274 0.035798635
0000f0 b6 f5 96 bb 1c 27 38 bd ad 13 da bd 67 c3 9d 3d
       -0.0046069277 -0.044959173 -0.10648284 0.07703286

getdensity.emb_centernn.net.4.alpha f4 [1, 64]
000000 71 1c 05 3f 5c 1f 83 3f ad 91 1c 3d 6f eb 09 3e
       0.51996523 1.0243945 0.038224865 0.13468717
000010 bf 8c 78 3f 95 6a 12 3e 5a 52 0e 3f 5b 42 80 3f
       0.9708976 0.1429847 0.5559441 1.002025
000020 95 ef 76 3f 1d 16 87 3f 84 52 6c 3e 75 56 86 3f
       0.96459323 1.0553623 0.23078352 1.0495135
000030 1b 6b 50 3e d6 c2 84 3f 4c 77 82 3f 3e 8d 74 3f
       0.20353357 1.0371959 1.0192657 0.9552802
000040 c9 cf a3 37 2a 75 83 3f 4b 3e 1f 3d 07 c2 7d 3e
       1.9527872e-05 1.0270131 0.038877767 0.24781047
000050 b6 5c 7b 3f 6f cc f7 33 a0 79 a5 3d f9 ae 86 3f
       0.9818834 1.153902e-07 0.08079839 1.0522147
000060 b1 68 7f 3f 62 68 a6 3b 61 b2 6e b7 26 8f 01 3f
       0.9976912 0.0050783614 -1.42274375e-05 0.5060905
000070 86 32 81 3f c4 fa 2e 3d c7 6d 0b 39 3a 99 81 3f
       1.0093544 0.042719617 0.00013296968 1.0124886
000080 5c 36 9d 3d b7 63 83 3f 13 f4 08 3e 57 5c 82 3f
       0.07676384 1.0264806 0.13374357 1.018443
000090 84 97 ca 3b a9 1a 83 3f a5 3d f8 3d 77 5e f5 32
       0.006182613 1.0242511 0.12121133 2.8564711e-08
0000a0 2f e8 99 b7 ee c2 ec 3e 1c d8 85 3f 4d aa 9a 37
       -1.834714e-05 0.4624247 1.0456576 1.8437533e-05
0000b0 90 59 86 3f 11 05 83 3f 0a 4a fd 3d 47 5c 5f 36
       1.0496082 1.0235921 0.123676375 3.3283302e-06
0000c0 0f cb 57 3e 9a b5 81 3f eb 35 bd b6 34 3e 70 3c
       0.21073554 1.0133545 -5.638916e-06 0.014663268
0000d0 c5 bc 85 3f 66 7a 83 3f 6e 18 87 3f b9 ad 19 3f
       1.0448233 1.0271728 1.055433 0.60030705
0000e0 5b dd 83 37 ee fd 6b 3c f4 50 4c 3d e4 29 85 3e
       1.5719494e-05 0.014403803 0.04988189 0.26008523
0000f0 1c bd 9f 3d e0 d5 78 3f 98 57 49 3d ff e3 4b 3f
       0.077997416 0.9720135 0.0491558 0.7964477

getdensity.emb_centernn.net.4.beta f4 [1, 64]
000000 1f ba 39 b6 42 10 43 3d b5 c9 93 b4 d9 f0 d8 b6
       -2.7675485e-06 0.047622927 -2.7527645e-07 -6.46534e-06
000010 10 56 37 3c 66 4f 08 b3 f0 27 0b 37 05 c3 0b 3d
       0.0111899525 -3.173718e-08 8.294344e-06 0.034121532
000020 ed 9c 14 3c 29 b8 97 3d f7 04 72 33 24 b7 8f 3d
       0.009070617 0.07408173 5.634953e-08 0.07017353
000030 b8 c2 30 36 a6 ed 72 3d bc c5 31 3d b8 ed 98 3b
       2.6339385e-06 0.05930867 0.043401465 0.00466701
000040 b9 f1 89 38 ea c7 49 3d 0d 8f ce 35 9c b9 f4 36
       6.5776934e-05 0.04926292 1.5389829e-06 7.2933744e-06
000050 a5 39 98 3c a5 ad 05 36 c8 34 c9 b6 54 31 94 3d
       0.018582175 1.9919619e-06 -5.9964113e-06 0.07235971
000060 c9 6f fb 3c 93 e7 52 b9 d3 b7 24 b9 fb b5 52 b6
       0.030692952 -0.00020113429 -0.00015708739 -3.1398365e-06
000070 86 69 16 3d cd 08 c6 34 43 35 43 38 ba c2 2a 3d
       0.03672173 3.6886777e-07 4.6541227e-05 0.041689612
000080 67 46 a7 b6 fc 04 5e 3d 40 ad 13 34 48 cf 35 3d
       -4.9851838e-06 0.054203972 1.375347e-07 0.044387132
000090 cc 15 a5 34 26 05 41 3d 08 c5 f5 b0 d2 82 b7 b4
       3.0749504e-07 0.04712405 -1.7882096e-09 -3.418159e-07
0000a0 fd 41 7b b8 dc 4f 17 b8 14 7e 88 3d 22 22 2a b5
       -5.990452e-05 -3.607558e-05 0.066646725 -6.3379605e-07
0000b0 8a 90 8f 3d d5 27 3f 3d b7 86 1f b6 91 b0 ea b9
       0.070099905 0.046668846 -2.377126e-06 -0.0004476351
0000c0 de ea 6a 39 b8 ed 30 3d 0c fc e4 b8 f9 c8 32 34
       0.00022403474 0.043195456 -0.000109188346 1.6650655e-07
0000d0 3d 0f 87 3d 37 aa 50 3d 93 f3 99 3d 7d 6c ab b6
       0.06594703 0.05094358 0.07517161 -5.108827e-06
0000e0 34 e0 46 b8 c3 ea 04 35 38 1f d9 34 0e 9a 0f 33
       -4.7415684e-05 4.9515455e-07 4.0442114e-07 3.3434894e-08
0000f0 cb a6 88 b6 12 58 45 3c 47 ef 51 b6 e4 78 62 b7
       -4.072533e-06 0.012044923 -3.1282705e-06 -1.3498797e-05

getdensity.emb_centernn.net.5.weight f4 [108, 64]
000000 58 22 4d 3c b6 87 4e bc bd 29 ac bb 62 c2 e6 ba
       0.012520395 -0.012605598 -0.005253999 -0.0017605538
000010 87 c6 f9 3b 29 81 8c 3b bd f6 2d 3b 18 65 27 3c
       0.0076225433 0.004287858 0.0026544773 0.010216974
000020 12 61 10 bc 14 c0 44 3c f1 fc 47 3c d9 39 18 ba
       -0.008812206 0.012008686 0.012206302 -0.000580696
000030 f7 f7 f0 3b db bc 1b bc 55 00 aa bc e8 e4 63 bc
       0.0073537785 -0.009505476 -0.020752111 -0.013909556
000040 80 39 11 3c 04 23 36 3c 2d 78 4e bb 8f f7 89 3b
       0.008863807 0.011116747 -0.0031504736 0.0042104195
000050 65 f4 06 bc 97 56 19 3b 7f 6b 53 3b 10 0c 92 ba
       -0.008236979 0.0023397559 0.0032260118 -0.0011142511
000060 0d 62 14 3c 90 91 2a bb 8e d8 50 bb aa 44 8a bb
       0.00905658 -0.0026026703 -0.0031867358 -0.004219611
000070 4d 53 24 bc 65 6f 98 3b fb 11 9f 3b 4a dd 14 3c
       -0.010029626 0.004651951 0.0048544384 0.009085963
000080 b5 07 a2 3a 76 4e 3f 3c 3e 6c 3c bb 4d 2f 10 bc
       0.0012361916 0.011676421 -0.002875104 -0.00880034
000090 a9 74 63 3b 25 07 19 3c a3 d7 ec bb 3c a8 57 39
       0.0034706986 0.009340082 -0.0072278543 0.0002056667
0000a0 82 dc b3 bb 55 62 1b bc 3f 32 8a 3b 44 a9 ba bb
       -0.005488933 -0.009483893 0.0042174156 -0.0056964476
0000b0 62 45 be 3b 8b 44 05 3c f9 77 70 3b d3 3d 85 bb
       0.005806611 0.008134018 0.0036692603 -0.004066208
0000c0 55 85 08 bc 38 f9 32 3c 8f b6 e5 3b 50 0a 25 3c
       -0.00833257 0.010923676 0.007010288 0.0100732595
0000d0 53 54 a3 bb d8 f2 25 bc 70 f4 e2 3b f6 d9 51 bc
       -0.0049844175 -0.010128699 0.006926112 -0.012808314
0000e0 67 38 ae bb 53 19 0d 3b 26 b0 64 3a 40 12 c7 3b
       -0.0053167823 0.0021529987 0.0008723758 0.0060751736
0000f0 90 22 27 bb 12 66 09 bc ff ee 66 bb 4b 65 eb 3b
       -0.0025502779 -0.008386152 -0.0035237668 0.007183706
000100 61 6c 05 3c 18 a3 51 bc a6 89 89 bb d9 d0 91 ba
       0.008143515 -0.012795232 -0.004197317 -0.0011124864
000110 6c a8 4e bc 2a 57 8a 3a 03 ba f2 bb 7a 8c 35 bc
       -0.012613397 0.0010554541 -0.007407428 -0.0110808555
000120 75 5b 49 3c eb 42 53 3c de 63 12 3c 64 c6 19 3c
       0.012289871 0.012894372 0.008934943 0.009385679
000130 09 9f 39 bc 18 33 43 bc 02 98 7d bc 3b e9 27 bc
       -0.011329421 -0.011914037 -0.015478136 -0.010248478
000140 70 f5 58 3a 1a a1 50 3c d1 ea 0d bb 9b 0c 4d 3c
       0.0008276319 0.012733722 -0.0021654854 0.012515212
000150 6e ad 61 3c 8d 50 99 3b 31 a1 94 3b 2b a6 14 3c
       0.013774259 0.004678792 0.004535817 0.009072821
000160 d0 2b 52 bc 49 7f 47 ba 7d 3b 44 bb af fc ce 3b
       -0.0128278285 -0.00076102145 -0.0029942684 0.0063167433
000170 30 7c 38 3c 51 4f a8 3b 59 87 75 ba ef bc 47 bc
       0.011260077 0.0051364084 -0.00093661767 -0.012191041
000180 a8 fc b7 ba 7f 0b 24 bc 51 70 9e 3a b3 b5 43 3c
       -0.001403709 -0.0100125065 0.0012087916 0.011945176
000190 51 ad 9a bb f2 63 4d 3c df 1e 11 ba ed 7a c8 3b
       -0.004720368 0.012536036 -0.0005535911 0.0061181695
0001a0 ff a7 de bb f0 3a 1b bc bc e1 2f 3c b0 e4 13 ba
       -0.006794929 -0.009474501 0.010734972 -0.0005641682
0001b0 45 ef 34 3c 51 4f 4a 3c 95 66 a9 ba 10 8a 98 bb
       0.011043374 0.012348012 -0.0012924249 -0.00465513
0001c0 4b e8 1f 3c fa 6c 30 bc 7b d4 e8 3a 73 82 2c 3a
       0.009759973 -0.01076817 0.001776352 0.0006580718
0001d0 bf bc 05 3c cb e8 30 3c c0 22 39 3c 05 dc 56 bc
       0.008162676 0.01079769 0.011299789 -0.01311398
0001e0 24 74 3f bc ce ac 6e 3b e3 1a 37 3b 6e 85 a7 3b
       -0.011685405 0.0036418918 0.002793961 0.0051123416
0001f0 e7 52 cd bb 1d 1e 46 3c 9b 20 a9 3a ce 11 d1 3b
       -0.0062659862 0.0120921405 0.0012903394 0.0063802963
000200 36 51 69 3c 71 8e 3d bd 6f 08 2d 3b 4d 4a 43 bc
       0.014240554 -0.04627842 0.0026402732 -0.01191957
000210 f3 4d 14 ba 0c a6 14 bc fd f7 51 3c 7b e9 2c 3c
       -0.00056573673 -0.009072792 0.012815473 0.010553713
000220 ad 7c 19 bc da bd 6c 3d 27 fa 0e bb 70 2c c4 3c
       -0.009368104 0.057798244 -0.0021816583 0.02394697
000230 b2 e1 94 ba a1 37 3c bd d4 f3 5b bd b7 ed 30 bd
       -0.0011358766 -0.04595149 -0.05369933 -0.043195453
000240 18 f2 07 bc b8 c9 23 3d da af 9c bb b5 46 0d 3c
       -0.008297466 0.039987296 -0.0047817053 0.008622815
000250 4d 73 b8 bb 12 c7 20 b8 20 30 19 3b e7 92 c0 3c
       -0.0056289793 -3.833237e-05 0.0023374632 0.023507548
000260 21 d5 ff 3b b1 f8 bc ba 57 57 88 3b 8c d3 4a bc
       0.0078073894 -0.0014417378 0.0041608023 -0.012379538
000270 3e 4e 21 bc 7e 5e 73 3b 9d 3e 1f bc 02 85 8b 3b
       -0.009845315 0.003713518 -0.009719518 0.004257799
000280 2a 52 9d ba 74 05 b2 3b e4 aa bb 3b 3e b8 c9 bb
       -0.0012002636 0.005432779 0.005727159 -0.0061559966
000290 1f 69 33 bc 0e ef 09 3d 3a 44 01 bb 7d a6 19 3b
       -0.010950356 0.033675246 -0.0019724504 0.0023445182
0002a0 48 ca c3 3b 8e ee 2f bc 86 37 02 3d 4c 6e 2b 3b
       0.0059750415 -0.010738028 0.031791233 0.0026158271
0002b0 74 bd 1a 3d 9e 46 f5 3c 55 e0 6d 3b 41 de dd bb
       0.037778333 0.0299409 0.0036297042 -0.0067708795
0002c0 c5 1a 03 bc 6a 6d 01 3c df c5 57 3b d4 17 3c bc
       -0.008001988 0.0078996215 0.0032924337 -0.01148029
0002d0 9c 36 6a 3c 75 1b ed bb b5 8e 32 3d 0b 86 17 bc
       0.014295246 -0.007235939 0.043593127 -0.009248267
0002e0 12 1f 8c bb c3 15 73 3b a5 27 9a bb 25 6e de ba
       -0.004276165 0.0037091828 -0.004704433 -0.0016970081
0002f0 06 55 87 bb bd c8 58 bc b2 83 4c bb 55 2a 74 3b
       -0.0041300086 -0.0132314535 -0.0031206426 0.0037256677
000300 74 5d ec 3a ab 63 18 3d 3e c6 31 3b 1e c3 c6 bb
       0.0018033222 0.037204426 0.0027126218 -0.0060657403
000310 29 ac cf 3c c6 40 f1 39 b2 72 f5 bb 3b c8 16 3d
       0.025350647 0.00046015362 -0.0074904794 0.03681205
000320 a7 f6 c6 bc ca ee 45 bd 61 e6 92 3b 32 d4 52 bd
       -0.024287535 -0.04832343 0.0044830297 -0.051471896
000330 84 1f 94 bb 93 a2 31 3d 50 8f 19 3d 12 22 98 3c
       -0.0045203585 0.043367933 0.03749019 0.018570933
000340 1b 8c 43 3b 5e 5d 21 bd 47 74 9f bb 82 52 22 3c
       0.0029838148 -0.039395683 -0.0048661563 0.009907367
000350 72 18 f6 bc 79 11 a4 b7 e9 c1 f8 bb 15 07 56 bd
       -0.030040953 -1.955846e-05 -0.0075914753 -0.052252848
000360 0d 73 10 3d c9 0e 88 3b e8 6a e8 bb 8a a6 09 b8
       0.03526597 0.004152153 -0.0070928223 -3.2818447e-05
000370 65 66 1e bd 1a 6f 56 3c 21 21 0e bc d8 51 22 3d
       -0.03867187 0.013088012 -0.008674891 0.039628834
000380 fa 87 e8 3b fd c8 33 3d d1 67 09 bc 14 da 30 bd
       0.007096288 0.04389285 -0.008386568 -0.043176726
000390 6a be 60 ba 2d ba 1f bd e1 2a 56 3b a7 56 89 3b
       -0.0008573296 -0.03899591 0.0032679366 0.004191238
0003a0 61 b9 dc bb da 6d 40 bb 5f 9f 47 bd cb dc dc bb
       -0.006735966 -0.0029362352 -0.048735972 -0.0067401878
0003b0 bd 1b 4a bd e6 2d 21 bd d8 72 2e bb a9 08 98 3b
       -0.04934286 -0.039350413 -0.0026618745 0.0046397042
0003c0 19 06 23 3b de 9c 24 3d 95 5e 8e 3b 12 a9 7e 3b
       0.002487546 0.040188663 0.004344771 0.0038858098
0003d0 1a 79 53 bd 9e 00 3a bd 93 2e 4f bd ef 4a f3 ba
       -0.051629163 -0.045410745 -0.050581526 -0.0018561761
0003e0 af e8 de ba 3a 5e 31 bb 5c 25 61 bb 9a 9a 55 3b
       -0.0017006601 -0.002706422 -0.0034354543 0.003259337
0003f0 88 d0 a2 bb 91 13 d9 bc ef dd 16 3c e3 31 82 bb
       -0.0049687065 -0.026498588 0.0092081865 -0.003973232

getdensity.emb_centernn.net.5.bias f4 [108]
000000 21 57 d8 bc a9 71 9e bc 92 fb 55 bc a9 08 9f bc
       -0.026408734 -0.019341307 -0.013060467 -0.01941331
000010 fd 80 14 bc 39 2b d8 bb b7 2d e6 bb b1 49 31 3c
       -0.009063956 -0.0065969494 -0.0070244926 0.010820792
000020 06 da d3 bc 6e 40 aa bc d4 3c 7b bc 1a f5 84 3c
       -0.025860798 -0.020782676 -0.015334327 0.016230155
000030 bf 4e 8f bb 36 39 dd b9 c4 f9 74 bc c7 51 ec 3a
       -0.004373401 -0.0004219503 -0.014952127 0.0018029743
000040 0a f7 a6 bc a1 49 7a bc 1a 85 f6 39 7b 4b 80 3a
       -0.02038147 -0.015276344 0.00047019945 0.000978812
000050 47 e1 2e bc 13 76 78 bb bf 59 97 39 ba 8f e5 bc
       -0.0106738275 -0.0037912175 0.0002886783 -0.028022636
000060 6d 7d c0 ba 52 45 85 bc d1 e0 ff bb 48 6f 79 bb
       -0.0014685817 -0.016268406 -0.0078087826 -0.0038060714
000070 bc 5b 6f 3b 79 ff 2a 3c 7e 05 09 bd 9e 24 88 bc
       0.0036523184 0.010436886 -0.033452503 -0.016619023
000080 0d de 0d 3c 90 a2 8b 3b e9 f7 ab ba fd 38 4f bc
       0.008658898 0.0042613223 -0.0013120148 -0.012647864
000090 60 54 a2 3b 5e 93 2a bc ef e6 9f bc 8b 80 04 bc
       0.004953906 -0.010411112 -0.019519297 -0.008087288
0000a0 7d b2 98 b9 ee 22 29 bc 15 27 ca bc e7 9a 4d bb
       -0.00029124683 -0.010323269 -0.024676839 -0.0031372847
0000b0 2d e3 a5 3c f8 cb 08 3c 26 54 0f bc 1e dd ad bc
       0.020249927 0.008349411 -0.00874809 -0.021223601
0000c0 ab 0d 46 bc b8 9b ce ba 02 b4 05 3d 77 0b 85 bc
       -0.01208822 -0.001576296 0.032642372 -0.016240818
0000d0 a9 37 01 3d c2 39 4f bc 1f f2 55 bc 09 ce 3c 3c
       0.031547222 -0.012648048 -0.013058214 0.011523732
0000e0 1a f3 f7 38 53 d5 a6 bc cb eb 67 bc 14 f0 e4 bc
       0.00011823159 -0.020365393 -0.0141553385 -0.02794651
0000f0 d9 28 09 bd 27 86 23 bc ca 14 0a bd 07 4c a1 bc
       -0.03348622 -0.009980715 -0.033711232 -0.019689573
000100 df 49 26 bd d7 e2 7b bd 40 6d 15 bd dd d1 da bc
       -0.040597793 -0.06149563 -0.036481142 -0.026711399
000110 d2 fb d5 bb 63 26 f0 bc cd 4d 1b bc b1 b1 3e bc
       -0.0065302635 -0.02931518 -0.009478998 -0.011639045
000120 19 6e 8a bc 46 2f 98 3c 91 4b b4 3c ea 96 7c 3c
       -0.016898202 0.01857723 0.02200869 0.01541684
000130 b5 81 45 bc 7f 62 c2 bc 21 4d b1 bc 8c 9e ad bc
       -0.01205485 -0.023728607 -0.021643223 -0.021193765
000140 b7 8b 9a b8 d0 5d 71 b9 79 d9 8f 3b 71 d1 aa bc
       -7.369316e-05 -0.00023018499 0.0043899384 -0.020851823
000150 9d ff d6 bc 1b ad 63 bb 67 38 c1 3b a8 d2 1a bc
       -0.026244933 -0.003474063 0.0058966163 -0.009449638
000160 24 8c 55 3c dd 9d de bc 24 c0 f6 bc 9b ab 68 bc
       0.0130339 -0.027174884 -0.030120917 -0.01420107
000170 e9 a9 3c bc a1 4a a0 bc fa 2a d5 3b 9b 54 34 3c
       -0.011515119 -0.019566836 0.0065053673 0.0110065
000180 a8 cf ae 3b d9 bf 79 bc f8 c6 e6 bc 4e 03 b0 ba
       0.005334813 -0.015243494 -0.028171048 -0.0013428719
000190 c8 8e bf 3b 8f 71 0c bd 5e c1 f7 bc 43 0b be bc
       0.0058458783 -0.034287985 -0.030243572 -0.02319873
0001a0 24 82 da bb b6 73 d6 bb b8 ca 5b bd fe 2c 63 3b
       -0.006668346 -0.0065445555 -0.053660125 0.0034664269
