reann2.0_20250825/example/LYC/REANN_PES_FLOAT.pt (torch, 301342 bytes, 84 tensors)

contracted_coeff f4 [4, 3, 8, 108]
00000000: c83a 65bd 9bc6 9abe 707a b1bd 28c7 f2be
00000010: d978 593e 1f50 e23e 427d cc3c 81b4 13be
00000020: cc01 21be 4419 76be b973 aa3c 62cb 783e
00000030: d085 0bbe 2c48 59be c9dc 1e3e 0697 cf3e
00000040: d05d 0d3f 3eec 9a3e c911 82be db0f 74be
00000050: e285 813e 3ed6 debb 48f9 0c3f 91aa aa3e
00000060: 0a4c 193f b222 fabd 392a d23e 1b53 c23e
00000070: e7cc 8d3e 36b2 d73a f14a 8f3d 4e39 2b3d
00000080: 5605 563e 1c13 70be 1231 163e 4076 abbe
00000090: 3a0f 9b3e 7403 c6be 4cae 19bf 0872 ae3e
000000a0: 4764 c1be e9de 25be 6d0f d43e ba71 68bd
000000b0: 0a3e 6ebe 9979 54be cfc5 8abe a55a 09bf
000000c0: ac5c 23be bcf3 0d3f 87c3 a2be d56e 66be
000000d0: 8007 8ebe 6e2b 0fbe a2bc 66be 728c 433e
000000e0: 91d6 cdbe 84e3 dd3e bd2e 30be ab67 043f
000000f0: 0269 10bf b838 2a3e e5df 873e e83d 5a3e
00000100: 3335 a2be d02f 4e3e b27a d8be 63c8 2e3e
00000110: b744 803d 5c6b c23e c7cd 78bc db5c 43be
00000120: f5cc 1e3f 7b30 3bbe 589a 0e3f 6f56 99be
00000130: 229a 92bc 0c02 013f 8c74 4dbe b0ad 32be
00000140: cac8 0a3f fd5f 4b3e 7180 273d 3b81 b83e
00000150: 9c6d b0bd bd23 cdbd 69cd 403e 44d4 1d3e
00000160: d215 82bd a4f9 3cbd 131b 95be 42b9 0a3e
00000170: 244e 7fbe 38fa b03e 24b7 843d 9b6b 8e3e
00000180: 7a30 063f d1bb 843e f3d0 bd3e 2d96 ce3e
00000190: 6c9b f4be 27ca d13e cb74 ebbd e91e 9f3e
000001a0: c91f 4f3e 01f6 ce3e 672d b93c 8008 063e
000001b0: e36d 5fbe f284 a9be e1c3 c03a 6325 83bf
000001c0: 1988 c13e af8b ff3e 3085 b43d 2225 d1bd
000001d0: aa56 b0be 352a 02bd 1f8b 0abe 667d 6a3d
000001e0: 48d2 e2bd 2ffc 383c 6d30 9e3d 833c ce3e
000001f0: 33ab a2be 1d3d 44bd 16c5 c5bd fdf1 aabe
00000200: 5d13 4bbc 2a94 0dbe 1f99 853f 3d33 113f
00000210: f4db 573f e5b9 adbe 6580 68bd 8d13 a4be
00000220: 7c06 3e3e bb6c 47be 6d6c 95bd aacb ee3c
00000230: aaa2 323d dc28 60be 9885 213e 5a27 823d
00000240: 2023 ca3e 7a58 e0be c3c2 33bf 4a20 593e
00000250: 0bd0 28bf a928 c9be 2c53 8ebd 7fac 363e
00000260: 0eab 8abe b456 2dbf e8cb 07bf 5cb0 88bc
00000270: 3669 a53d 350e 9bbe ac2f 0ebf 598b 38be
00000280: 322f 943e eae6 36bd 018f 0cbe 2c72 063f
00000290: 7710 2abf 597b 993e e048 b23d 4a4c 4cbe
000002a0: f477 50bf 5fe0 d83e 9f74 e1bd 1031 d83e
000002b0: 7e74 dcbd 2396 3b3e 7388 ebbe 46cf 0abe
000002c0: 802d 833b d3eb ef3e 7d48 20be 6487 793a
000002d0: 1f2b 2dbe 799d 4abf 6752 623e de9c 2cbd
000002e0: af06 22bd 6d6a dabd 2db6 cabe 17db 1a3e
000002f0: 7cd5 a63c dbbc 343e d3d0 27bd f85c ad3e
00000300: 7811 37be 2beb 1c3d c709 e83d 5a79 40be
00000310: 9eff 50bc fecc 29be 7746 e6bd 61f3 283d
00000320: 9d46 6bbe 902b b7be 8b84 5b3d 3daa 4d3d
00000330: 2842 2bbe ee08 983e df7e 2b3f 00df a73d
00000340: 3f64 6a3e ef3d 0cbe 5696 f8bd f31b b13e
00000350: 7b0f 3f3d 3df2 4e3b f196 2bbe 58a0 063e
00000360: 00c3 27bd 9773 8f3e 353f 763e 5ba4 2a3e
00000370: bfe0 7d3f 8f0d a1be f1e1 bd3d b5b4 733e
00000380: db04 783d 76c2 95bf 5c93 813f d7cf 5cbe
00000390: a1f4 bd3c 0ff5 83bf 7ff8 e7be 18c8 6abe
000003a0: 9062 2dbe 3a6e 4b3d 637e f6be 8db9 643c
000003b0: db30 e1bd 7eac d9bc 9cb8 c2bc a736 533e
000003c0: 6274 05bc 0e36 0e3f b8f8 71be 4bf5 103b
000003d0: 5d62 5f3f d86d 62bf de0c c5bd 5e51 19bf
000003e0: 497c 3bbe 89bb 6fbf 0113 05bf 9300 4c3e
000003f0: 6841 d1bc dec2 d93d b00b d13e fdbf 80be
-0.05596426 -0.3022965 -0.08665931 -0.4741757 0.21237506 0.44201753 0.024962071 -0.14424326
-0.15723342 -0.24033076 0.020807134 0.24296334 -0.13625264 -0.21218938 0.1551391 0.4054491
0.5522127 0.30258363 -0.25404194 -0.23834173 0.25297457 -0.006800442 0.55067873 0.33333257
0.5988165 -0.12213649 0.41047838 0.3795403 0.2769539 0.0016456309 0.06996716 0.041802697
0.20900473 -0.2344479 0.14667156 -0.33488655 0.30285054 -0.3867451 -0.6003158 0.34071374
-0.37771818 -0.16198315 0.4141802 -0.056749083 -0.23265854 -0.20749511 -0.2710404 -0.5365394
-0.1595332 0.55450034 -0.317898 -0.22503217 -0.27740097 -0.13981411 -0.22532895 0.19096544
-0.40202764 0.43337643 -0.17205329 0.51720685 -0.5641023 0.16623199 0.26538005 0.21312678
-0.31681213 0.20135427 -0.4228111 0.17068629 0.06263106 0.37972534 -0.01518578 -0.1907839
0.6203149 -0.18280213 0.5570426 -0.29948756 -0.017895762 0.5039375 -0.2006399 -0.17449069
0.5421263 0.19860835 0.040893976 0.36036095 -0.08614656 -0.10016582 0.18828358 0.15413004
-0.06351818 -0.046136513 -0.29122218 0.13547233 -0.24932152 0.34565902 0.06480244 0.2781647
0.5241772 0.25924543 0.37073478 0.4034895 -0.47774827 0.40974542 -0.11496886 0.3107827
0.20226969 0.4042206 0.022604657 0.1308918 -0.21819262 -0.33109242 0.0014706814 -1.0245785
0.37799147 0.49911258 0.08814466 -0.10212161 -0.3444112 -0.031778533 -0.13529633 0.057248496
-0.11075264 0.011290594 0.0772408 0.40280542 -0.3177124 -0.047909845 -0.09656732 -0.33387747
-0.012394753 -0.13826051 1.0437354 0.5671881 0.84319997 -0.3393089 -0.05676307 -0.32046166
0.18557161 -0.19475071 -0.07296071 0.029149849 0.04361216 -0.21890587 0.15773618 0.06355162
0.39479923 -0.43817502 -0.7021906 0.21203724 -0.6594245 -0.39288834 -0.069494575 0.1783924
-0.2708363 -0.67710423 -0.5304551 -0.016685657 0.08076708 -0.30284277 -0.5554149 -0.18021907
0.28942257 -0.04465381 -0.13726427 0.5251796 -0.66431373 0.2997692 0.08705306 -0.19950977
-0.81433034 0.42358682 -0.11008572 0.42224932 -0.107644066 0.18318991 -0.4600254 -0.13555631
0.0040032268 0.46859607 -0.15652652 0.0009518771 -0.1691098 -0.79146534 0.22101746 -0.042141788
-0.039557155 -0.1066483 -0.39592114 0.15122639 0.02036547 0.17650168 -0.040970635 0.33859992
-0.17877758 0.03831021 0.1132999 -0.18796292 -0.012756256 -0.16582105 -0.11243909 0.04124773
-0.22976156 -0.35775423 0.0535932 0.05021118 -0.16724455 0.29694313 0.66990465 0.08196831
0.22889803 -0.13695501 -0.12138049 0.34591636 0.046645623 0.003157749 -0.16756798 0.13147104
-0.04095745 0.28017876 0.24047549 0.16664259 0.9917106 -0.31455657 0.092716105 0.23799403
0.060551506 -1.169997 1.0123096 -0.2156366 0.023187937 -1.0309161 -0.45306775 -0.22927892
-0.1693213 0.049665667 -0.481433 0.013960254 -0.109956466 -0.026571508 -0.02376967 0.20626317
-0.008145424 0.5555123 -0.23630035 0.0022118862 0.87259465 -0.8844886 -0.09621595 -0.5988978
-0.1830913 -0.9364553 -0.5198212 0.19922094 -0.025543883 0.10632871 0.4082923 -0.25146475

weight f4 [64, 118]
00000000: edfe c2bb aade 0c3e b63e 583b 3395 2bbd
00000010: e68c a93b 3e24 163e aae7 383e 455a 143a
00000020: f017 2d3d 3e5b c6bd 0986 b03d 83f2 cc3b
00000030: 4ba5 8f3d 8462 cb3c e419 43bd b197 17be
00000040: b059 43bd da52 273e 2d8d a93b 662d 39be
00000050: 1997 0cbc 1932 b0bb 0263 2f3e 0103 0abd
00000060: b380 193e 743e 31bc 8ab8 03bd 1643 95bc
00000070: d92b 813c e738 b73c b82d 91bd 919f 2f3e
00000080: 099c 78bc a747 023e 8d2f d83c b381 e53d
00000090: 3c7d a9bd ecda 0dbe 27e5 e33c b07d a1bd
000000a0: 778d a93b fef0 003e 3e4c 273e 86d0 b73d
000000b0: 36d4 c23d fe0c 173e b107 7ebd 41f0 27be
000000c0: 7628 02be 25c3 d7bd 6879 c7bd 9d8d 2b3e
000000d0: 3e39 d7bd 7bce c13c 9284 dd3d 89f1 13be
000000e0: c39d 6abd af15 09be 1623 fabd 593d 383e
000000f0: dc06 b4bd 647e af3c c397 c3bd befa 1b3e
00000100: 33d6 26be c0f2 af3d 3bf0 b33c a875 363e
00000110: 3dd4 94bc f295 c33c ea4a 01be 543a 85bb
00000120: 7da8 03be 0524 e0bd d262 143e 286e e0bd
00000130: 4cce 5dbd db12 a23d 96ba 10be 5439 10be
00000140: ab9a 283e 4dbf aa3d 65a4 b03c 0235 e13d
00000150: c92c 013e 41d9 1b3e 64ab f3bd f468 173e
00000160: ec30 aa3d 0e79 2d3b 958d b43d d4c2 20be
00000170: bdab 893d f205 8d3b e55d 74bb d658 0b3e
00000180: cb8f 21be d1d6 f2bd f08f f9bd 7f59 a93d
00000190: d5b4 153e 05a7 e8bd f44d d33c dbee 27be
000001a0: 1bff 223e 87e9 783d 7310 03be c2c3 8bbd
000001b0: 4646 be3d 8390 2abd ba28 3b3d ea90 07be
000001c0: b7b5 ee3d 5686 fc3c a0bd 24be 1909 ab3c
000001d0: 8506 a03d 664b ddbd fd98 c7bc 448b d73d
000001e0: a9e1 2ebe fda4 063d 729c a5be 0115 843c
000001f0: f49f e63d 8dd9 173e baf5 2f3d c70f 1ebe
00000200: 75a5 bd3d 63b3 f4bd 09f8 173e f28c ca3d
00000210: c628 103e 082d db3d 4605 9abc f09a 21be
00000220: c615 fe3d db5c 40bc 5e85 013e d385 4e3c
00000230: 419e c33c bf3d 263e 6e8d ec3d e9af 10be
00000240: ff33 7ebd db39 5ebd e6a5 48bd 8392 963d
00000250: c5b3 633d 5b0c 223d 7189 093e 09e2 b0bd
00000260: 6aa8 8bbb 6a3f 353e 3725 cc3d 64a9 14be
00000270: 933e f23d 70f0 a2bd 1e76 503e d749 fabd
00000280: 37f1 37be 1fcf 25bc 6906 073e 404d 1dbe
00000290: 28f8 91bc 69ae c4bd d1e2 cbbd dd39 8cbd
000002a0: 7f0c 4f3d eed9 17be fc05 473d 86e5 febd
000002b0: b388 f33d 6edc be3c bd97 14be 6e64 823d
000002c0: 35e0 be3d 3d0e 223e a2cd 2d3e 38c9 1fbe
000002d0: ba85 2c3e 99a8 5f3d f54a cfbd bb86 a9bd
000002e0: 19b3 af3d 2d76 f83d 5512 033e a672 003c
000002f0: 7270 973d 9829 c83d 08d2 4cbd acc0 cb3d
00000300: e061 82bc ec92 f43d 0d4c 2d3e cf01 51bc
00000310: 5d02 523c af67 a43d a5f5 28bc 01b3 e2bd
00000320: 4d5d 83bc 3a12 163e 0f7e c6bd c30b aabc
00000330: 3332 233d 313a 01bc 36c5 ae3d a53d ecbd
00000340: f810 cdbd 5a5a a7bd 32c5 383e 4ad7 8bbb
00000350: 9f45 d9bc 3cee aabd 697d bc3d e865 5e3d
00000360: 7f4c 0bbe 819a 38be f778 22be 7ecd 2e3e
00000370: 5975 1d3e 8d51 523d 4fde d8bc 353c af3d
00000380: 416a 65bc 12fa 313e 3565 2ebd 0997 a6bd
00000390: 0014 053e e96e 2f3d 037a 113d c2bb 2bbd
000003a0: 7cea e0bd e817 1e3e f133 f0bd 6d52 b13d
000003b0: 2b18 a73c 22c3 353d 276f 8cbc f9f1 973d
000003c0: 24e8 28be 9fae 0fbe 167c 383d 01f4 933c
000003d0: 8a7b e03c 056f 153e c9c2 2abe 0cd9 03be
000003e0: 2193 e6bd 873d fc3d 900e bdbd d9fb 803d
000003f0: 5a9a 2b3c 6d4b 143e 7ba8 123e ec89 943d
-0.0059507997 0.13756815 0.0032996363 -0.041890334 0.005174267 0.14662263 0.18057123 0.0005659203
0.042259157 -0.09685372 0.08619315 0.0062544956 0.07013949 0.02482725 -0.047632113 -0.1480396
-0.047692955 0.16340199 0.0051743 -0.18083724 -0.008580946 -0.005377066 0.17127612 -0.03369427
0.14990501 -0.010818113 -0.032158412 -0.018220466 0.015767979 0.022366 -0.07088798 0.17150714
-0.01517392 0.12722646 0.026389861 0.11206379 -0.0827584 -0.13853043 0.02781923 -0.07885301
0.0051743346 0.12591931 0.16337678 0.089753196 0.09513132 0.1475105 -0.062019054 -0.16400243
-0.12710747 -0.10535268 -0.09739953 0.1675324 -0.10508965 0.023658028 0.108163014 -0.14447607
-0.05727936 -0.13387178 -0.12213723 0.17992152 -0.08790371 0.021422572 -0.095504306 0.1523237
-0.16292648 0.08591223 0.021965137 0.1781832 -0.01816761 0.02387521 -0.12626234 -0.004065791
-0.12857242 -0.1094437 0.14490822 -0.10958511 -0.05415182 0.07913753 -0.14133677 -0.14084369
0.16465251 0.08337269 0.021562764 0.109964386 0.1261474 0.15219595 -0.118979245 0.1478613
0.08310112 0.002646986 0.08816067 -0.15699321 0.067222096 0.0043036873 -0.003728741 0.13608107
-0.15777509 -0.11857379 -0.12185657 0.08269023 0.14619763 -0.113599814 0.025794007 -0.1639971
0.15917628 0.060769584 -0.12799244 -0.06824447 0.09290747 -0.041641723 0.045693137 -0.13238874
0.11655753 0.030825775 -0.16087961 0.020878362 0.078137435 -0.10805397 -0.024364943 0.1052461
-0.1707827 0.03287219 -0.3234592 0.016123297 0.112609774 0.14829083 0.042958952 -0.15435706
0.09260074 -0.11948278 0.14840712 0.098901644 0.14078054 0.107019484 -0.018801343 -0.1578176
0.12406497 -0.0117408885 0.12648532 0.012605148 0.023879172 0.16234492 0.11550413 -0.14129604
-0.062061306 -0.054254394 -0.048986338 0.07352164 0.055591363 0.039562564 0.13431336 -0.08636863
-0.00426202 0.17699972 0.09968036 -0.14517742 0.11828341 -0.07956016 0.20357558 -0.12221115
-0.1796311 -0.010120182 0.13186039 -0.153615 -0.017818525 -0.096035786 -0.09955371 -0.06846974
0.050549027 -0.14829227 0.04858969 -0.12446122 0.11891308 0.023298468 -0.14511009 0.06366812
0.09320108 0.15825744 0.16972974 -0.15604103 0.16847888 0.054604147 -0.10121719 -0.08277651
0.08579082 0.12131915 0.12799962 0.007839834 0.07394494 0.097735584 -0.05000499 0.099488586
-0.015915811 0.119420856 0.16923542 -0.012756779 0.012817946 0.080275886 -0.0103124725 -0.110692985
-0.0160357 0.1465539 -0.096920125 -0.020757562 0.039842796 -0.007887409 0.08533709 -0.11535195
-0.10013002 -0.0817153 0.18043974 -0.004267608 -0.026522456 -0.08346221 0.092036076 0.054296404
-0.136034 -0.18027689 -0.15866457 0.17070577 0.15376796 0.051347304 -0.026473192 0.085564055
-0.014002384 0.1738055 -0.042576987 -0.081342764 0.1299591 0.04283038 0.03551675 -0.041927107
-0.10982224 0.15438807 -0.11728657 0.086582996 0.020397266 0.044375546 -0.017142845 0.074191995
-0.16494805 -0.14031456 0.045040213 0.018060686 0.027402658 0.14593132 -0.16675867 -0.12875766
-0.11258531 0.12316423 -0.09231293 0.06298036 0.010473812 0.14481898 0.14322083 0.07252869

bias f4 [64]
00000000: af90 29bc 810c 473d 6cde 163d 644b 05bc
00000010: ebf1 823d ac5c 133e 51da 0dbe a971 6d3d
00000020: b058 033d 33fb ccbd 4f03 afba 688d f8bb
00000030: 2629 4cbd 4026 0ebe 050b 873d d8c2 de3d
00000040: b96b 943d ecdd d83d 3b2b 313d 4b1c fbbc
00000050: c8db 783d 481d ecbb 5ab2 253d dc66 783d
00000060: ebec 5e3d b788 2cbd 6545 8fbc 0663 3dbe
00000070: a330 dbbc 48fe 64be 0eee 33bd 8780 91bd
00000080: 1cc1 b33d 48ec 0abc 7a79 11bc e6eb 4a3c
00000090: fcf6 16bd d94f 073d 16c0 31bd 5d9c 193e
000000a0: 687e 2fbd 20ab 8bbd 25e3 c7bb fb46 3c3d
000000b0: f72b 873c 4320 a13d 19cf 9c3b ab53 873d
000000c0: 73b7 243c 77bc eabd 8636 8fbc 566f d93d
000000d0: 2400 7fbd 4e82 653d 3a17 9ebc bd64 e03c
000000e0: 94cb cf3b bf26 213e 0f00 87bc d3cc cfbd
000000f0: d71d 583d 7a95 cf3c 41b1 4fbd d081 c9bd
-0.010349437 0.04859591 0.03683321 -0.00813565 0.063937984 0.1439082 -0.13852812 0.057969723
0.032067 -0.1000885 -0.0013352426 -0.0075852163 -0.04984393 -0.13881779 0.06593899 0.10877007
0.07247109 0.10589203 0.04325412 -0.03065314 0.060756475 -0.007205639 0.040453292 0.06064497
0.05442516 -0.04212257 -0.017489145 -0.18494806 -0.02675659 -0.22362626 -0.0439282 -0.07104593
0.08777067 -0.008479185 -0.00887906 0.012385344 -0.036856636 0.033035133 -0.043396078 0.15001054
-0.04284516 -0.06819749 -0.006100076 0.04596613 0.016500456 0.078674816 0.00478543 0.06607755
0.010053503 -0.11461728 -0.017482053 0.10616939 -0.062255993 0.05603247 -0.019298185 0.027391786
0.006341407 0.15737437 -0.01647952 -0.10146489 0.052762832 0.02533983 -0.050706152 -0.09839213

alpha f4 [1, 64]
00000000: 0794 58b8 6820 943f 9e0d 913f 1c4a 8f3f
00000010: 0288 8b01 6c57 3680 f60d 903f 1f32 933f
00000020: fcf1 6636 f6fe a33f 6666 0000 3d87 993f
00000030: 8a8a 58b5 ac28 9f3f ce88 8a3f 6113 ba3f
00000040: 4358 703f 7379 873f 6334 9f3f 861c fe33
00000050: 0895 913e 6839 8c3f f858 8d3f e857 8e3f
00000060: 4dc8 933f 73e3 963f ca90 02b7 90a3 ac3f
00000070: 5ec1 873f 812d ab33 aed4 903f d193 0080
00000080: 658e ac3f c85b b93f c7c5 8d3f 2bef 963f
00000090: 3ed9 0780 6f7e 923f 8100 a73f 682c bd3f
000000a0: 6b3b 963f d1c5 8f3f d743 923f b21f b53f
000000b0: b653 3795 8aaf 873f 51bd 0137 0427 ab3f
000000c0: e1c7 c13f 4f4b 943f 662f 903f 8fd9 eb89
000000d0: edbd 192b ce74 913f 15b2 0600 c6a5 903f
000000e0: 2177 b93f a699 963f 9d7f 913f a646 9a3f
000000f0: d23a a93f 1b45 973f b7c4 983f c31a 9e3f
-5.1636274e-05 1.157239 1.1332281 1.1194491 5.12557e-38 -4.990478e-39 1.125426 1.1499671
3.4413524e-06 1.2812183 3.6734e-41 1.1994396 -8.066787e-07 1.2434287 1.0823 1.4537164
0.93884677 1.0583938 1.2437862 1.1832985e-07 0.28434014 1.0955019 1.1042776 1.1120577
1.1545502 1.1788162 -7.782315e-06 1.3487415 1.0605886 7.971085e-08 1.1314905 -5.3027e-41
1.3480955 1.4481134 1.1075982 1.1791738 -7.2078e-40 1.1444834 1.3047029 1.4779177
1.1736883 1.1232244 1.1426953 1.4150298 -3.7022592e-26 1.0600445 7.733078e-06 1.3371282
1.5139123 1.1585482 1.1264465 -5.6778783e-33 5.4620094e-13 1.1363771 6.14897e-40 1.130059
1.448948 1.176564 1.136707 1.205281 1.3221076 1.1817964 1.1935033 1.2351917

beta f4 [1, 64]
00000000: 8ce8 f9b1 a796 373e 9a60 243e ffa8 153e
00000010: d286 b601 3486 5780 921c 573e b845 2f3e
00000020: 52e3 6636 dd39 983e e52c 0080 ab52 623e
00000030: 87aa 50b5 17e7 843e 7376 de3d 0f40 de3e
00000040: cd06 943c 0c0c b13d 56bd 843e 40bc 1434
00000050: d9ff cbb6 a4d8 063e b4ee 173e 696f 0e3e
00000060: d7ff 263e e494 503e 55e8 fdb6 df66 f43e
00000070: 42d3 d93d e501 33b4 dcea 1e3e 8fc8 0280
00000080: 175c a83e fb5a cc3e 7a47 093e 672d 4a3e
00000090: d54f 0600 2a77 2b3e 0cd4 9c3e 0896 da3e
000000a0: 4256 453e ed3b 153e 76ba 243e 0aee c33e
000000b0: 5e99 1011 179c ad3d cbf9 1eae a2dd a83e
000000c0: 53fd 0d3f fd48 663e 13e8 1f3e f1f3 b806
000000d0: 1537 b636 a3eb 233e 2456 0080 aa78 233e
000000e0: acb1 dc3e b213 373e 97cd 263e d9be 5f3e
000000f0: 3dfb a23e 8b08 503e 71d8 7a3e de8d 773e
-7.2732913e-09 0.17928563 0.16052476 0.14615248 6.70497e-38 -8.037831e-39 0.21006992 0.1711644
3.4404989e-06 0.29731646 -1.6105e-41 0.22101848 -7.773419e-07 0.25957558 0.10862436 0.43408248
0.01806965 0.08644876 0.25925702 1.3852059e-07 -6.079656e-06 0.1316858 0.14837152 0.13909687
0.16308533 0.20369297 -7.5670346e-06 0.47734734 0.10635997 -1.6671363e-07 0.15519279 -2.55618e-40
0.3288276 0.39913163 0.13406172 0.19743882 5.79651e-40 0.16744676 0.3063053 0.4269259
0.19271186 0.14573641 0.16086754 0.38267547 1.1406857e-28 0.084770374 -3.61469e-11 0.32981592
0.5546467 0.2248878 0.15615873 6.9571547e-35 5.430435e-06 0.16007857 -3.0901e-41 0.15963998
0.43104303 0.17878607 0.16289364 0.21850146 0.31832305 0.20315759 0.24496628 0.24175212

weight f4 [24, 64]
00000000: 0d6e 343c 87a4 7b3c 3db6 133d d31d b03c
00000010: 8677 efbb b1a2 0abc 1e02 52bd 91ab a6ba
00000020: 56a0 03bd 0b37 5cbc d41d b53c a02c d03c
00000030: a54d 52bc 68d2 b5bd a02e 1b3d fec2 ae3d
00000040: 0f3e 0d3c 93dd 893d 87eb 7f3c 2ca7 e73c
00000050: c247 11bd 5434 413c d3f3 e3bc e7e4 073d
00000060: 015d 8c3c 9254 21bd 15b3 033d 36b2 84bd
00000070: f768 523c a263 b03c 11ca a4bc 2ac3 ba3c
00000080: ae6b 88bc 79c9 b63d 10d0 28bd b74b 59bc
00000090: af1c e83c e190 1cb9 b202 b53b 73af 6f3e
000000a0: fc52 c8bb e578 2abd d903 493b 180c 2d3e
000000b0: 4a00 45bc 1d5e 493d a42b b43c 910b bc3d
000000c0: beca 3bbd 769f 51bd 8bf4 e8bc daee c3bb
000000d0: 8e0c c13c 6567 1a3b 0876 c13c fadd f4bc
000000e0: 60d9 a83d 7083 083d 85ee d1bc 5fa0 b5bc
000000f0: 63c6 3fbd 4301 e7bc d047 1cbd d105 a8bc
00000100: 27e6 2dbb cc6c e33d 0f7d 033e ed50 cc3d
00000110: c611 1bba 5c7c 5abb d2ab c3bc 51a3 673d
00000120: bda7 2b3c 16fd 44bd 6cf4 7e3b 067a 24bd
00000130: 105e d03a ea70 60be eec9 51bb 34df f43c
00000140: bdb4 5dbd 0e7c a23d 5a8d 41bd a8b5 a93c
00000150: a486 a6bb 9426 89bd 082b 8a3d a949 febb
00000160: cb03 313d ee0e f63d 6ad5 e13b c9c7 e1bd
00000170: 4137 4fbd 81db 213c cdf3 9dbd 2996 573c
00000180: cc8d ed3c e70b d33d 193c 73bd a2eb 0d3d
00000190: 95aa 6dbb c17b 833d f60d 5a3d 62c9 783e
000001a0: 06a6 533d e71f a4bd 1a17 873d b9a2 de3d
000001b0: 915f 81bb 3490 943d b36f a8bc 294c 1f3e
000001c0: 0244 17be fcf8 1c3d 2fe5 e5bd d269 e1bb
000001d0: 8ea6 3539 e321 8a3d 7ebe dcbb 6462 e6bd
000001e0: 2945 cb3c e14d 4a3d da14 d4bd ceb7 67bd
000001f0: d0bc 9abd a28c 153e d611 febc a69a 0f3d
00000200: 3ab0 0b3b b7ae 4c3d 19e8 5fbd dee6 bfbc
00000210: 5ec4 233d 9f76 123d 910f 1f3c eea5 ef3c
00000220: f537 85bd 985b 043e 64df d0bb 851f f3bc
00000230: e476 81bd 5f91 863d 0939 193c 884c 4abd
00000240: f2bf 493d 1bf6 edbd fd06 ba3d 0eb3 e7bc
00000250: c117 393d 57f7 4e3d 1123 14bd e4b2 df3c
00000260: 2887 c6bd 6cd6 91bc f256 323d 3870 303e
00000270: 8fa3 7c3d acca 3bbd f425 ac3d 9d00 18bd
00000280: 5f6f 8dbd b0b0 80bd c74e e53d b781 713d
00000290: 5363 bb3c e23e 243c 4d20 87bd 5524 56be
000002a0: e4eb 753d 8bd7 e03d 2672 25bd b4ab 05be
000002b0: 96a7 913b 36bd e3bd bcc0 a1bc ba4b 81bd
000002c0: 144e a13d fe6a e2bc bf66 e83a b1f2 273c
000002d0: b8e9 13bc 7465 10bc a554 edbc 4c62 44bc
000002e0: f4a8 3fbd 5df5 d0bd 475b 5b3d bb1a e13d
000002f0: e941 613d 9342 8dbc 49cb d73d cc9e 453d
00000300: a2ff 57bc 9c39 e9bd e922 b2bd 2fa9 8cbd
00000310: bdaf 2b3c cd71 6e3c 02e5 8c3d f5da 1cbd
00000320: 47a6 853c 04e4 1d3d bc32 abbc 8d9e f73b
00000330: 64f7 5e3c c08c 4b3e 25e7 47bd bb65 ccbd
00000340: a6aa 25bd 0acc cbbd 3120 853c 0e19 dabc
00000350: 3204 073d d68f d6bc 400b ee3c 7271 3bbd
00000360: af85 efbc a769 673d 7b17 babc ad44 e73d
00000370: f0b3 11bd fcd3 ebbc e863 3b3d 20fa b8bc
00000380: 84cc a0bc 2440 c2bd b743 643d 7cb4 0bbd
00000390: 62c2 95bc 672a 3abd 4342 a33c ffd7 43be
000003a0: 182d 6dbd 9700 803d 8f45 e3bc 96ed cbbd
000003b0: cdcb b43b d09e 82bd 9fa5 cabc f7db 17be
000003c0: 3bbb 133e ed30 453d c9d1 b33d 1233 453c
000003d0: 4414 d0bc bb25 2abd fdac bfbc 5410 bb3d
000003e0: fc1b c5bd b368 39bd edc2 873d dd53 293d
000003f0: f143 873d 9429 b23c 0934 463d e2d9 ca3d
0.011012566 0.015359051 0.036062468 0.021498596 -0.0073079495 -0.00846164 -0.05127155 -0.0012715926
-0.03213533 -0.013440858 0.02210895 0.025411904 -0.012835895 -0.088780224 0.037886262 0.085332856
0.008620753 0.06731715 0.015620119 0.028277956 -0.035468824 0.011792261 -0.027826225 0.033177283
0.017134191 -0.039387293 0.032153208 -0.064793035 0.012842408 0.021531884 -0.020115884 0.02279814
-0.016652908 0.089251466 -0.04121405 -0.013262681 0.02833399 -0.00014931291 0.005524003 0.23406772
-0.006113408 -0.0416192 0.003067246 0.16899145 -0.012023995 0.04916202 0.021993466 0.091818936
-0.045847647 -0.051177464 -0.02843692 -0.005979401 0.023565557 0.0023560163 0.023615852 -0.029891003
0.08244586 0.033328474 -0.02562643 -0.022171197 -0.046820056 -0.028198844 -0.038154423 -0.020510586
-0.0026534887 0.11104736 0.12840675 0.09976373 -0.0005915429 -0.0033338284 -0.023885641 0.056552235
0.010477004 -0.048092924 0.003890301 -0.040155433 0.0015897173 -0.21918073 -0.0032011229 0.029891588
-0.054127444 0.07933818 -0.047253944 0.020716503 -0.0050819684 -0.06696811 0.06746489 -0.007760246
0.043216508 0.12014566 0.006891896 -0.11024434 -0.050589804 0.009878994 -0.07712517 0.01315836
0.028998278 0.103050046 -0.059383485 0.034648545 -0.0036265005 0.064200886 0.05323597 0.24295571
0.051672004 -0.080138974 0.06596203 0.10870881 -0.00394816 0.07254067 -0.020561075 0.15556397
-0.14772037 0.038323388 -0.11225354 -0.00687907 0.00017323552 0.06744745 -0.0067365756 -0.11249235
0.024813252 0.049390677 -0.103555396 -0.056571774 -0.075555444 0.14604428 -0.031014364 0.035059594
0.0021314756 0.04997131 -0.054664705 -0.023425516 0.039982192 0.035757657 0.009708301 0.029253926
-0.065048136 0.12925565 -0.0063742865 -0.029678116 -0.06321505 0.06570696 0.009351977 -0.049389392
0.04925532 -0.116192065 0.09083364 -0.028283622 0.04518867 0.05052885 -0.036166254 0.027306981
-0.09693748 -0.01780244 0.04353995 0.17230308 0.06167942 -0.04584758 0.084056765 -0.03710996
-0.06906008 -0.062837005 0.11196666 0.058961596 0.02287451 0.010024758 -0.06597958 -0.20912297
0.060039416 0.109786116 -0.040392064 -0.13053781 0.0044450266 -0.111200735 -0.019745223 -0.06313272
0.0787622 -0.027638908 0.0017730816 0.010250733 -0.009027891 -0.008813251 -0.028971026 -0.011986326
-0.046791986 -0.10203049 0.053553846 0.109914266 0.054994497 -0.01724366 0.105368204 0.048247144
-0.013183506 -0.11387941 -0.08698065 -0.06868207 0.010478911 0.014553499 0.06879617 -0.03829475
0.016314639 0.03854753 -0.020898215 0.0075567425 0.013608787 0.1987791 -0.04880442 -0.09980341
-0.040445946 -0.09951027 0.016250702 -0.026623275 0.032962985 -0.026191633 0.029058099 -0.045762487
-0.02923855 0.056497242 -0.022716274 0.11292396 -0.035571992 -0.028787605 0.045749575 -0.022580206
-0.01962877 -0.0948489 0.05572864 -0.03410767 -0.018281166 -0.045450594 0.019929057 -0.19125365
-0.057904333 0.062501125 -0.027743129 -0.09957425 0.005517459 -0.06377947 -0.024737177 -0.14830004
0.14426892 0.048142362 0.08780248 0.012036102 -0.025400288 -0.04153989 -0.023397917 0.09133974
-0.09624478 -0.045265865 0.06628976 0.041339744 0.06604756 0.021748342 0.04838947 0.09904839

bias f4 [24]
00000000: 69ea 6a3d 1400 483d 94ad 66bd 6ddb 2cbd
00000010: 8ded 733c baf3 d4bd 899b f8bd 036f 103c
00000020: 6eed 203f 5284 473f bff1 7b3f bba0 1f3f
00000030: 5a1a 733f 2926 823f 4b4a 6a3f 43b5 563f
00000040: 59b8 0d40 2318 ef3f d6cf a33f d1f0 0a40
00000050: b6cd a63f 1953 183f e206 953f b503 e53f
0.057352457 0.0488282 -0.05631788 -0.04220145 0.0148881795 -0.1039805 -0.12139041 0.00881553
0.6286229 0.7793628 0.9841575 0.6235463 0.94962084 1.0167896 0.9151961 0.83870333
2.2143767 1.8679241 1.2797801 2.1709483 1.3031528 0.59501797 1.1642725 1.7891756

weight f4 [64, 118]
00000000: c20d 133e b863 f1bd bd89 b43d 35f0 cbbd
00000010: 5622 86bc 4f84 5dbd dd83 29be e850 7abd
00000020: 4129 1c3e ee7a c8bd 4050 acbd 8981 5fbd
00000030: 8cbd 253e 8aca 35be 77ca 393d 6745 02be
00000040: f9a0 1abe 403b 67bb 3457 85bc c01d 343e
00000050: ec2c 313e 0315 273e cc9c d7bc 861f 1bbe
00000060: 7228 5e3c ad20 d1bd c00f f5bd 34b1 41bd
00000070: beee d23c 3d04 b1bd 14d4 9b3d d222 143e
00000080: a2db cb3d cf8a 34be 5fdb d4bd 25bf 82bd
00000090: 2d28 093e 564c 393e eb9f e8bd 34d7 ff3d
000000a0: 3ea3 86bc 89ca 2f3e 313a 07bd c300 173e
000000b0: 0e2b 7e3d a015 293e 59bf 953d 2cfb b53d
000000c0: d4a2 babd 3e35 133e f525 9f3d bc00 503b
000000d0: 2ee3 133e a64a 623d d68b 07be 817c bdbb
000000e0: 0ea0 e8bd 001f 1f3d c490 a9bb 964c 8e3b
000000f0: c80b 1c3e 5fdb 0a3e 8388 bfbc f93d d23d
00000100: d229 d0bd c3dc 98bd d621 213e e5d8 2abe
00000110: f79d dabd cbae 0ebd f928 06be 1e08 1cbe
00000120: 375b 07bd 0244 873d 5589 18be b675 ee3b
00000130: a148 e6bc 5bf8 0c3e c4fb f83d 1b3c f5bc
00000140: ceb4 3fbd 5e97 9abd 80fc 1a3d db6f 813d
00000150: 2222 8e3d 5000 a23d 9863 0f3e a3fd 02be
00000160: 364c 8bbd 5524 b13d 1bd0 6abd 0759 c7ba
00000170: 4828 a03d b5bb 863d 776a 07bd 5bce 15be
00000180: b448 8cbd 71cd 863d d546 8bbc fbb2 6ebc
00000190: 4fa1 8e3d 5e04 363e a6ad ac3c b5ca 14bd
000001a0: 998a 35bd 1056 383e 7072 46bb e1ca 2c3e
000001b0: 15a4 47bd 0b53 0a3e 487b 29be 446c 2cbd
000001c0: 7e22 b13b 7ee8 b0bd 6f9f a43d 13e0 2dbe
000001d0: 223d 77bd 445d a0bd e463 b03d e9d6 1cbe
000001e0: 738b d03d f6a1 0bbe abf5 3c3d 9f79 b73d
000001f0: 44cf 29bb 26b0 d43d b786 c13d 0daf b2bd
00000200: 1aff 81bc 5e25 f3bc d021 bdbc 9200 e0bd
00000210: 74df ecbd 1d80 233c 96ed 3ebd 7017 b33b
00000220: 49f7 3c3d 0a96 a23d 4296 01be f7fe 233e
00000230: bba5 ceba d18d 083d 7e92 1d3e 2214 e4bd
00000240: decc 303e 596f d83d 4b47 48bd 6f7a fbbd
00000250: 71d8 e3bb 4f29 da3b f655 8ebd 40de 923d
00000260: f664 923d 841b 963d 459e fdbc 2695 18be
00000270: 381d a4bc 14d8 e33c 93f9 3c3d b726 173e
00000280: cde5 163e 083a 0c3e 8d35 803c 29a6 113e
00000290: 368e 85bc d7e4 d33d 36d4 4ebb 841d e9bd
000002a0: a442 263e 9a7b 113d 252c 1d3e 406f b13d
000002b0: 53b0 01bd 1f80 e8bc 35e8 d9bd 7e8f 253e
000002c0: a802 6c3c fe4b ac3c cd91 053e ec23 293e
000002d0: 538c 363e d845 67bd 13c9 eb3d 9e68 f8bb
000002e0: 426e 5ebd da42 84bc 7388 82bd dfed 09be
000002f0: 6662 edbc 4d21 2f3e 3150 01be b883 08be
00000300: 93c8 0e3e d9fe 3bbb f35d fe3d c557 5a3d
00000310: c6a0 adbc 9193 093d c158 613d 4791 8cbd
00000320: 9210 d83d 6b24 0ebe 1169 a2bd 9d7b febd
00000330: 8c8e b4bd 958f ad3d ed72 513c 0ea6 73bc
00000340: a664 d2bd 7601 123e 43b0 193e c42e 65bd
00000350: 4cdc 03be 054e 0f3d 7d52 ef3c eb61 a63b
00000360: 1051 0d3e 0e7e e23d 1414 4f3d 86ec 11be
00000370: dc10 8fbc c337 83bd 8947 30bc 1710 03be
00000380: 3a86 5ebc 82d6 143e ceec 99bd 6bac b03d
00000390: 1dd6 fbbd 8dfa 9bbd 2837 beb9 e950 743c
000003a0: 0c8f 3dbd 96fb fa3d 92dc 813d 641d 933d
000003b0: f24c 2abe 9c69 7f3d aba4 2cbe 9d01 253e
000003c0: a3ca 203c a0e3 acbc 1a50 b2bd b8c8 29bd
000003d0: 3c99 e5bc ac33 c93d 3f9c 223c 90d9 93bd
000003e0: a21a 30be e54c eabb 97b5 85bd ef76 b13d
000003f0: e146 0fbe aa30 733d 5c53 213c fa48 10be
0.14360717 -0.11786598 0.08815334 -0.09957925 -0.016373795 -0.054081257 -0.16554208 -0.061112314
0.15250112 -0.09789072 -0.08413744 -0.054566894 0.16185588 -0.17753044 0.0453591 -0.12721787
-0.15100469 -0.0035283118 -0.016276933 0.17589474 0.17302293 0.16316609 -0.026319884 -0.15148744
0.013559448 -0.102113105 -0.11965895 -0.047288135 0.025748607 -0.086433865 0.0760881 0.14466408
0.09954001 -0.17631076 -0.10393404 -0.06384114 0.13394232 0.18095526 -0.11358627 0.124922186
-0.016435262 0.17167105 -0.03301448 0.14746384 0.06205278 0.16512156 0.07311887 0.08885798
-0.09113088 0.14375779 0.077709116 0.003173872 0.14442131 0.05524697 -0.13236937 -0.0057826643
-0.11358653 0.038847923 -0.005174728 0.004342626 0.15238869 0.13560246 -0.023380524 0.102657266
-0.101642266 -0.07463982 0.15735564 -0.16684301 -0.10674661 -0.034834664 -0.13101567 -0.15237471
-0.033045974 0.06604768 -0.14896138 0.007277216 -0.028110804 0.13766615 0.121573955 -0.029935887
-0.04680329 -0.07548402 0.03783846 0.06320163 0.06940104 0.07910216 0.14002836 -0.12792067
-0.068016455 0.08649508 -0.05732737 -0.0015209027 0.07820183 0.06578771 -0.033060517 -0.146295
-0.068498045 0.065821536 -0.017001549 -0.014569039 0.06964361 0.17775103 0.021078896 -0.03632613
-0.04432163 0.1800158 -0.0030280612 0.16874267 -0.048740465 0.13508241 -0.16550934 -0.042095438
0.005405723 -0.08638094 0.08038222 -0.16980009 -0.060361035 -0.07830289 0.086128026 -0.15316357
0.10182848 -0.13636002 0.046132725 0.08958744 -0.0025910893 0.1038516 0.09449523 -0.087247945
-0.015868712 -0.029680904 -0.023087412 -0.10937609 -0.11566058 0.009979275 -0.0466133 0.0054654405
0.046134267 0.07938774 -0.12654975 0.1601523 -0.0015765944 0.03333837 0.15387914 -0.111366525
0.1726565 0.10568113 -0.048896115 -0.12279212 -0.006953292 0.0066577564 -0.069499895 0.07171297
0.07148163 0.07329467 -0.030959258 -0.14900646 -0.020033464 0.027812995 0.04613645 0.14760862
0.147361 0.13694012 0.015650535 0.14223541 -0.016303163 0.10346382 -0.0031559593 -0.11382583
0.16236359 0.035518266 0.15348871 0.086637974 -0.031662297 -0.028381405 -0.10639993 0.16168019
0.01440493 0.02103233 0.130439 0.1651761 0.17826967 -0.056463093 0.11512961 -0.0075808307
-0.05430437 -0.016145159 -0.06373682 -0.13469647 -0.028977584 0.17102547 -0.12628247 -0.13331497
0.139437 -0.0028685837 0.12420263 0.05330636 -0.021194827 0.033587996 0.055016283 -0.06863647
0.105500355 -0.1388108 -0.07930196 -0.12425921 -0.08816251 0.08474652 0.012783748 -0.0148711335
-0.102731034 0.1425837 0.15008645 -0.055952802 -0.12877005 0.034986515 0.029214138 0.0050775907
0.13800454 0.11059199 0.050556257 -0.14250383 -0.017464094 -0.0640712 -0.010759243 -0.12799107
-0.013581807 0.14534953 -0.0751587 0.08626636 -0.12296698 -0.07616148 -0.0003628072 0.014911869
-0.046279 0.122550175 0.063408986 0.0718334 -0.16630915 0.062356576 -0.16859691 0.16113897
0.009813937 -0.021104634 -0.087066844 -0.041451186 -0.02802717 0.09824309 0.009924947 -0.07219231
-0.1719766 -0.00715028 -0.06528776 0.08665263 -0.13991882 0.05937258 0.009846535 -0.14090338

bias f4 [64]
00000000: 447e 853c 94f9 3cbd 3d82 21bc 6881 a9bc
00000010: 4ef9 833d 22b5 ef3c 9ee9 a2bc 0715 863e
00000020: 9b5f f73c 1129 103d 2405 213d f638 adbd
00000030: ed12 0fbd e196 e0bc eb1b dc3c 120c 613b
00000040: 287b 04be 3bc2 cf3b 4338 2fbb c83e 98bd
00000050: 330d 24bd bf30 dcbc 01ef 09bc 7d45 863d
00000060: e0c9 c2bd 969a 183d 8c1c 11bd 60b3 ae3d
00000070: 1a93 a03c c5f6 0f3d cab4 afbd df5b 7dbd
00000080: d7a6 a83d fcfd 46bd 2231 8c3d 46ed 8e3d
00000090: 1a9a da3d 9c4e 173d 3a8d 963c df15 f2bc
000000a0: 09df dabd 9bd7 003e 6192 b13d 351c 42bd
000000b0: fd96 72bd 80d9 c2bc 3d23 553c d1fb 81bc
000000c0: 188e 273d 8928 283d a2fd 82bd 8050 09bc
000000d0: 67e0 edbb 1e0b 75bd f183 ef3d db3c 8d3d
000000e0: f843 533c 9663 093d 8121 bc3c a30e 473c
000000f0: 8c90 013c 4a5f 83bd 6b81 323c 1b58 b8bb
0.01629556 -0.046136454 -0.009857711 -0.020691589 0.064440355 0.029261176 -0.019886788 0.26187918
0.030196955 0.035195414 0.039311543 -0.0845813 -0.03493016 -0.027415695 0.026868781 0.003433947
-0.12937605 0.0063402927 -0.0026736415 -0.074338496 -0.04005165 -0.026878713 -0.008418799 0.065562226
-0.09511161 0.0372568 -0.035427615 0.08530307 0.019601393 0.035147447 -0.08579405 -0.061855193
0.08234947 -0.048582062 0.06845309 0.0697885 0.10673924 0.036940202 0.018377889 -0.029551445
-0.10687072 0.12582247 0.08670498 -0.04739018 -0.059226025 -0.023785353 0.01300889 -0.015867146
0.040906996 0.041054282 -0.06396033 -0.008381009 -0.007259417 -0.059825055 0.11695088 0.06896373
0.012894623 0.03354224 0.022965195 0.012149486 0.007907998 -0.06414659 0.010895113 -0.0056257374

alpha f4 [1, 64]
00000000: fd7b 0080 a2b9 0680 8e0b 0100 4dc6 873f
00000010: 0d49 883f b501 903f 794c e291 64e4 45be
00000020: 94b7 853f a537 8b3f 8670 0100 417f 8c3f
00000030: 91a3 873f 8e18 0080 8279 8d3f 8e2f 0180
00000040: 01ef 8dbc a624 0080 a0ff 743f 2c9c 893f
00000050: d9bd 923f e2ac 783f 12a6 c736 a482 5a0c
00000060: f7f0 0232 5baf bc3f 7ac9 8c3f 9f9a 883f
00000070: 84b7 803f 3cae 873f 33cf 8d3f 4734 923f
00000080: d999 923f 0260 8c3f 9cd8 8981 eb6d 833f
00000090: ba30 953e 5ee6 8f3f 8a57 9f3f 2c05 853f
000000a0: 7c11 0180 a074 963f 2137 8b3f 1e21 973f
000000b0: 6c19 8e3f 4435 0080 f5a9 863f d0a9 0580
000000c0: f089 b03f b56b 8a36 ede7 0800 267e 853f
000000d0: 81a1 803f 92df 953f 4799 8f3f 9b83 973f
000000e0: a175 8b3f ff93 1e98 961d 883f 80aa 8a3f
000000f0: 5e2b b63f 0331 0080 7565 8f3f 5fce 933f
-4.4479e-41 -6.17605e-40 9.598e-41 1.0607392 1.0647293 1.1250521 -3.5703643e-28 -0.19325405
1.0446649 1.0876356 1.32201e-40 1.0976335 1.0596792 -8.809e-42 1.1052706 -1.08895e-40
-0.01732588 -1.3147e-41 0.9570255 1.0750785 1.1464187 0.971388 5.9499953e-06 1.6833422e-31
7.621785e-09 1.4741014 1.0998986 1.0672187 1.0056005 1.0600047 1.1078857 1.1422204
1.14532 1.0966799 -5.063667e-38 1.0267919 0.29138738 1.1242177 1.244859 1.0392203
-9.8108e-41 1.1754341 1.0876199 1.1806982 1.1101508 -1.9108e-41 1.0520617 -5.20095e-40
1.3792095 4.1252592e-06 8.17883e-40 1.0429122 1.0049287 1.1708853 1.1218652 1.1837038
1.0895272 -2.049574e-24 1.0634029 1.0833282 1.4231985 -1.7582e-41 1.1202837 1.1547354

beta f4 [1, 64]
00000000: b814 0100 8cfc 5380 e7f0 0080 df2e f73d
00000010: 61b9 f53d 6b3c 2c3e 1536 e411 03fa 46be
00000020: a2a4 ca3d 6eae 083e 6252 0180 fdda 0f3e
00000030: fe79 f13d 2132 0000 87a9 1f3e c45a 0000
00000040: a1ec 88bc 0930 0080 a4ec 943c 03b0 fd3d
00000050: 9892 1a3e cfec 7c3d 5d3e f832 9de6 3e8d
00000060: c4d5 c432 ef43 df3e 3db1 123e e386 fb3d
00000070: 7f63 b23d 5733 f63d 88a6 193e 1343 3b3e
00000080: b392 3f3e 0473 103e 4a55 8a80 c85d 853d
00000090: 5df4 ff34 e0f7 2a3e 90b5 6e3e b70b c33d
000000a0: 122c 0000 c627 453e acf2 083e 3b9a 503e
000000b0: 28a6 1b3e 885b 0180 f75d c93d 7075 0780
000000c0: 9b59 9e3e 19e2 16b6 d30d 0000 192e e23d
000000d0: 6d80 883d 859c 4f3e 1320 273e ad88 5c3e
000000e0: b367 0a3e d757 8595 5226 013e 80cd 013e
000000f0: 24b2 c63e 9e39 0080 c2ab 2c3e 7e60 3f3e
9.9268e-41 -7.712943e-39 -8.642e-41 0.12069487 0.11998249 0.16819923 3.6005388e-28 -0.1943131
0.098946825 0.1334779 -1.21389e-40 0.14048381 0.11790846 1.7983e-41 0.15592013 3.256e-41
-0.016714396 -1.7232e-41 0.018179245 0.12387087 0.15094984 0.061749276 2.889936e-08 -5.882586e-31
2.2914612e-08 0.43606517 0.14325424 0.12281587 0.087103836 0.12021511 0.15004933 0.18287306
0.18708305 0.14106375 -1.2703894e-38 0.06512028 4.767525e-07 0.1669612 0.23311448 0.09523719
1.581e-41 0.19253454 0.13373822 0.20371334 0.15200102 -1.24671e-40 0.098323755 -6.84977e-40
0.3092774 -2.2483348e-06 4.959e-42 0.11043949 0.0666512 0.20274551 0.16320829 0.21536513
0.1351612 -5.385686e-26 0.12612274 0.12676048 0.38807786 -2.0669e-41 0.16862395 0.18689153

weight f4 [108, 64]
00000000: aa7e 3bbd 0c74 b3bd 9614 23bd 58bd 64be
00000010: 153c 5a3e f878 913e 46ce a2bd 86a1 06bd
00000020: 1f14 6dbe 6439 303e 9c0d e43a 6075 66be
00000030: 6718 85be 847e 753d 58e7 963e b374 a03d
00000040: 9aa5 b23b ea6e 833b c591 5d3d f63b 40be
00000050: 4290 9fbc c5a5 73be 19f6 003d 710b 82bd
00000060: 54c9 463d d8c5 38be 6b4c 5dbe 93ea 5e3e
00000070: 96f2 4a3e 67d9 863e 59b8 87be b0d3 a1be
00000080: 91a9 9f3e b38a 54be 5417 8fbc 0fd2 513c
00000090: ff69 a4bd 1951 863e 5dea 37be 20b2 30be
000000a0: 6ca7 843a 3185 7abc 2b3f 5d3e 3734 2bbe
000000b0: c24c 65be e9bf a73c b392 29be 315b e83c
000000c0: 4945 0e3d ea5d b53d ccba 3e3b d864 893e
000000d0: 3914 393e 2c9e 13be bad7 873e f784 323e
000000e0: 9a36 473e c36e 3d3d 8c73 7a3e 8bfa 38be
000000f0: 2c0f 7bbe c2bf e1bc ad5b 9d3e 99e3 39be
00000100: 2abd 3bbd c61d 19be d4e3 85bd 0c56 803e
00000110: ae5b 09be a83b 99be c799 92bc 7f79 3e3d
00000120: a079 543e d4b5 dbbd e2ce 3a3d 8d74 1f3e
00000130: 2c31 313e 8599 db3d b5e5 96be 00ea 113d
00000140: fe68 88bd 758e 483d 32e0 aabc 12d7 d53d
00000150: 4827 8f3c b6c0 503e c1a7 1e3d fa9d d7bd
00000160: 32db 0b3d 6942 47bd b0d1 033e 0016 7dbe
00000170: 9ea1 3dbe d428 3ebe 1eda 853e 4c6a 873e
00000180: db63 95be 192c 083e 14f5 ebbc afac 123c
00000190: 594f b3bc 9ac9 34be 66ee 763d b1a0 a63d
000001a0: 5347 ceba 14d6 653b 7f78 1cbe 8041 ea3d
000001b0: 85e1 1c3e 3032 2fbd 1338 a73d 2d3f b4bc
000001c0: 591f 98bd c252 093e a469 8d3b 9149 85be
000001d0: b34d d5bd 3a7b a73d f4ee 4cbe d7f6 f6bd
000001e0: 7b23 e2bd db8c a93d 750e 63be 6832 e53d
000001f0: 2e9e 46bc ff66 923d 95a7 92be fc5f 013e
00000200: 5a50 7ebb 38fc 37bd 6e90 0fbc d94e 0f3e
00000210: de1e 9fbd 5cac 07be e6e2 9abc 0801 273d
00000220: da21 dc3d ba95 8dbd 9248 0cbb d867 c13d
00000230: 635e c03d 1e39 193d 36dc 00be 7afe 433d
00000240: a5b6 d9bc 9c56 b4bc 403a f0bc d056 a93d
00000250: 3a5f 03bd 4ce8 da3d 828a f3b9 59f9 13bd
00000260: 26d6 be3c 2067 0d3e c7dc 923d 13c5 1cbe
00000270: 2e27 ebbd b294 c8bd e3a5 fe3d 33d0 023e
00000280: c859 0abe 86e5 913d cf7f 08bd 13ea 0a3d
00000290: 31e7 df3c cccc cabd 36f4 df3d 7af2 9b3d
000002a0: 173c 2e3c 61ad 873c 4344 d9bd 8442 883d
000002b0: 1ba4 c13d 6008 433d 02b1 b83d 8b7e 833d
000002c0: d32b 453c f4a9 a13d 755f 90bd 6dbb e4bd
000002d0: 9de1 9dbd 708a 1f3d d700 e7bd 14bf 88bd
000002e0: e615 89bd 2fb8 6b3d 3401 babd 79c8 933d
000002f0: 94a4 283e a4ed da3c c5dd 02be add8 833d
00000300: f38e 28bd 8344 c6bd 173c aebb 5161 453d
00000310: 8a8d 823c 4023 ebbc 1bbf f4bc f6a9 513d
00000320: 85cb 373c d2a8 793c 0bd5 c63c e87d ca3c
00000330: 93d6 18bc 60ad ae3d 8388 90bc c0c6 673d
00000340: 058c 9fbc 4f5f 4a3d 0da6 65bc 27b3 e23c
00000350: 24a1 97bc a1de 17bc 8621 533d f37d b2bd
00000360: 8609 903d a195 6abd 9ce5 00bc 052f 82bd
00000370: 65d9 01bd 598f f73a 253c d23c fcdb 763c
00000380: a24c d1bc 17b8 8dbc da49 d8bb 9f9e ba3c
00000390: 92d4 8cbd 2e5d 52bc 9793 3f3d 7192 983c
000003a0: b8d8 55bc 0dd4 81b9 fcbd 40bd f40d e53c
000003b0: 47de e03c e1a5 013d 12ec 9b3c 1300 63bc
000003c0: da41 55bc d09f 9e3d 4858 b73a cc94 f8bb
000003d0: 1512 80ba 96e7 3e3b 4604 06bd 3b01 d9bc
000003e0: 8b99 b4b9 df4c 423d 3663 cabc a4a7 0b3b
000003f0: 59bf 633d ec4c 97bc 0334 87bc e6dd 9abb
-0.045775093 -0.087623686 -0.039814554 -0.22337854 0.21311982 0.28412604 -0.079495 -0.032868885
-0.23152207 0.17209393 0.0017399075 -0.22505713 -0.2599518 0.059935108 0.29473376 0.078347586
0.00545187 0.0040110247 0.054094095 -0.18772873 -0.019477967 -0.23793705 0.031484697 -0.063498385
0.048531845 -0.18044221 -0.21611182 0.2176917 0.19819102 0.2633774 -0.26507834 -0.31606817
0.31184056 -0.20756035 -0.017467178 0.0128064295 -0.0802803 0.26233748 -0.17960496 -0.1725545
0.0010120696 -0.015290544 0.21606128 -0.16719137 -0.22392562 0.020477252 -0.16559868 0.028363796
0.034734044 0.08855803 0.0029103039 0.2683475 0.1807412 -0.14415807 0.26531774 0.17433535
0.19454423 0.04624821 0.2445814 -0.18064325 -0.24517506 -0.027557258 0.30734006 -0.18153228
-0.045834698 -0.14952764 -0.065375954 0.2506565 -0.1341388 -0.29928327 -0.017895592 0.046502586
0.20749521 -0.1072804 0.045607455 0.15571804 0.17303914 0.10722641 -0.29472128 0.03562355
-0.06660651 0.048963983 -0.020858858 0.10441412 0.017474785 0.20386013 0.0387342 -0.105281785
0.034144588 -0.048647318 0.12872958 -0.24715424 -0.18518683 -0.18570262 0.26142973 0.26448286
-0.29177746 0.13298072 -0.028803386 0.008952304 -0.021888422 -0.1765503 0.06028595 0.08136118
-0.0015737809 0.0035070227 -0.1528034 0.114382744 0.15320404 -0.042772472 0.08164992 -0.02200278
-0.07427854 0.13410476 0.004315572 -0.2603269 -0.104152106 0.081778005 -0.20013028 -0.120588
-0.110419236 0.08278819 -0.22173484 0.11191255 -0.012122674 0.07148551 -0.2864348 0.12634271
-0.0038805217 -0.04491827 -0.008762462 0.13994922 -0.07769559 -0.13249344 -0.018907022 0.040772468
0.10748644 -0.06913324 -0.002140556 0.09443635 0.09393003 0.037407987 -0.12584004 0.04785011
-0.02657635 -0.022013955 -0.02932465 0.08268511 -0.032073237 0.10688838 -0.00046451768 -0.03612647
0.023295473 0.1380887 0.07171016 -0.15309553 -0.11482082 -0.097939864 0.12433984 0.12774734
-0.13510811 0.07123856 -0.033325013 0.033914637 0.02733192 -0.09902343 0.109352514 0.07614608
0.010634444 0.016562166 -0.10608723 0.06653312 0.09455129 0.04761541 0.090181366 0.064206205
0.012034374 0.07893744 -0.07049457 -0.11168561 -0.07709048 0.038950384 -0.11279457 -0.0667707
-0.0669363 0.057548698 -0.09082261 0.072159715 0.16469032 0.026724644 -0.12779911 0.06437812
-0.041151952 -0.09681036 -0.005317222 0.04818851 0.015936632 -0.028703332 -0.029876282 0.051187478
0.011217956 0.015238004 0.024271509 0.02471824 -0.009328502 0.085291624 -0.017643219 0.056586027
-0.019475946 0.0494073 -0.01401664 0.027673317 -0.018509455 -0.009269387 0.051545642 -0.08715429
0.070330665 -0.057271603 -0.007867243 -0.063566245 -0.031701464 0.0018887325 0.025663445 0.015067097
-0.025549237 -0.017299695 -0.0066006007 0.022780715 -0.06876482 -0.012839599 0.046771612 0.018624516
-0.013052158 -0.00024762788 -0.047056183 0.027960755 0.02744974 0.031652335 0.019033466 -0.013854998
-0.0130161885 0.077453256 0.0013988102 -0.0075860973 -0.0009771014 0.0029129735 -0.03271892 -0.026489845
-0.00034446674 0.04743659 -0.02470551 0.0021309638 0.055602405 -0.018469296 -0.016504293 -0.0047261594

bias f4 [108]
00000000: 1e03 67bc 806c 243a bf67 1fbd 6cf9 b6bd
00000010: f456 39bc ca17 54bd e8fe 41bd 4332 2e3d
00000020: cd34 57bd a316 f5bb b69a 56bd 881e f4bc
00000030: 7873 40bb 077b acbd 6a78 33bd c5d5 f6bd
00000040: 95a8 c3bb 1294 023d 68f7 00be a880 d3bc
00000050: 7208 1ebe a9f1 2abd 2902 30bc 989c 56bc
00000060: a443 4bbd 5c81 77bd 1eb8 133b 6992 2bbc
00000070: 5827 95bd b090 cabd fd2f 8cbb 7fdf 9dbd
00000080: 7680 cbbd f872 9abd e80c 14bc 3174 cdbc
00000090: 653c 5cbe 757c cebd b4ee f13b 1574 613c
000000a0: 6233 b6bd cc17 c3bc 4ca9 47bd 199a d93c
000000b0: aff2 83bd cb93 0cbe b770 a0bd e48d 45bd
000000c0: 5c75 8cbd dd06 a9bc 46dc 5abc c5cd 93bb
000000d0: b4d2 fabc e14e 92bd 488b e93d 7457 40bd
000000e0: 40ea 83bd 7d11 dabb b72a adbb f20f ebbd
000000f0: e0ae 65bc 587d 1dbd 4a2e 833c e165 dfbd
00000100: ac05 1dbd f444 17bd 82aa 45bd 6a99 dbbb
00000110: 7109 e8bc 85e6 09bd a4d7 9bbc fe6d 98bd
00000120: 4bfe 8abd 2a49 53bd 4bfe 76bd 05c7 83bd
00000130: 6346 ec3b faf2 79bc 7c0b cdbd 71ef 54bd
00000140: 4618 ecbd b767 85bd f03b ca3b 0dd3 e2bc
00000150: 096d 5c3b 3009 8c3c d7aa cfbc c151 b6bd
00000160: fdf5 7bbd 4ced 15bd 5db1 b9bc 8d57 9bbd
00000170: 10fe 64bd bfee 8c3b a274 86bc 8e80 7bbd
00000180: 13b5 8b3b b145 99bd 9b89 d0bd fb1a b5bd
00000190: 35cc 22bb 3eee dcbd 7704 f7bd 8b5b 6cbd
000001a0: 727a abbc 73bd 1bbd 1330 c8bd 48de c7bc
-0.014099864 0.0006272271 -0.0389173 -0.08934292 -0.011312235 -0.0517805 -0.04736224 0.042528402
-0.05254059 -0.007479505 -0.052393638 -0.029799715 -0.00293657 -0.08421903 -0.043816008 -0.12052492
-0.0059710243 0.031879492 -0.12594378 -0.025818184 -0.15432909 -0.04173437 -0.0107427025 -0.013098858
-0.049625054 -0.0604261 0.0022540162 -0.010471919 -0.07282895 -0.09890878 -0.0042781816 -0.07708644
-0.09936611 -0.0754146 -0.00903628 -0.025079818 -0.21507414 -0.10082332 0.007383192 0.013760586
-0.08896519 -0.023815058 -0.04874544 0.026562737 -0.064427726 -0.13728254 -0.07833999 -0.04823102
-0.06858322 -0.020633155 -0.013358181 -0.0045106136 -0.03061805 -0.07143951 0.11403519 -0.0469584
-0.06441164 -0.006654917 -0.005284633 -0.11477651 -0.014018744 -0.038449615 0.016013283 -0.10908104
-0.038335487 -0.036930993 -0.048258312 -0.006701638 -0.028324815 -0.033667106 -0.019023724 -0.07442854
-0.06786784 -0.051583447 -0.060301106 -0.06434444 0.007210539 -0.015255684 -0.10011956 -0.05198616
-0.11528067 -0.06513923 0.006171696 -0.027688527 0.0033634326 0.017094225 -0.025350017 -0.08902312
-0.06151389 -0.036603257 -0.022667581 -0.07585058 -0.055906355 0.0043009217 -0.016413037 -0.061401896
0.004263529 -0.07483996 -0.10182496 -0.08843037 -0.0024840955 -0.107876286 -0.120613985 -0.05770449
-0.02093241 -0.03802247 -0.097747944 -0.024397984

weight f4 [16, 108]
00000000: d80f 223e e4c0 20bb f586 053e 4ee1 0fbe
00000010: 1522 773d d50c 31be 681b 47be d625 82be
00000020: ed96 0f3f c784 253e 1bf0 c43d 8f7b 763d
00000030: 25b7 863d a2bc 8a3e 6be7 4e3e d63a 99bd
00000040: f607 90bc 1f84 b03c d44e 1abe c362 71be
00000050: b986 9f3c 24f3 5e3d eb08 983b ed45 23bd
00000060: bba9 33be e389 fa3d 22c1 6dbe 6ccf 053d
00000070: 1c0e 123e 64c7 143e b7a8 a53d 057f a83e
00000080: dee5 85bd b91f 3d3e 1259 eb3e 72e3 b2be
00000090: 4480 dcbe 87ff b1bd 80ea ffbd 718e f7bd
000000a0: c3b2 b9bc 4786 cfbd d889 a2be 9efe d53d
000000b0: 8b80 40be 7302 353d 4a42 063d c090 86be
000000c0: 03d7 38be 1405 5a3e cdab e23c a48d db3d
000000d0: 9c3c 04be 6e75 72be 8300 96bd ea19 f33d
000000e0: b6de b0bc 96c0 42be adbd 08bf e81e 003e
000000f0: 055d 2bbe c307 913e 9ebe 8bbe 8912 74be
00000100: 77b0 31bc 61ff 83be 5871 b83d 8273 babd
00000110: a28c 76be 1b8b 7bbe 9876 b63e 2a04 cc3d
00000120: cc47 7fbe 7a9d c63e b9cf b1be 0450 4dbd
00000130: 2209 bc3b 4e49 cfbd 6ee8 f13c 52ed edbd
00000140: 0ef7 00be 4da7 043f 6d38 57bd 46b1 423d
00000150: 0e1c 9c3d 1057 47bd 81f4 0f3d 401a ca3d
00000160: b840 bd3d 7a88 223e 8b12 573e ca83 7b3e
00000170: 2b4b bcbe 344f c23d 60d5 f7bc b7e3 983e
00000180: 4fe9 7fbe 58a0 c43c a0aa 6e3e 4458 1cbc
00000190: cd18 d7bd af1f d6bd 6cfa 59ba 8e23 14bd
000001a0: 9ddd 5d3d 1fd6 9fbe 3a8d 11bd f53b 023e
000001b0: 1597 843e c58f f6bc f586 753e f5ba be3d
000001c0: 6023 dcbe ee64 933e ec5e 883c 1c00 aa3d
000001d0: cd70 dabb 4199 533e 5e6f 513d 2d3d 1e3d
000001e0: 72be a33c d793 19be 121a 1fbc 8c9a 163e
000001f0: c131 223c 1ab7 2ebe 16a2 51bd 8bb8 febe
00000200: b14e cebc 0c74 24bd 62b9 053e 492a 22be
00000210: ac14 39be 7d46 6fbe a17e 353d 147a 1c3c
00000220: 4772 adbd 447e 033e 0a61 95be 8786 a1be
00000230: 639e d1bd 8c13 49be 8e74 3ebd 51cf 7d3e
00000240: a069 1ebe 02c5 bb3e 1718 693e e7a4 62bc
00000250: af7a e73d 81a1 cf3b 7911 19be 2359 febd
00000260: e050 e83d 1482 8a3c a98d de3d 7253 be3e
00000270: be38 38be 104f 53be 3ad2 af3c 22a2 a1be
00000280: baf3 f43d c573 1dbc 3613 093e 6229 2cbe
00000290: ace8 043e 8034 cd3e 3504 2e3e 4d27 f2b9
000002a0: 672e b0bc ee04 26be db38 6bbe 3727 723d
000002b0: a262 4f3e c654 2d3e 965e b2bd 0870 8bbd
000002c0: a998 ddbb aede 0f3f 4579 93be 9f91 babe
000002d0: 68cc 53bd a8dc d13c 09f4 943d f57c a0be
000002e0: 030d 1ebd b509 653e 9838 19be 5e38 c93e
000002f0: c572 9cbd d870 0ebe 5e6c 1c3e 4b07 30be
00000300: 5f24 183e 4f29 1ebf f4a4 6ebd 6af4 b23d
00000310: f9f0 b0bd e1cf c9be 5374 403e e62b 223d
00000320: 620a 953c eca1 f5bd 5648 8c3e 2fd2 9dbd
00000330: c767 d83e c34f efbe eb07 733e dc00 3c3c
00000340: 6fe1 193e 2399 9b3d 2f4a 07be 0455 d93b
00000350: 6ea6 b4be f098 bd3d 620c e33b bd04 18be
00000360: 1c43 1f3e b4ef 303d d65e a6ba 44f7 81be
00000370: d311 44be 6357 b3bd ef15 41be c7f0 983e
00000380: 7d30 0d3d 38cd 043d 108b 6ebe b671 3c3e
00000390: 3da8 bcbe fd56 05be 81d5 49be 0298 133e
000003a0: 3056 b43d 9ae6 2a3e 4aa7 323e 0cab 933d
000003b0: 5041 073e 3d86 1b3e 6855 373e 6c7f 08be
000003c0: 00c1 24be 7e8c 3a3e 1cda f0bd 512d 7e3d
000003d0: 1303 023e 6388 13be 69b4 b8be f752 c8be
000003e0: 1793 9fbd 2293 5c3e 8c5f 06be b9d8 3dbd
000003f0: 8114 bf3e 8fd7 9ebd 4fab 003e 84da 073d
0.15826356 -0.0024529034 0.13039763 -0.1405079 0.060335238 -0.17290051 -0.19444048 -0.25419492
0.5608967 0.16163932 0.09616109 0.06017643 0.06577901 0.2709704 0.20205466 -0.07481925
-0.017581921 0.021547375 -0.15069133 -0.23572831 0.01947342 0.054431096 0.004639735 -0.03986161
-0.17545216 0.12233331 -0.23218206 0.032668516 0.14263195 0.14529186 0.080888204 0.32909408
-0.06537984 0.18469132 0.45966393 -0.34939152 -0.4306661 -0.08691316 -0.12495899 -0.120877154
-0.022668248 -0.10133033 -0.3174579 0.10448955 -0.18799035 0.04419179 0.032778062 -0.2628231
-0.1805077 0.21291 0.027669812 0.10720375 -0.12913746 -0.23677608 -0.07324316 0.11870177
-0.021590572 -0.19018778 -0.5341442 0.1251179 -0.16734703 0.28326234 -0.27293867 -0.23835196
-0.010845295 -0.25780776 0.090059936 -0.091040626 -0.24077085 -0.24564783 0.35637355 0.09961732
-0.24929732 0.3879202 -0.34728792 -0.050125137 0.0057383934 -0.10121404 0.029529776 -0.11617531
-0.12594244 0.5181778 -0.052544046 0.047532342 0.076225385 -0.048667014 0.035145286 0.09868288
0.0924086 0.15872374 0.21003167 0.24561992 -0.367761 0.09487763 -0.030253112 0.29861233
-0.24991344 0.02400224 0.23307276 -0.009542529 -0.10502777 -0.10455262 -0.0008315209 -0.03616672
0.054166425 -0.3121805 -0.035535075 0.12718184 0.25896516 -0.030097852 0.23977263 0.09313003
-0.4299574 0.2878794 0.016646825 0.08300802 -0.006666279 0.2066393 0.0511316 0.03863256
0.019988272 -0.14997803 -0.0097108055 0.14707392 0.009899558 -0.17062035 -0.051179968 -0.4975017
-0.025184007 -0.040149733 0.13058999 -0.15836443 -0.18074292 -0.23366733 0.044310216 0.00955059
-0.08469062 0.12841135 -0.29175597 -0.3154795 -0.10235288 -0.19636363 -0.046497874 0.24786116
-0.1546998 0.36673743 0.22763096 -0.013833261 0.11302697 0.0063363914 -0.14948072 -0.12419345
0.11343551 0.01690773 0.10866863 0.3717304 -0.17990395 -0.20635629 0.021462549 -0.3156901
0.1196055 -0.009610121 0.13386235 -0.16812661 0.12979382 0.40079117 0.16993792 -0.00046187118
-0.021506501 -0.16212818 -0.22970907 0.05911943 0.20252469 0.1692687 -0.08709447 -0.06808478
-0.0067625833 0.5619916 -0.2880346 -0.36439225 -0.05170861 0.025617912 0.072731085 -0.31345335
-0.038586628 0.22366984 -0.14962995 0.39300817 -0.07639078 -0.13910234 0.15275714 -0.17190282
0.14857624 -0.6178178 -0.05826278 0.087380245 -0.08639712 -0.39416412 0.18794374 0.039592646
0.018193427 -0.11993775 0.27398938 -0.07706105 0.42266676 -0.4674054 0.23733489 0.011474814
0.15027402 0.07597568 -0.13211893 0.006632449 -0.35283226 0.09257686 0.0069289664 -0.14845558
0.15552944 0.04319735 -0.0012693058 -0.2538396 -0.19147424 -0.08756902 -0.18856023 0.298712
0.03447007 0.032422274 -0.23295236 0.18402752 -0.36847106 -0.13021465 -0.19710352 0.14413455
0.088055015 0.1668953 0.17446628 0.07210359 0.13208508 0.15187927 0.17903674 -0.13329858
-0.16089249 0.18217656 -0.11760351 0.062054936 0.12696485 -0.14407496 -0.36075142 -0.39125797
-0.07791727 0.21540502 -0.13122386 -0.04634926 0.3732033 -0.07755958 0.12565349 0.033167377
