reann2.0_20250825/example/LYC/REANN_LAMMPS_DOUBLE.pt (torch, 526627 bytes, 93 tensors)

contracted_coeff f8 [4, 3, 8, 108]
-0.055964261293411255 -0.3022964894771576 -0.08665931224822998 -0.47417569160461426 0.21237505972385406 0.442017525434494 0.02496207132935524 -0.1442432552576065
-0.15723341703414917 -0.2403307557106018 0.020807133987545967 0.24296334385871887 -0.13625264167785645 -0.21218937635421753 0.15513910353183746 0.4054490923881531
0.5522127151489258 0.30258363485336304 -0.2540419399738312 -0.23834173381328583 0.25297456979751587 -0.00680044200271368 0.5506787300109863 0.3333325684070587
0.5988165140151978 -0.12213648855686188 0.4104783833026886 0.3795402944087982 0.27695390582084656 0.0016456309240311384 0.06996715813875198 0.041802696883678436
0.2090047299861908 -0.2344478964805603 0.14667156338691711 -0.3348865509033203 0.30285054445266724 -0.3867450952529907 -0.6003158092498779 0.3407137393951416
-0.3777181804180145 -0.16198314726352692 0.414180189371109 -0.05674908310174942 -0.2326585352420807 -0.20749510824680328 -0.2710404098033905 -0.5365393757820129
-0.15953320264816284 0.5545003414154053 -0.3178980052471161 -0.22503216564655304 -0.2774009704589844 -0.1398141086101532 -0.2253289520740509 0.1909654438495636
-0.4020276367664337 0.4333764314651489 -0.1720532923936844 0.5172068476676941 -0.564102292060852 0.16623198986053467 0.26538005471229553 0.2131267786026001
-0.316812127828598 0.2013542652130127 -0.4228110909461975 0.1706862896680832 0.06263106316328049 0.3797253370285034 -0.015185779891908169 -0.19078390300273895
0.62031489610672 -0.18280212581157684 0.5570425987243652 -0.29948756098747253 -0.017895761877298355 0.5039374828338623 -0.20063990354537964 -0.17449069023132324
0.5421262979507446 0.19860835373401642 0.040893975645303726 0.3603609502315521 -0.08614656329154968 -0.10016582161188126 0.18828357756137848 0.15413004159927368
-0.06351818144321442 -0.046136513352394104 -0.2912221848964691 0.13547232747077942 -0.24932152032852173 0.3456590175628662 0.06480243802070618 0.27816471457481384
0.5241771936416626 0.2592454254627228 0.3707347810268402 0.40348950028419495 -0.4777482748031616 0.4097454249858856 -0.11496885865926743 0.31078270077705383
0.20226968824863434 0.4042206108570099 0.02260465733706951 0.1308917999267578 -0.21819262206554413 -0.3310924172401428 0.0014706813963130116 -1.0245784521102905
0.3779914677143097 0.4991125762462616 0.08814465999603271 -0.10212160646915436 -0.3444111943244934 -0.03177853301167488 -0.13529632985591888 0.057248495519161224
-0.1107526421546936 0.0112905940040946 0.07724080234766006 0.4028054177761078 -0.3177123963832855 -0.04790984466671944 -0.0965673178434372 -0.33387747406959534
-0.012394753284752369 -0.13826051354408264 1.043735384941101 0.5671880841255188 0.8431999683380127 -0.33930888772010803 -0.056763071566820145 -0.3204616606235504
0.1855716109275818 -0.19475071132183075 -0.07296071201562881 0.029149848967790604 0.04361215978860855 -0.21890586614608765 0.1577361822128296 0.06355161964893341
0.39479923248291016 -0.4381750226020813 -0.7021905779838562 0.21203723549842834 -0.6594244837760925 -0.3928883373737335 -0.0694945752620697 0.17839239537715912
-0.2708362936973572 -0.6771042346954346 -0.5304551124572754 -0.01668565720319748 0.08076708018779755 -0.30284276604652405 -0.5554149150848389 -0.18021906912326813
0.28942257165908813 -0.04465381056070328 -0.13726426661014557 0.5251796245574951 -0.6643137335777283 0.29976919293403625 0.08705306053161621 -0.19950976967811584
-0.8143303394317627 0.42358681559562683 -0.11008571833372116 0.42224931716918945 -0.10764406621456146 0.18318991363048553 -0.4600253999233246 -0.13555631041526794
0.0040032267570495605 0.46859607100486755 -0.15652652084827423 0.0009518770966678858 -0.16910980641841888 -0.7914653420448303 0.22101746499538422 -0.042141787707805634
-0.03955715522170067 -0.10664830356836319 -0.39592114090919495 0.15122638642787933 0.02036546915769577 0.17650167644023895 -0.040970634669065475 0.33859992027282715
-0.1787775754928589 0.0383102111518383 0.1132998988032341 -0.18796291947364807 -0.012756256386637688 -0.16582104563713074 -0.11243908852338791 0.04124772921204567
-0.22976155579090118 -0.3577542304992676 0.05359319970011711 0.05021118000149727 -0.167244553565979 0.29694312810897827 0.6699046492576599 0.08196830749511719
0.2288980334997177 -0.13695500791072845 -0.12138049304485321 0.34591636061668396 0.046645622700452805 0.0031577490735799074 -0.16756798326969147 0.13147103786468506
-0.04095745086669922 0.2801787555217743 0.24047549068927765 0.16664259135723114 0.9917106032371521 -0.3145565688610077 0.09271610528230667 0.2379940301179886
0.06055150553584099 -1.169996976852417 1.0123095512390137 -0.21563659608364105 0.02318793721497059 -1.0309160947799683 -0.45306774973869324 -0.22927892208099365
-0.16932129859924316 0.049665667116642 -0.4814330041408539 0.01396025437861681 -0.10995646566152573 -0.02657150849699974 -0.023769669234752655 0.20626316964626312
-0.008145423606038094 0.5555123090744019 -0.23630034923553467 0.0022118862252682447 0.8725946545600891 -0.884488582611084 -0.09621594846248627 -0.5988978147506714
-0.18309129774570465 -0.9364553093910217 -0.5198212265968323 0.1992209404706955 -0.025543883442878723 0.10632871091365814 0.408292293548584 -0.25146475434303284
00000000: 0000 0000 59a7 acbf 0000 0060 d358 d3bf
00000010: 0000 0000 4e2f b6bf 0000 0000 e558 debf
00000020: 0000 0020 1b2f cb3f 0000 00e0 034a dc3f
00000030: 0000 0040 a88f 993f 0000 0020 9076 c2bf
00000040: 0000 0080 3920 c4bf 0000 0080 28c3 cebf
00000050: 0000 0020 774e 953f 0000 0040 6c19 cf3f
00000060: 0000 0000 ba70 c1bf 0000 0080 0529 cbbf
00000070: 0000 0020 99db c33f 0000 00c0 e0f2 d93f
00000080: 0000 0000 baab e13f 0000 00c0 875d d33f
00000090: 0000 0020 3942 d0bf 0000 0060 fb81 cebf
000000a0: 0000 0040 bc30 d03f 0000 00c0 c7da 7bbf
000000b0: 0000 0000 299f e13f 0000 0020 5255 d53f
000000c0: 0000 0040 8129 e33f 0000 0040 5644 bfbf
000000d0: 0000 0020 4745 da3f 0000 0060 634a d83f
000000e0: 0000 00e0 9cb9 d13f 0000 00c0 46f6 5a3f
000000f0: 0000 0020 5ee9 b13f 0000 00c0 2967 a53f
00000100: 0000 00c0 aac0 ca3f 0000 0080 6302 cebf
00000110: 0000 0040 22c6 c23f 0000 0000 c86e d5bf
00000120: 0000 0040 e761 d33f 0000 0080 6ec0 d8bf
00000130: 0000 0080 c935 e3bf 0000 0000 41ce d53f
00000140: 0000 00e0 882c d8bf 0000 0020 ddbb c4bf
00000150: 0000 00a0 ed81 da3f 0000 0040 370e adbf
00000160: 0000 0040 c1c7 cdbf 0000 0020 338f cabf
00000170: 0000 00e0 b958 d1bf 0000 00a0 542b e1bf
00000180: 0000 0080 956b c4bf 0000 0080 77be e13f
00000190: 0000 00e0 7058 d4bf 0000 00a0 dacd ccbf
000001a0: 0000 0000 f0c0 d1bf 0000 00c0 6de5 c1bf
000001b0: 0000 0040 94d7 ccbf 0000 0040 8e71 c83f
000001c0: 0000 0020 d2ba d9bf 0000 0080 70bc db3f
000001d0: 0000 00a0 d705 c6bf 0000 0060 f58c e03f
000001e0: 0000 0040 200d e2bf 0000 0000 1747 c53f
000001f0: 0000 00a0 fcfb d03f 0000 0000 bd47 cb3f
00000200: 0000 0060 a646 d4bf 0000 0000 fac5 c93f
00000210: 0000 0040 560f dbbf 0000 0060 0cd9 c53f
00000220: 0000 00e0 9608 b03f 0000 0080 6b4d d83f
00000230: 0000 00e0 b819 8fbf 0000 0060 9b6b c8bf
00000240: 0000 00a0 9ed9 e33f 0000 0060 0f66 c7bf
00000250: 0000 0000 4bd3 e13f 0000 00e0 cd2a d3bf
00000260: 0000 0040 4453 92bf 0000 0080 4120 e03f
00000270: 0000 0080 91ae c9bf 0000 0000 b655 c6bf
00000280: 0000 0040 1959 e13f 0000 00a0 ff6b c93f
00000290: 0000 0020 0ef0 a43f 0000 0060 2710 d73f
000002a0: 0000 0080 b30d b6bf 0000 00a0 77a4 b9bf
000002b0: 0000 0020 ad19 c83f 0000 0080 88ba c33f
000002c0: 0000 0040 ba42 b0bf 0000 0080 349f a7bf
000002d0: 0000 0060 62a3 d2bf 0000 0040 2857 c13f
000002e0: 0000 0080 c4e9 cfbf 0000 0000 471f d63f
000002f0: 0000 0080 e496 b03f 0000 0060 73cd d13f
00000300: 0000 0040 0fc6 e03f 0000 0020 7a97 d03f
00000310: 0000 0060 1eba d73f 0000 00a0 c5d2 d93f
00000320: 0000 0080 6d93 debf 0000 00e0 4439 da3f
00000330: 0000 0060 996e bdbf 0000 0020 dde3 d33f
00000340: 0000 0020 f9e3 c93f 0000 0020 c0de d93f
00000350: 0000 00e0 ac25 973f 0000 0000 10c1 c03f
00000360: 0000 0060 bced cbbf 0000 0040 9e30 d5bf
00000370: 0000 0020 7c18 583f 0000 0060 ac64 f0bf
00000380: 0000 0020 0331 d83f 0000 00e0 75f1 df3f
00000390: 0000 0000 a690 b63f 0000 0040 a424 babf
000003a0: 0000 0040 d50a d6bf 0000 00a0 4645 a0bf
000003b0: 0000 00e0 6351 c1bf 0000 00c0 ac4f ad3f
000003c0: 0000 0000 495a bcbf 0000 00e0 851f 873f
000003d0: 0000 00a0 0dc6 b33f 0000 0060 90c7 d93f
000003e0: 0000 0060 6655 d4bf 0000 00a0 a387 a8bf
000003f0: 0000 00c0 a2b8 b8bf 0000 00a0 3f5e d5bf
00000400: 0000 00a0 6b62 89bf 0000 0040 85b2 c1bf
00000410: 0000 00e0 23b3 f03f 0000 00a0 6726 e23f
00000420: 0000 0080 7efb ea3f 0000 00a0 3cb7 d5bf
00000430: 0000 00a0 0c10 adbf 0000 00a0 7182 d4bf
00000440: 0000 0080 cfc0 c73f 0000 0060 97ed c8bf
00000450: 0000 00a0 8dad b2bf 0000 0040 75d9 9d3f
00000460: 0000 0040 5554 a63f 0000 0080 1b05 ccbf
00000470: 0000 0000 b330 c43f 0000 0040 eb44 b03f
00000480: 0000 0000 6444 d93f 0000 0040 0f0b dcbf
00000490: 0000 0060 5878 e6bf 0000 0040 0924 cb3f
000004a0: 0000 0060 011a e5bf 0000 0020 1525 d9bf
000004b0: 0000 0080 65ca b1bf 0000 00e0 8fd5 c63f
000004c0: 0000 00c0 6155 d1bf 0000 0080 d6aa e5bf
000004d0: 0000 0000 7df9 e0bf 0000 0080 0b16 91bf
000004e0: 0000 00c0 26ad b43f 0000 00a0 c661 d3bf
000004f0: 0000 0080 f5c5 e1bf 0000 0020 6b11 c7bf
00000500: 0000 0040 e685 d23f 0000 0040 dddc a6bf
00000510: 0000 0020 e091 c1bf 0000 0080 45ce e03f
00000520: 0000 00e0 0e42 e5bf 0000 0020 6b2f d33f
00000530: 0000 0000 1c49 b63f 0000 0040 8989 c9bf
00000540: 0000 0080 fe0e eabf 0000 00e0 0b1c db3f
00000550: 0000 00e0 932e bcbf 0000 0000 2206 db3f
00000560: 0000 00c0 8f8e bbbf 0000 0060 c472 c73f
00000570: 0000 0060 0e71 ddbf 0000 00c0 e859 c1bf
00000580: 0000 0000 b065 703f 0000 0060 7afd dd3f
00000590: 0000 00a0 0f09 c4bf 0000 0080 ec30 4f3f
000005a0: 0000 00e0 63a5 c5bf 0000 0020 af53 e9bf
000005b0: 0000 00e0 4c4a cc3f 0000 00c0 9b93 a5bf
000005c0: 0000 00e0 d540 a4bf 0000 00a0 4d4d bbbf
000005d0: 0000 00a0 c556 d9bf 0000 00e0 625b c33f
000005e0: 0000 0080 afda 943f 0000 0060 9b97 c63f
000005f0: 0000 0060 1afa a4bf 0000 0000 9fab d53f
00000600: 0000 0000 2fe2 c6bf 0000 0060 659d a33f
00000610: 0000 00e0 3801 bd3f 0000 0040 2b0f c8bf
00000620: 0000 00c0 f31f 8abf 0000 00c0 9f39 c5bf
00000630: 0000 00e0 cec8 bcbf 0000 0020 6c1e a53f
00000640: 0000 00a0 d368 cdbf 0000 0000 72e5 d6bf
00000650: 0000 0060 9170 ab3f 0000 00a0 47b5 a93f
00000660: 0000 0000 4568 c5bf 0000 00c0 1d01 d33f
00000670: 0000 00e0 db6f e53f 0000 0000 e0fb b43f
00000680: 0000 00e0 874c cd3f 0000 00e0 bd87 c1bf
00000690: 0000 00c0 ca12 bfbf 0000 0060 7e23 d63f
000006a0: 0000 0060 efe1 a73f 0000 00a0 47de 693f
000006b0: 0000 0020 de72 c5bf 0000 0000 0bd4 c03f
000006c0: 0000 0000 60f8 a4bf 0000 00e0 72ee d13f
000006d0: 0000 00a0 e6c7 ce3f 0000 0060 8b54 c53f
000006e0: 0000 00e0 17bc ef3f 0000 00e0 b121 d4bf
000006f0: 0000 0020 3ebc b73f 0000 00a0 9676 ce3f
00000700: 0000 0060 9b00 af3f 0000 00c0 4eb8 f2bf
00000710: 0000 0080 6b32 f03f 0000 00e0 fa99 cbbf
00000720: 0000 0020 94be 973f 0000 00e0 a17e f0bf
00000730: 0000 00e0 0fff dcbf 0000 0000 0359 cdbf
00000740: 0000 0000 52ac c5bf 0000 0040 c76d a93f
00000750: 0000 0060 cccf debf 0000 00a0 3197 8c3f
00000760: 0000 0060 1b26 bcbf 0000 00c0 8f35 9bbf
00000770: 0000 0080 1357 98bf 0000 00e0 d466 ca3f
00000780: 0000 0040 8cae 80bf 0000 00c0 c1c6 e13f
00000790: 0000 0000 173f cebf 0000 0060 a91e 623f
000007a0: 0000 00a0 4bec eb3f 0000 0000 bb4d ecbf
000007b0: 0000 00c0 9ba1 b8bf 0000 00c0 2b2a e3bf
000007c0: 0000 0020 896f c7bf 0000 0020 71f7 edbf
000007d0: 0000 0020 60a2 e0bf 0000 0060 1280 c93f
000007e0: 0000 0000 2d28 9abf 0000 00c0 5b38 bb3f
000007f0: 0000 0000 7621 da3f 0000 00a0 ff17 d0bf

cutoff f8 [1]
5.5
00000000: 0000 0000 0000 1640

initpot f8 [1]
-4.2263336181640625
00000000: 0000 0000 c4e7 10c0

initpot f8 [1]
0.0
00000000: 0000 0000 0000 0000

weight f8 [64, 118]
-0.00595079967752099 0.1375681459903717 0.0032996363006532192 -0.04189033433794975 0.00517426710575819 0.14662262797355652 0.18057122826576233 0.0005659203161485493
0.042259156703948975 -0.09685371816158295 0.08619315177202225 0.006254495587199926 0.07013949006795883 0.024827249348163605 -0.047632113099098206 -0.14803959429264069
-0.047692954540252686 0.1634019911289215 0.005174300167709589 -0.1808372437953949 -0.008580946363508701 -0.005377065856009722 0.17127612233161926 -0.03369427099823952
0.1499050110578537 -0.010818112641572952 -0.03215841203927994 -0.018220465630292892 0.015767978504300117 0.022366000339388847 -0.0708879828453064 0.17150713503360748
-0.015173920430243015 0.12722645699977875 0.02638986147940159 0.11206378787755966 -0.08275839686393738 -0.138530433177948 0.027819229289889336 -0.07885301113128662
0.00517433462664485 0.12591931223869324 0.16337677836418152 0.08975319564342499 0.09513132274150848 0.14751049876213074 -0.06201905384659767 -0.1640024334192276
-0.12710747122764587 -0.10535267740488052 -0.09739953279495239 0.16753239929676056 -0.10508964955806732 0.0236580278724432 0.1081630140542984 -0.14447607100009918
-0.05727935954928398 -0.13387177884578705 -0.12213723361492157 0.17992152273654938 -0.0879037082195282 0.021422572433948517 -0.09550430625677109 0.15232369303703308
-0.16292648017406464 0.08591222763061523 0.021965136751532555 0.1781831979751587 -0.018167609348893166 0.02387521043419838 -0.1262623369693756 -0.004065791144967079
-0.12857241928577423 -0.10944370180368423 0.14490821957588196 -0.10958510637283325 -0.05415181815624237 0.07913752645254135 -0.14133676886558533 -0.1408436894416809
0.1646525114774704 0.08337268978357315 0.021562764421105385 0.10996438562870026 0.12614740431308746 0.15219594538211823 -0.11897924542427063 0.1478613018989563
0.08310112357139587 0.0026469859294593334 0.0881606712937355 -0.15699321031570435 0.06722209602594376 0.004303687252104282 -0.003728741081431508 0.13608106970787048
-0.15777508914470673 -0.11857379227876663 -0.12185657024383545 0.08269023150205612 0.1461976319551468 -0.11359981447458267 0.025794006884098053 -0.1639970988035202
0.1591762751340866 0.06076958402991295 -0.1279924362897873 -0.06824447214603424 0.09290747344493866 -0.0416417233645916 0.045693136751651764 -0.13238874077796936
0.1165575310587883 0.030825775116682053 -0.16087961196899414 0.02087836153805256 0.07813743501901627 -0.10805396735668182 -0.02436494268476963 0.10524609684944153
-0.17078270018100739 0.032872188836336136 -0.3234592080116272 0.016123296692967415 0.11260977387428284 0.14829082787036896 0.042958952486515045 -0.15435706079006195
0.0926007404923439 -0.11948277801275253 0.14840711653232574 0.0989016443490982 0.14078053832054138 0.10701948404312134 -0.018801342695951462 -0.15781760215759277
0.12406496703624725 -0.011740888468921185 0.12648531794548035 0.012605148367583752 0.023879172280430794 0.16234491765499115 0.11550413072109222 -0.14129604399204254
-0.06206130608916283 -0.05425439402461052 -0.04898633807897568 0.07352163642644882 0.055591363459825516 0.039562564343214035 0.13431335985660553 -0.086368627846241
-0.004262019880115986 0.17699971795082092 0.0996803566813469 -0.14517742395401 0.11828341335058212 -0.07956016063690186 0.20357558131217957 -0.12221115082502365
-0.1796310991048813 -0.010120182298123837 0.1318603903055191 -0.15361499786376953 -0.017818525433540344 -0.09603578597307205 -0.09955371171236038 -0.06846974045038223
0.05054902657866478 -0.14829227328300476 0.048589691519737244 -0.12446121871471405 0.11891307681798935 0.023298468440771103 -0.145110085606575 0.06366811692714691
0.09320107847452164 0.15825743973255157 0.16972973942756653 -0.15604102611541748 0.16847887635231018 0.054604146629571915 -0.10121718794107437 -0.0827765092253685
0.08579082041978836 0.12131915241479874 0.12799961864948273 0.007839834317564964 0.07394494116306305 0.09773558378219604 -0.0500049889087677 0.09948858618736267
-0.01591581106185913 0.1194208562374115 0.16923542320728302 -0.012756778858602047 0.012817946262657642 0.08027588576078415 -0.010312472470104694 -0.11069298535585403
-0.01603570021688938 0.1465539038181305 -0.09692012518644333 -0.020757561549544334 0.039842795580625534 -0.007887409068644047 0.0853370875120163 -0.11535195261240005
-0.10013002157211304 -0.08171530067920685 0.18043974041938782 -0.004267607815563679 -0.026522455736994743 -0.08346220850944519 0.09203607589006424 0.054296404123306274
-0.13603399693965912 -0.18027688562870026 -0.15866456925868988 0.17070576548576355 0.15376795828342438 0.05134730413556099 -0.026473192498087883 0.08556405454874039
-0.014002383686602116 0.17380550503730774 -0.04257698729634285 -0.08134276419878006 0.1299591064453125 0.04283038154244423 0.03551675006747246 -0.04192710667848587
-0.10982224345207214 0.15438807010650635 -0.1172865703701973 0.08658299595117569 0.020397266373038292 0.044375546276569366 -0.017142845317721367 0.07419199496507645
-0.16494804620742798 -0.14031456410884857 0.04504021257162094 0.01806068606674671 0.027402658015489578 0.14593131840229034 -0.1667586714029312 -0.12875765562057495
-0.11258531361818314 0.12316422909498215 -0.09231293201446533 0.06298036128282547 0.010473811998963356 0.144818976521492 0.14322082698345184 0.07252869009971619
00000000: 0000 00a0 dd5f 78bf 0000 0040 d59b c13f
00000010: 0000 00c0 d607 6b3f 0000 0060 a672 a5bf
00000020: 0000 00c0 9c31 753f 0000 00c0 87c4 c23f
00000030: 0000 0040 f51c c73f 0000 00a0 488b 423f
00000040: 0000 0000 fea2 a53f 0000 00c0 67cb b8bf
00000050: 0000 0020 c110 b63f 0000 0060 509e 793f
00000060: 0000 0060 a9f4 b13f 0000 0080 506c 993f
00000070: 0000 0080 3c63 a8bf 0000 0020 f6f2 c2bf
00000080: 0000 0000 366b a8bf 0000 0040 5bea c43f
00000090: 0000 00a0 a531 753f 0000 00c0 ac25 c7bf
000000a0: 0000 0020 e392 81bf 0000 0020 4306 76bf
000000b0: 0000 0040 60ec c53f 0000 0020 6040 a1bf
000000c0: 0000 0060 1630 c33f 0000 0080 ce27 86bf
000000d0: 0000 0040 1177 a0bf 0000 00c0 62a8 92bf
000000e0: 0000 0020 7b25 903f 0000 00e0 1ce7 963f
000000f0: 0000 0000 b725 b2bf 0000 0020 f2f3 c53f
00000100: 0000 0020 8113 8fbf 0000 00e0 f448 c03f
00000110: 0000 00a0 f105 9b3f 0000 0060 36b0 bc3f
00000120: 0000 0080 a72f b5bf 0000 0080 5dbb c1bf
00000130: 0000 00e0 a47c 9c3f 0000 0000 b62f b4bf
00000140: 0000 00e0 ae31 753f 0000 00c0 1f1e c03f
00000150: 0000 00c0 87e9 c43f 0000 00c0 10fa b63f
00000160: 0000 00c0 865a b83f 0000 00c0 9fe1 c23f
00000170: 0000 0020 f6c0 afbf 0000 0020 08fe c4bf
00000180: 0000 00c0 0e45 c0bf 0000 00a0 64f8 babf
00000190: 0000 0000 2def b8bf 0000 00a0 b371 c53f
000001a0: 0000 00c0 27e7 babf 0000 0060 cf39 983f
000001b0: 0000 0040 92b0 bb3f 0000 0020 317e c2bf
000001c0: 0000 0060 b853 adbf 0000 00e0 b522 c1bf
000001d0: 0000 00c0 6244 bfbf 0000 0020 ab07 c73f
000001e0: 0000 0080 db80 b6bf 0000 0080 ccef 953f
000001f0: 0000 0060 f872 b8bf 0000 00c0 577f c33f
00000200: 0000 0060 c6da c4bf 0000 0000 58fe b53f
00000210: 0000 0060 077e 963f 0000 0000 b5ce c63f
00000220: 0000 00a0 879a 92bf 0000 0040 be72 983f
00000230: 0000 0040 5d29 c0bf 0000 0080 4aa7 70bf
00000240: 0000 00a0 0f75 c0bf 0000 00a0 8004 bcbf
00000250: 0000 0040 5a8c c23f 0000 0000 c50d bcbf
00000260: 0000 0080 c9b9 abbf 0000 0060 5b42 b43f
00000270: 0000 00c0 5217 c2bf 0000 0080 2a07 c2bf
00000280: 0000 0060 5513 c53f 0000 00a0 e957 b53f
00000290: 0000 00a0 8c14 963f 0000 0040 a026 bc3f
000002a0: 0000 0020 9925 c03f 0000 0020 287b c33f
000002b0: 0000 0080 6c75 bebf 0000 0080 1eed c23f
000002c0: 0000 0080 1d46 b53f 0000 00c0 21af 653f
000002d0: 0000 00a0 b291 b63f 0000 0080 5a18 c4bf
000002e0: 0000 00a0 7735 b13f 0000 0040 bea0 713f
000002f0: 0000 00a0 bc8b 6ebf 0000 00c0 1a6b c13f
00000300: 0000 0060 f931 c4bf 0000 0020 da5a bebf
00000310: 0000 0000 fe31 bfbf 0000 00e0 2f2b b53f
00000320: 0000 00a0 9ab6 c23f 0000 00a0 e014 bdbf
00000330: 0000 0080 be69 9a3f 0000 0060 dbfd c4bf
00000340: 0000 0060 e35f c43f 0000 00e0 301d af3f
00000350: 0000 0060 0e62 c0bf 0000 0040 7878 b1bf
00000360: 0000 00c0 c8c8 b73f 0000 0060 1052 a5bf
00000370: 0000 0040 1765 a73f 0000 0040 1df2 c0bf
00000380: 0000 00e0 b6d6 bd3f 0000 00c0 ca90 9f3f
00000390: 0000 0000 b497 c4bf 0000 0020 2361 953f
000003a0: 0000 00a0 d000 b43f 0000 00c0 6ca9 bbbf
000003b0: 0000 00a0 1ff3 98bf 0000 0080 68f1 ba3f
000003c0: 0000 0020 35dc c5bf 0000 00a0 9fd4 a03f
000003d0: 0000 0040 8eb3 d4bf 0000 0020 a082 903f
000003e0: 0000 0080 fed3 bc3f 0000 00a0 31fb c23f
000003f0: 0000 0040 b7fe a53f 0000 00e0 f8c1 c3bf
00000400: 0000 00a0 aeb4 b73f 0000 0060 6c96 bebf
00000410: 0000 0020 01ff c23f 0000 0040 9e51 b93f
00000420: 0000 00c0 1805 c23f 0000 0000 a165 bb3f
00000430: 0000 00c0 a840 93bf 0000 0000 5e33 c4bf
00000440: 0000 00c0 b8c2 bf3f 0000 0060 9b0b 88bf
00000450: 0000 00c0 ab30 c03f 0000 0060 bad0 893f
00000460: 0000 0020 c873 983f 0000 00e0 b7c7 c43f
00000470: 0000 00c0 ad91 bd3f 0000 0020 fd15 c2bf
00000480: 0000 00e0 7fc6 afbf 0000 0060 3bc7 abbf
00000490: 0000 00c0 bc14 a9bf 0000 0060 50d2 b23f
000004a0: 0000 00a0 7876 ac3f 0000 0060 8b41 a43f
000004b0: 0000 0020 2e31 c13f 0000 0020 411c b6bf
000004c0: 0000 0040 0d75 71bf 0000 0040 eda7 c63f
000004d0: 0000 00e0 a684 b93f 0000 0080 2c95 c2bf
000004e0: 0000 0060 d247 be3f 0000 0000 0e5e b4bf
000004f0: 0000 00c0 c30e ca3f 0000 00e0 3a49 bfbf
00000500: 0000 00e0 26fe c6bf 0000 00e0 e3b9 84bf
00000510: 0000 0020 cde0 c03f 0000 0000 a8a9 c3bf
00000520: 0000 0000 053f 92bf 0000 0020 cd95 b8bf
00000530: 0000 0020 5a7c b9bf 0000 00a0 3b87 b1bf
00000540: 0000 00e0 8fe1 a93f 0000 00c0 3dfb c2bf
00000550: 0000 0080 bfe0 a83f 0000 00c0 b0dc bfbf
00000560: 0000 0060 1671 be3f 0000 00c0 8ddb 973f
00000570: 0000 00a0 f792 c2bf 0000 00c0 8d4c b03f
00000580: 0000 00a0 06dc b73f 0000 00a0 c741 c43f
00000590: 0000 0040 b4b9 c53f 0000 0000 27f9 c3bf
000005a0: 0000 0040 b790 c53f 0000 0020 13f5 ab3f
000005b0: 0000 00a0 5ee9 b9bf 0000 0060 d730 b5bf
000005c0: 0000 0020 63f6 b53f 0000 00a0 c50e bf3f
000005d0: 0000 00a0 4a62 c03f 0000 00c0 540e 803f
000005e0: 0000 0040 0eee b23f 0000 0000 3305 b93f
000005f0: 0000 0000 419a a9bf 0000 0080 1578 b93f
00000600: 0000 0000 3c4c 90bf 0000 0080 5d92 be3f
00000610: 0000 00a0 81a9 c53f 0000 00e0 3920 8abf
00000620: 0000 00a0 4b40 8a3f 0000 00e0 f58c b43f
00000630: 0000 00a0 b41e 85bf 0000 0020 6056 bcbf
00000640: 0000 00a0 a96b 90bf 0000 0040 47c2 c23f
00000650: 0000 00e0 c1cf b8bf 0000 0060 7841 95bf
00000660: 0000 0060 4666 a43f 0000 0020 4627 80bf
00000670: 0000 00c0 a6d8 b53f 0000 00a0 b487 bdbf
00000680: 0000 0000 1fa2 b9bf 0000 0040 4beb b4bf
00000690: 0000 0040 a618 c73f 0000 0040 e97a 71bf
000006a0: 0000 00e0 b328 9bbf 0000 0080 c75d b5bf
000006b0: 0000 0020 ad8f b73f 0000 0000 bdcc ab3f
000006c0: 0000 00e0 8f69 c1bf 0000 0020 5013 c7bf
000006d0: 0000 00e0 1e4f c4bf 0000 00c0 afd9 c53f
000006e0: 0000 0020 abae c33f 0000 00a0 314a aa3f
000006f0: 0000 00e0 c91b 9bbf 0000 00a0 86e7 b53f
00000700: 0000 0020 48ad 8cbf 0000 0040 423f c63f
00000710: 0000 00a0 a6cc a5bf 0000 0020 e1d2 b4bf
00000720: 0000 0000 80a2 c03f 0000 0020 dded a53f
00000730: 0000 0060 402f a23f 0000 0040 7877 a5bf
00000740: 0000 0080 4f1d bcbf 0000 0000 fdc2 c33f
00000750: 0000 0020 7e06 bebf 0000 00a0 4d2a b63f
00000760: 0000 0060 05e3 943f 0000 0040 64b8 a63f
00000770: 0000 00e0 e48d 91bf 0000 0020 3ffe b23f
00000780: 0000 0080 041d c5bf 0000 00e0 d3f5 c1bf
00000790: 0000 00c0 820f a73f 0000 0020 807e 923f
000007a0: 0000 0040 710f 9c3f 0000 00a0 e0ad c23f
000007b0: 0000 0020 5958 c5bf 0000 0080 217b c0bf
000007c0: 0000 0020 64d2 bcbf 0000 00e0 b087 bf3f
000007d0: 0000 0000 d2a1 b7bf 0000 0020 7b1f b03f
000007e0: 0000 0040 4b73 853f 0000 00a0 6d89 c23f
000007f0: 0000 0060 0f55 c23f 0000 0080 3d91 b23f

bias f8 [64]
-0.010349436663091183 0.04859590902924538 0.03683321177959442 -0.008135650306940079 0.06393798440694809 0.14390820264816284 -0.13852812349796295 0.057969722896814346
0.03206700086593628 -0.10008849948644638 -0.0013352426467463374 -0.00758521631360054 -0.049843929708004 -0.13881778717041016 0.06593898683786392 0.10877007246017456
0.07247108966112137 0.10589203238487244 0.04325411841273308 -0.03065313957631588 0.06075647473335266 -0.007205639034509659 0.040453292429447174 0.0606449693441391
0.054425161331892014 -0.04212256893515587 -0.017489144578576088 -0.18494805693626404 -0.026756590232253075 -0.2236262559890747 -0.043928198516368866 -0.07104592770338058
0.08777067065238953 -0.008479185402393341 -0.008879059925675392 0.012385344132781029 -0.03685663640499115 0.03303513303399086 -0.043396078050136566 0.15001054108142853
-0.04284515976905823 -0.06819748878479004 -0.006100075785070658 0.04596612975001335 0.016500456258654594 0.07867481559515 0.004785430151969194 0.06607755273580551
0.010053503327071667 -0.11461728066205978 -0.017482053488492966 0.10616938769817352 -0.062255993485450745 0.05603247135877609 -0.019298184663057327 0.027391785755753517
0.00634140707552433 0.15737436711788177 -0.01647952012717724 -0.1014648899435997 0.05276283249258995 0.025339830666780472 -0.050706151872873306 -0.09839212894439697
00000000: 0000 00e0 1532 85bf 0000 0020 90e1 a83f
00000010: 0000 0080 cddb a23f 0000 0080 6ca9 80bf
00000020: 0000 0060 3d5e b03f 0000 0080 956b c23f
00000030: 0000 0020 4abb c1bf 0000 0020 35ae ad3f
00000040: 0000 0000 166b a03f 0000 0060 669f b9bf
00000050: 0000 00e0 69e0 55bf 0000 0000 ad11 7fbf
00000060: 0000 00c0 2485 a9bf 0000 0000 c8c4 c1bf
00000070: 0000 00a0 60e1 b03f 0000 0000 5bd8 bb3f
00000080: 0000 0020 778d b23f 0000 0080 bd1b bb3f
00000090: 0000 0060 6725 a63f 0000 0060 8963 9fbf
000000a0: 0000 0000 791b af3f 0000 0000 a983 7dbf
000000b0: 0000 0040 4bb6 a43f 0000 0080 db0c af3f
000000c0: 0000 0060 9ddd ab3f 0000 00e0 1691 a5bf
000000d0: 0000 00a0 ace8 91bf 0000 00c0 60ac c7bf
000000e0: 0000 0060 1466 9bbf 0000 0000 c99f ccbf
000000f0: 0000 00c0 c17d a6bf 0000 00e0 1030 b2bf
00000100: 0000 0080 2378 b63f 0000 0000 895d 81bf
00000110: 0000 0040 2f2f 82bf 0000 00c0 7c5d 893f
00000120: 0000 0080 dfde a2bf 0000 0020 fbe9 a03f
00000130: 0000 00c0 0238 a6bf 0000 00a0 8b33 c33f
00000140: 0000 0000 cdef a5bf 0000 0000 6475 b1bf
00000150: 0000 00a0 64fc 78bf 0000 0060 df88 a73f
00000160: 0000 00e0 7ee5 903f 0000 0060 0824 b43f
00000170: 0000 0020 e399 733f 0000 0060 75ea b03f
00000180: 0000 0060 ee96 843f 0000 00e0 8e57 bdbf
00000190: 0000 00c0 d0e6 91bf 0000 00c0 ea2d bb3f
000001a0: 0000 0080 04e0 afbf 0000 00c0 49b0 ac3f
000001b0: 0000 0040 e7c2 93bf 0000 00a0 970c 9c3f
000001c0: 0000 0080 72f9 793f 0000 00e0 d724 c43f
000001d0: 0000 00e0 01e0 90bf 0000 0060 9af9 b9bf
000001e0: 0000 00e0 ba03 ab3f 0000 0040 aff2 993f
000001f0: 0000 0020 28f6 a9bf 0000 0000 3a30 b9bf

alpha f8 [1, 64]
-5.163627429283224e-05 1.1572389602661133 1.133228063583374 1.1194491386413574 5.125569750356656e-38 -4.990477852163115e-39 1.1254260540008545 1.149967074394226
3.4413524190313183e-06 1.2812182903289795 3.6733637943810755e-41 1.1994396448135376 -8.066787131610909e-07 1.2434287071228027 1.0822999477386475 1.4537163972854614
0.9388467669487 1.0583938360214233 1.2437862157821655 1.1832985080673097e-07 0.28434014320373535 1.0955018997192383 1.1042776107788086 1.1120576858520508
1.1545501947402954 1.1788161993026733 -7.782315151416697e-06 1.3487415313720703 1.0605885982513428 7.971085125291211e-08 1.1314904689788818 -5.30265351885154e-41
1.3480955362319946 1.4481134414672852 1.1075981855392456 1.1791738271713257 -7.2078028590089886e-40 1.1444834470748901 1.304702877998352 1.4779176712036133
1.173688292503357 1.1232243776321411 1.1426953077316284 1.415029764175415 -3.702259197372711e-26 1.060044527053833 7.733077836746816e-06 1.3371281623840332
1.513912320137024 1.1585482358932495 1.1264464855194092 -5.6778783234715826e-33 5.462009425478975e-13 1.1363770961761475 6.1489677263805135e-40 1.130059003829956
1.4489480257034302 1.1765639781951904 1.1367069482803345 1.2052810192108154 1.3221075534820557 1.1817964315414429 1.1935032606124878 1.2351917028427124
00000000: 0000 00e0 8012 0bbf 0000 0000 0d84 f23f
00000010: 0000 00c0 b321 f23f 0000 0080 43e9 f13f
00000020: 0000 0040 0071 3138 0000 0000 b62b fbb7
00000030: 0000 00c0 be01 f23f 0000 00e0 4366 f23f
00000040: 0000 0080 3fde cc3e 0000 00c0 de7f f43f
00000050: 0000 0000 8099 8937 0000 00a0 e730 f33f
00000060: 0000 0040 5111 abbe 0000 0080 15e5 f33f
00000070: 0000 00c0 1951 f13f 0000 0020 6c42 f73f
00000080: 0000 0060 080b ee3f 0000 0060 2eef f03f
00000090: 0000 0060 8ce6 f33f 0000 00c0 90c3 7f3e
000000a0: 0000 0000 a132 d23f 0000 0000 2d87 f13f
000000b0: 0000 0000 1fab f13f 0000 0000 fdca f13f
000000c0: 0000 00a0 0979 f23f 0000 0060 6edc f23f
000000d0: 0000 0040 1952 e0be 0000 0000 7294 f53f
000000e0: 0000 00c0 2bf8 f03f 0000 0020 b065 753e
000000f0: 0000 00c0 951a f23f 0000 0000 207a 92b7
00000100: 0000 00a0 cc91 f53f 0000 0000 792b f73f
00000110: 0000 00e0 b8b8 f13f 0000 0060 e5dd f23f
00000120: 0000 0000 f864 cfb7 0000 00e0 cd4f f23f
00000130: 0000 0020 10e0 f43f 0000 0000 8da5 f73f
00000140: 0000 0060 6dc7 f23f 0000 0020 baf8 f13f
00000150: 0000 00e0 7a48 f23f 0000 0040 f6a3 f63f
00000160: 0000 00c0 76ea a6ba 0000 0040 f1f5 f03f
00000170: 0000 0020 aa37 e03e 0000 0080 e064 f53f
00000180: 0000 0020 fc38 f83f 0000 00e0 6989 f23f
00000190: 0000 00c0 ec05 f23f 0000 00e0 317b 3db9
000001a0: 0000 00a0 bd37 633d 0000 00c0 992e f23f
000001b0: 0000 0000 54c8 ca37 0000 00c0 b814 f23f
000001c0: 0000 0020 e42e f73f 0000 00c0 34d3 f23f
000001d0: 0000 00a0 f32f f23f 0000 00c0 d448 f33f
000001e0: 0000 0040 5a27 f53f 0000 0060 a3e8 f23f
000001f0: 0000 00e0 9618 f33f 0000 0060 58c3 f33f

beta f8 [1, 64]
-7.273291302567486e-09 0.17928563058376312 0.16052475571632385 0.14615248143672943 6.704969886380843e-38 -8.037831175785579e-39 0.2100699245929718 0.1711643934249878
3.4404988582537044e-06 0.29731646180152893 -1.6105123250485123e-41 0.2210184782743454 -7.773418815304467e-07 0.25957557559013367 0.10862436145544052 0.4340824782848358
0.01806964911520481 0.08644875884056091 0.2592570185661316 1.3852059055352584e-07 -6.079656031943159e-06 0.1316857933998108 0.14837151765823364 0.13909687101840973
0.16308532655239105 0.2036929726600647 -7.567034572275588e-06 0.47734734416007996 0.10635997354984283 -1.6671363312070753e-07 0.1551927924156189 -2.556178593698115e-40
0.3288275897502899 0.3991316258907318 0.13406172394752502 0.1974388211965561 5.7965131366335356e-40 0.16744676232337952 0.30630528926849365 0.4269258975982666
0.19271185994148254 0.14573641121387482 0.16086754202842712 0.3826754689216614 1.1406856948605402e-28 0.08477037400007248 -3.614690144426724e-11 0.32981592416763306
0.5546466708183289 0.22488780319690704 0.15615873038768768 6.957154705763944e-35 5.430435066955397e-06 0.16007857024669647 -3.0901433735290866e-41 0.15963998436927795
0.43104302883148193 0.17878606915473938 0.1628936380147934 0.21850146353244781 0.3183230459690094 0.20315758883953094 0.2449662834405899 0.24175211787223816
00000000: 0000 0080 113d 3fbe 0000 00e0 d4f2 c63f
00000010: 0000 0040 138c c43f 0000 00e0 1fb5 c23f
00000020: 0000 0040 dad0 3638 0000 0000 8de1 05b8
00000030: 0000 0040 92e3 ca3f 0000 0000 b7e8 c53f
00000040: 0000 0040 6adc cc3e 0000 00a0 3b07 d33f
00000050: 0000 0000 8072 76b7 0000 0060 554a cc3f
00000060: 0000 00e0 5015 aabe 0000 00e0 e29c d03f
00000070: 0000 0060 cece bb3f 0000 00e0 01c8 db3f
00000080: 0000 00a0 d980 923f 0000 0080 8121 b63f
00000090: 0000 00c0 aa97 d03f 0000 0000 8897 823e
000000a0: 0000 0020 fb7f d9be 0000 0080 14db c03f
000000b0: 0000 0080 d6fd c23f 0000 0020 edcd c13f
000000c0: 0000 00e0 fadf c43f 0000 0080 9c12 ca3f
000000d0: 0000 00a0 0abd dfbe 0000 00e0 db8c de3f
000000e0: 0000 0040 683a bb3f 0000 00a0 3c60 86be
000000f0: 0000 0080 5bdd c33f 0000 0000 7844 b6b7
00000100: 0000 00e0 820b d53f 0000 0060 5f8b d93f
00000110: 0000 0040 ef28 c13f 0000 00e0 ac45 c93f
00000120: 0000 0000 543f c937 0000 0040 e56e c53f
00000130: 0000 0080 819a d33f 0000 0000 c152 db3f
00000140: 0000 0040 c8aa c83f 0000 00a0 7da7 c23f
00000150: 0000 00c0 4e97 c43f 0000 0040 c17d d83f
00000160: 0000 00c0 2b13 223a 0000 00e0 82b3 b53f
00000170: 0000 0060 39df c3bd 0000 0040 b41b d53f
00000180: 0000 0060 aabf e13f 0000 00a0 1fc9 cc3f
00000190: 0000 0060 02fd c33f 0000 0020 7e1e d738
000001a0: 0000 00a0 e2c6 d63e 0000 0060 747d c43f
000001b0: 0000 0000 0089 85b7 0000 0040 156f c43f
000001c0: 0000 0080 3596 db3f 0000 0040 76e2 c63f
000001d0: 0000 00e0 b2d9 c43f 0000 0020 dbf7 cb3f
000001e0: 0000 00a0 675f d43f 0000 0060 1101 ca3f
000001f0: 0000 0020 0e5b cf3f 0000 00c0 bbf1 ce3f

weight f8 [24, 64]
0.011012566275894642 0.01535905059427023 0.036062467843294144 0.02149859629571438 -0.007307949475944042 -0.00846164021641016 -0.051271550357341766 -0.0012715925695374608
-0.03213533014059067 -0.013440857641398907 0.022108949720859528 0.025411903858184814 -0.012835894711315632 -0.0887802243232727 0.03788626194000244 0.08533285558223724
0.008620752952992916 0.06731715053319931 0.01562011893838644 0.028277955949306488 -0.035468824207782745 0.011792261153459549 -0.027826225385069847 0.03317728266119957
0.01713419146835804 -0.0393872931599617 0.032153207808732986 -0.06479303538799286 0.012842408381402493 0.021531883627176285 -0.020115884020924568 0.022798139601945877
-0.0166529081761837 0.08925146609544754 -0.041214048862457275 -0.013262680731713772 0.028333989903330803 -0.0001493129093432799 0.005524002946913242 0.23406772315502167
-0.006113408133387566 -0.0416192002594471 0.003067245939746499 0.16899144649505615 -0.012023994699120522 0.04916201904416084 0.021993465721607208 0.09181893616914749
-0.04584764689207077 -0.05117746442556381 -0.028436919674277306 -0.005979401059448719 0.02356555685400963 0.0023560163099318743 0.023615851998329163 -0.0298910029232502
0.08244585990905762 0.033328473567962646 -0.02562643028795719 -0.022171197459101677 -0.046820055693387985 -0.0281988438218832 -0.038154423236846924 -0.020510585978627205
-0.0026534886565059423 0.11104735732078552 0.12840674817562103 0.09976372867822647 -0.0005915429210290313 -0.0033338284119963646 -0.023885641247034073 0.056552235037088394
0.010477003641426563 -0.04809292405843735 0.00389030110090971 -0.04015543311834335 0.0015897173434495926 -0.21918073296546936 -0.003201122861355543 0.029891587793827057
-0.054127443581819534 0.0793381780385971 -0.04725394397974014 0.020716503262519836 -0.005081968382000923 -0.06696811318397522 0.06746488809585571 -0.007760245818644762
0.043216507881879807 0.12014566361904144 0.006891896016895771 -0.11024434119462967 -0.050589803606271744 0.009878993965685368 -0.0771251693367958 0.013158359564840794
0.028998278081417084 0.10305004566907883 -0.05938348546624184 0.03464854508638382 -0.003626500489190221 0.06420088559389114 0.0532359704375267 0.24295571446418762
0.05167200416326523 -0.08013897389173508 0.06596203148365021 0.10870880633592606 -0.003948159981518984 0.07254067063331604 -0.02056107483804226 0.15556396543979645
-0.1477203667163849 0.03832338750362396 -0.11225353926420212 -0.006879069842398167 0.00017323551583103836 0.06744744628667831 -0.006736575625836849 -0.11249235272407532
0.024813251569867134 0.049390677362680435 -0.10355539619922638 -0.05657177418470383 -0.07555544376373291 0.1460442841053009 -0.03101436421275139 0.03505959361791611
0.0021314756013453007 0.049971308559179306 -0.05466470494866371 -0.023425515741109848 0.03998219221830368 0.03575765714049339 0.009708301164209843 0.029253926128149033
-0.06504813581705093 0.12925565242767334 -0.006374286487698555 -0.029678115621209145 -0.06321504712104797 0.06570696085691452 0.00935197714716196 -0.049389392137527466
0.04925531893968582 -0.11619206517934799 0.0908336415886879 -0.02828362211585045 0.04518866911530495 0.05052885040640831 -0.03616625443100929 0.02730698138475418
-0.09693747758865356 -0.017802439630031586 0.043539948761463165 0.17230308055877686 0.0616794191300869 -0.0458475798368454 0.08405676484107971 -0.03710995987057686
-0.0690600797533989 -0.06283700466156006 0.11196666210889816 0.058961596339941025 0.022874509915709496 0.01002475805580616 -0.06597957760095596 -0.20912297070026398
0.06003941595554352 0.10978611558675766 -0.040392063558101654 -0.13053780794143677 0.004445026628673077 -0.1112007349729538 -0.019745223224163055 -0.06313271820545197
0.07876220345497131 -0.027638908475637436 0.0017730816034600139 0.010250733233988285 -0.009027890861034393 -0.008813250809907913 -0.028971025720238686 -0.011986326426267624
-0.046791985630989075 -0.10203049331903458 0.05355384573340416 0.10991426557302475 0.05499449744820595 -0.017243659123778343 0.10536820441484451 0.048247143626213074
-0.013183506205677986 -0.11387941241264343 -0.08698064833879471 -0.06868206709623337 0.010478910990059376 0.014553499408066273 0.06879617273807526 -0.038294751197099686
0.016314638778567314 0.03854753077030182 -0.02089821547269821 0.007556742522865534 0.013608787208795547 0.19877910614013672 -0.04880442097783089 -0.09980341047048569
-0.04044594615697861 -0.09951026737689972 0.016250701621174812 -0.026623275130987167 0.03296298533678055 -0.026191633194684982 0.029058098793029785 -0.04576248675584793
-0.02923854999244213 0.0564972423017025 -0.022716274484992027 0.11292395740747452 -0.03557199239730835 -0.028787605464458466 0.04574957489967346 -0.022580206394195557
-0.019628770649433136 -0.09484890103340149 0.05572864040732384 -0.034107670187950134 -0.01828116551041603 -0.045450594276189804 0.019929056987166405 -0.1912536472082138
-0.057904332876205444 0.06250112503767014 -0.027743129059672356 -0.0995742529630661 0.005517459008842707 -0.06377947330474854 -0.024737177416682243 -0.14830003678798676
0.1442689150571823 0.048142362385988235 0.0878024771809578 0.012036101892590523 -0.02540028840303421 -0.041539888828992844 -0.023397916927933693 0.09133973717689514
-0.09624478220939636 -0.045265864580869675 0.0662897601723671 0.04133974388241768 0.0660475566983223 0.021748341619968414 0.04838946834206581 0.09904839098453522
00000000: 0000 00a0 c18d 863f 0000 00e0 9074 8f3f
00000010: 0000 00a0 c776 a23f 0000 0060 ba03 963f
00000020: 0000 00c0 f0ee 7dbf 0000 0020 5654 81bf
00000030: 0000 00c0 4340 aabf 0000 0020 72d5 54bf
00000040: 0000 00c0 0a74 a0bf 0000 0060 e186 8bbf
00000050: 0000 0080 baa3 963f 0000 0000 9405 9a3f
00000060: 0000 00a0 b449 8abf 0000 0000 4dba b6bf
00000070: 0000 0000 d465 a33f 0000 00c0 5fd8 b53f
00000080: 0000 00e0 c1a7 813f 0000 0060 b23b b13f
00000090: 0000 00e0 70fd 8f3f 0000 0080 e5f4 9c3f
000000a0: 0000 0040 f828 a2bf 0000 0080 8a26 883f
000000b0: 0000 0060 7a7e 9cbf 0000 00e0 9cfc a03f
000000c0: 0000 0020 a08b 913f 0000 0040 922a a4bf
000000d0: 0000 00a0 6276 a03f 0000 00c0 4696 b0bf
000000e0: 0000 00e0 1e4d 8a3f 0000 0040 740c 963f
000000f0: 0000 0020 4299 94bf 0000 0040 6558 973f
00000100: 0000 00c0 750d 91bf 0000 0020 2fd9 b63f
00000110: 0000 0000 021a a5bf 0000 00e0 7629 8bbf
00000120: 0000 00e0 9503 9d3f 0000 0020 1c92 23bf
00000130: 0000 0040 56a0 763f 0000 0060 eef5 cd3f
00000140: 0000 0080 5f0a 79bf 0000 00a0 1c4f a5bf
00000150: 0000 0020 7b20 693f 0000 0000 83a1 c53f
00000160: 0000 0040 09a0 88bf 0000 00a0 c32b a93f
00000170: 0000 0080 7485 963f 0000 0020 7281 b73f
00000180: 0000 00c0 5779 a7bf 0000 00c0 ee33 aabf
00000190: 0000 0060 911e 9dbf 0000 0040 db7d 78bf
000001a0: 0000 00c0 9121 983f 0000 00a0 ec4c 633f
000001b0: 0000 0000 c12e 983f 0000 0040 bf9b 9ebf
000001c0: 0000 0000 2c1b b53f 0000 0000 6e10 a13f
000001d0: 0000 00a0 d03d 9abf 0000 00e0 0bb4 96bf
000001e0: 0000 0060 ccf8 a7bf 0000 0060 28e0 9cbf
000001f0: 0000 0000 fa88 a3bf 0000 0020 ba00 95bf
00000200: 0000 00e0 c4bc 65bf 0000 0080 996d bc3f
00000210: 0000 00e0 a16f c03f 0000 00a0 1d8a b93f
00000220: 0000 00c0 3862 43bf 0000 0080 8b4f 6bbf
00000230: 0000 0040 7a75 98bf 0000 0020 6af4 ac3f
00000240: 0000 00a0 f774 853f 0000 00c0 a29f a8bf
00000250: 0000 0080 8dde 6f3f 0000 00c0 408f a4bf
00000260: 0000 0000 c20b 5a3f 0000 0040 1d0e ccbf
00000270: 0000 00c0 3d39 6abf 0000 0080 e69b 9e3f
00000280: 0000 00a0 97b6 abbf 0000 00c0 814f b43f
00000290: 0000 0040 ab31 a8bf 0000 0000 b536 953f
000002a0: 0000 0080 d4d0 74bf 0000 0080 d224 b1bf
000002b0: 0000 0000 6145 b13f 0000 0020 35c9 7fbf
000002c0: 0000 0060 7920 a63f 0000 00c0 ddc1 be3f
000002d0: 0000 0040 ad3a 7c3f 0000 0020 f938 bcbf
000002e0: 0000 0020 e8e6 a9bf 0000 0020 703b 843f
000002f0: 0000 00a0 79be b3bf 0000 0020 c5f2 8a3f
00000300: 0000 0080 b9b1 9d3f 0000 00e0 7c61 ba3f
00000310: 0000 0020 8367 aebf 0000 0040 74bd a13f
00000320: 0000 00a0 52b5 6dbf 0000 0020 786f b03f
00000330: 0000 00c0 be41 ab3f 0000 0040 2c19 cf3f
00000340: 0000 00c0 c074 aa3f 0000 00e0 fc83 b4bf
00000350: 0000 0040 e3e2 b03f 0000 0020 57d4 bb3f
00000360: 0000 0020 f22b 70bf 0000 0080 0692 b23f
00000370: 0000 0060 f60d 95bf 0000 0020 85e9 c33f
00000380: 0000 0040 80e8 c2bf 0000 0080 1f9f a33f
00000390: 0000 00e0 a5bc bcbf 0000 0040 3a2d 7cbf
000003a0: 0000 00c0 d1b4 263f 0000 0060 3c44 b13f
000003b0: 0000 00c0 cf97 7bbf 0000 0080 4ccc bcbf
000003c0: 0000 0020 a568 993f 0000 0020 bc49 a93f
000003d0: 0000 0040 9b82 babf 0000 00c0 f9f6 acbf
000003e0: 0000 0000 9a57 b3bf 0000 0040 94b1 c23f
000003f0: 0000 00c0 3ac2 9fbf 0000 00c0 54f3 a13f
00000400: 0000 0040 0776 613f 0000 00e0 d695 a93f
00000410: 0000 0020 03fd abbf 0000 00c0 dbfc 97bf
00000420: 0000 00c0 8b78 a43f 0000 00e0 d34e a23f
00000430: 0000 0020 f2e1 833f 0000 00c0 bdf4 9d3f
00000440: 0000 00a0 fea6 b0bf 0000 0000 738b c03f
00000450: 0000 0080 ec1b 7abf 0000 00a0 f063 9ebf
00000460: 0000 0080 dc2e b0bf 0000 00e0 2bd2 b03f
00000470: 0000 0020 2127 833f 0000 0000 9149 a9bf
00000480: 0000 0040 fe37 a93f 0000 0060 c3be bdbf
00000490: 0000 00a0 df40 b73f 0000 00c0 61f6 9cbf
000004a0: 0000 0020 f822 a73f 0000 00e0 eade a93f
000004b0: 0000 0020 6284 a2bf 0000 0080 5cf6 9b3f
000004c0: 0000 0000 e5d0 b8bf 0000 0080 cd3a 92bf
000004d0: 0000 0040 de4a a63f 0000 0000 070e c63f
000004e0: 0000 00e0 7194 af3f 0000 0080 5579 a7bf
000004f0: 0000 0080 be84 b53f 0000 00a0 1300 a3bf
00000500: 0000 00e0 ebad b1bf 0000 0000 1616 b0bf
00000510: 0000 00e0 d8a9 bc3f 0000 00e0 3630 ae3f
00000520: 0000 0060 6a6c 973f 0000 0040 dc87 843f
00000530: 0000 00a0 09e4 b0bf 0000 00a0 8ac4 cabf
00000540: 0000 0080 7cbd ae3f 0000 0060 f11a bc3f
00000550: 0000 00c0 44ae a4bf 0000 0080 76b5 c0bf
00000560: 0000 00c0 f234 723f 0000 00c0 a677 bcbf
00000570: 0000 0080 1738 94bf 0000 0040 7729 b0bf
00000580: 0000 0080 c229 b43f 0000 00c0 5f4d 9cbf
00000590: 0000 00e0 d70c 5d3f 0000 0020 56fe 843f
000005a0: 0000 0000 377d 82bf 0000 0080 ae0c 82bf
000005b0: 0000 00a0 94aa 9dbf 0000 0080 498c 88bf
000005c0: 0000 0080 1ef5 a7bf 0000 00a0 ab1e babf
000005d0: 0000 00e0 686b ab3f 0000 0060 5723 bc3f
000005e0: 0000 0020 3d28 ac3f 0000 0060 52a8 91bf
000005f0: 0000 0020 69f9 ba3f 0000 0080 d9b3 a83f
00000600: 0000 0040 f4ff 8abf 0000 0080 3327 bdbf
00000610: 0000 0020 5d44 b6bf 0000 00e0 2595 b1bf
00000620: 0000 00a0 f775 853f 0000 00a0 39ce 8d3f
00000630: 0000 0040 a09c b13f 0000 00a0 5e9b a3bf
00000640: 0000 00e0 c8b4 903f 0000 0080 80bc a33f
00000650: 0000 0080 5766 95bf 0000 00a0 d1f3 7e3f
00000660: 0000 0080 ecde 8b3f 0000 0000 9871 c93f
00000670: 0000 00a0 e4fc a8bf 0000 0060 b78c b9bf
00000680: 0000 00c0 54b5 a4bf 0000 0040 8179 b9bf
00000690: 0000 0020 06a4 903f 0000 00c0 2143 9bbf
000006a0: 0000 0040 86e0 a03f 0000 00c0 fad1 9abf
000006b0: 0000 0000 68c1 9d3f 0000 0040 2e6e a7bf
000006c0: 0000 00e0 b5f0 9dbf 0000 00e0 34ed ac3f
000006d0: 0000 0060 ef42 97bf 0000 00a0 95e8 bc3f
000006e0: 0000 0000 7e36 a2bf 0000 0080 7f7a 9dbf
000006f0: 0000 0000 7d6c a73f 0000 0000 441f 97bf
00000700: 0000 0080 9019 94bf 0000 0080 0448 b8bf
00000710: 0000 00e0 7688 ac3f 0000 0080 8f76 a1bf
00000720: 0000 0040 4cb8 92bf 0000 00e0 4c45 a7bf
00000730: 0000 0060 4868 943f 0000 00e0 ff7a c8bf
00000740: 0000 0000 a3a5 adbf 0000 00e0 1200 b03f
00000750: 0000 00e0 b168 9cbf 0000 00c0 b27d b9bf
00000760: 0000 00a0 7999 763f 0000 0000 da53 b0bf
00000770: 0000 00e0 b354 99bf 0000 00e0 7efb c2bf
00000780: 0000 0060 6777 c23f 0000 00a0 1da6 a83f
00000790: 0000 0020 397a b63f 0000 0040 62a6 883f
000007a0: 0000 0080 8802 9abf 0000 0060 b744 a5bf
000007b0: 0000 00a0 9ff5 97bf 0000 0080 0a62 b73f
000007c0: 0000 0080 7fa3 b8bf 0000 0060 162d a7bf
000007d0: 0000 00a0 5df8 b03f 0000 00a0 7b2a a53f
000007e0: 0000 0020 7ee8 b03f 0000 0080 3245 963f
000007f0: 0000 0020 81c6 a83f 0000 0040 3c5b b93f

bias f8 [24]
0.0573524571955204 0.04882819950580597 -0.056317880749702454 -0.0422014482319355 0.014888179488480091 -0.10398049652576447 -0.12139040976762772 0.008815529756247997
0.6286228895187378 0.7793627977371216 0.9841575026512146 0.623546302318573 0.9496208429336548 1.0167895555496216 0.9151961207389832 0.8387033343315125
2.21437668800354 1.8679240942001343 1.2797801494598389 2.1709482669830322 1.3031527996063232 0.5950179696083069 1.1642725467681885 1.7891756296157837
00000000: 0000 0020 4d5d ad3f 0000 0080 0200 a93f
00000010: 0000 0080 b2d5 acbf 0000 00a0 6d9b a5bf
00000020: 0000 00a0 b17d 8e3f 0000 0040 779e babf
00000030: 0000 0020 7113 bfbf 0000 0060 e00d 823f
00000040: 0000 00c0 ad1d e43f 0000 0040 8af0 e83f
00000050: 0000 00e0 377e ef3f 0000 0060 17f4 e33f
00000060: 0000 0040 4b63 ee3f 0000 0020 c544 f03f
00000070: 0000 0060 4949 ed3f 0000 0060 a8d6 ea3f
00000080: 0000 0020 0bb7 0140 0000 0060 04e3 fd3f
00000090: 0000 00c0 fa79 f43f 0000 0020 1a5e 0140
000000a0: 0000 00c0 b6d9 f43f 0000 0020 630a e33f
000000b0: 0000 0040 dca0 f23f 0000 00a0 76a0 fc3f

initpot f8 [1]
0.0
00000000: 0000 0000 0000 0000
