reann2.0_20250825/example/LYC/REANN_PES_FLOAT.pt (torch, 301342 bytes, 84 tensors)

contracted_coeff f4 [4, 3, 8, 108]
00000000: c95e b03e ef7b 53be 035b 15bc 3fb7 8abe
00000010: acc6 c6be 9ac1 9fbe 3a3b b8be 4b68 303e
00000020: 56fd 303e 66af 5dbe 89fd c63e 9034 543e
00000030: 0815 a8be b594 ad3e 37e4 123d b5cf a9be
00000040: f167 6cbe 5139 35bd 233a 893d 18af 303e
00000050: 7aa5 b53e 56ab 0b3e e820 aebe 2839 afbe
00000060: 06d4 93be 69d2 70be 101f 9b3e 6260 a8be
00000070: 8262 95be de24 b4be bce6 033d 99db abbe
00000080: 73ac 08be dd43 c7bd 857b 7b3e 7b33 a33e
00000090: 9eb9 8d3e 995e 9b3e 6829 863e a558 b03e
000000a0: 1c33 78be 1e36 c63d 2ded 773e ed43 e1bd
000000b0: 5c02 97bd 6ac7 bc3a ef45 943e c25f 983e
000000c0: 23ac 9fbe e360 a13e d992 cabd 1d5c 6f3e
000000d0: 90d8 a0be d4d3 07be cb60 a23e 1f41 a73e
000000e0: 330f b53e c51b b3be 1dfd a8be 5cfe 8f3e
000000f0: 82c2 4bbe c5d6 a93e b27f 0b3e 0693 b23e
00000100: 82f3 513e bf72 7b3e c536 da3d b307 16be
00000110: fc70 3cbd 31cb 643e e7c3 27be 5b97 d13e
00000120: 0c5b b63e bfd0 a73e 739a dabe c489 a7be
00000130: edaa b43c ce00 4e3e bcce b93e 80d4 923e
00000140: 4475 9abe 1370 993e 5184 a7be 8784 9bbe
00000150: d8aa c53e 38b3 a53e e311 7fbe fe88 a9be
00000160: 29e8 f1bd 9e35 b2be 601c 823e 4c2f c73d
00000170: 7dd2 b93e b96b 6fbe 25bb d83e be44 55be
00000180: acda bc3e d896 a3be 8cd4 afbe 068d 98be
00000190: 1832 16bd 5a38 50be 914a a93e 1d83 adbe
000001a0: 9563 76be a493 97be b50d 93be 483c c43e
000001b0: 4ae6 e1bb 162c 73be 6948 783e e0cc f53c
000001c0: 7e45 9dbd 02cc aa3d c14b 49bc 7749 c23d
000001d0: 3ece 8bbe 3083 bdbd 3b8d 8b3b 0d39 ab3d
000001e0: eedd 3fbd 798f 243e 5449 48bd 1db5 b0bd
000001f0: e42e 07be 1cbf 4d3d 3d49 3cbd 893f c53d
00000200: 0eb0 853d 368c 7ebe b267 46bd b6fd d2bd
00000210: 131d 05be 2d9d 4bbd adac 653c 08c8 673e
00000220: 9602 2e3b ada6 70bd 00af 04be d8ef ec3c
00000230: f275 b5bd 0692 70bd 7791 713d fb08 fcbc
00000240: f61b fd3d 0327 473e 46bc 28bb ffe1 c23d
00000250: afae b0bd d490 91bd d948 c63d faad ee3c
00000260: bb99 573e 2da1 c93d 9806 d73d 4078 a63b
00000270: e54f 34bd 9296 cdbc 1745 c43d 64a3 9d3d
00000280: 1909 24bd 8211 04be d32a 513d 90df 1f3b
00000290: 6cc6 6dbb fd69 19bd e23c 7dbd 778c 223e
000002a0: 2807 bfbd 4028 bd3d a2fb 60bd 9b51 4d3a
000002b0: 912c 71be 068c b03d aa19 0f3e f361 983c
000002c0: 2952 34be 1a92 1c3e 562c 933e ab87 5c3d
000002d0: a008 d63d 08e0 93bd 1593 ccbc 0d86 43bb
000002e0: 4d09 95be 458b 503d 03a0 75bd 0486 ddbc
000002f0: 00a2 f3bc 4949 61bd 877d 3c3e 37d5 423c
00000300: 64bd 833c 1280 163d c804 32bd 6c00 aabc
00000310: 2eb3 acbc 1deb 5a3c c6cf dd3d 14d7 c63d
00000320: ddae 5cbb 5604 c0bd 6f43 133d ff8e 07bd
00000330: 8189 603c 5c94 9dbd 8f34 e4bd 2c57 f8bc
00000340: 792a c53c 8618 ebbd 86cd 023d 169a f1bc
00000350: c249 59bb d5be 38be 7f81 093e c313 73be
00000360: 7582 933e 64a5 0d3d 90e9 6bbd f3f3 51be
00000370: 52f4 84be 7bff 3fbe 0022 0abd b3d0 cfbd
00000380: 71b2 063e c0c3 20be 7297 9c3e a946 65bd
00000390: 4b40 94be 9bb2 2d3d 6c4e eebc 0f00 70be
000003a0: cc37 acbd 3527 76bc 3e9d 773d 5310 96bd
000003b0: e573 ae3e 340d a93d 9d6c 9dbe 0067 8bbe
000003c0: f2e5 d73d 8199 57be af50 4f3d dd44 93be
000003d0: b9e4 8bbe 8a23 8fbe 42ad cd3d e071 8bbe
000003e0: d5f2 dcbd 5a08 23be 4ec6 913e 55f6 fd3c
000003f0: 458d 723e 293b 993c 8fb1 b43c f278 72bd
0.34447315 -0.20652746 -0.009115937 -0.2709293 -0.3882345 -0.31202394 -0.35982686 0.17227285
0.1728414 -0.2164894 0.38865307 0.20723176 -0.32828546 0.33902517 0.035862174 -0.3316628
-0.23086525 -0.044244114 0.06700542 0.17254293 0.3547781 0.13639578 -0.3400948 -0.34223294
-0.288727 -0.23517765 0.30297136 -0.32886034 -0.29176718 -0.35184377 0.032202467 -0.33565977
-0.13347034 -0.09729741 0.24558838 0.31875214 0.27680677 0.3034561 0.26203465 0.3444263
-0.24238247 0.09678291 0.24211569 -0.10999284 -0.07373497 0.0014402692 0.28959605 0.29760557
-0.31186017 0.3151923 -0.0989129 0.23374982 -0.31415224 -0.132644 0.31714472 0.3266687
0.3536316 -0.34982124 -0.3300561 0.28123748 -0.19898418 0.3317167 0.1362293 0.34877795
0.20503047 0.24555491 0.10654978 -0.14651375 -0.046006188 0.22343136 -0.16383325 0.40935788
0.35616338 0.32776448 -0.4269596 -0.32722294 0.02205416 0.20117494 0.36290538 0.2867775
-0.30167592 0.29968318 -0.32718137 -0.30374548 0.38606906 0.32363296 -0.24909167 -0.3311233
-0.11811859 -0.34806532 0.25412273 0.09725818 0.36293402 -0.23380937 0.4233028 -0.20827004
0.36885583 -0.31951022 -0.34341848 -0.29795092 -0.036668867 -0.20333996 0.33064702 -0.33889094
-0.24061425 -0.29604828 -0.28721395 0.3832724 -0.0068939077 -0.23747286 0.24246372 0.030004919
-0.0767927 0.08339693 -0.012286128 0.094866686 -0.27305788 -0.09253538 0.0042587793 0.08360491
-0.046842508 0.16070355 -0.048898056 -0.086282946 -0.13201481 0.050231084 -0.045968283 0.09631259
0.065277204 -0.24858174 -0.048438735 -0.10302298 -0.12999372 -0.04971044 0.01401822 0.226349
0.0026551834 -0.058752704 -0.12957382 0.02892296 -0.08860387 -0.05873301 0.058976617 -0.030766001
0.12358849 0.19448476 -0.0025746985 0.095157616 -0.08627068 -0.07107702 0.09681863 0.029135693
0.21054737 0.09845195 0.104993045 0.005080253 -0.044021506 -0.025096212 0.0958349 0.0769718
-0.04004774 -0.12897304 0.05106623 0.0024394728 -0.0036281599 -0.037454594 -0.06182564 0.15873896
-0.09327537 0.09236193 -0.054927476 0.00078322896 -0.23552157 0.08620457 0.13974634 0.018601393
-0.17609467 0.15290108 0.28744763 0.05384032 0.10450864 -0.07220465 -0.024972478 -0.002983454
-0.29108658 0.050914068 -0.059967052 -0.027041443 -0.029740334 -0.05500153 0.1840726 0.011891655
0.01608152 0.03674323 -0.04346159 -0.020752154 -0.021081533 0.013361719 0.10830645 0.09708992
-0.0033673563 -0.09375827 0.03595298 -0.033095356 0.0137046585 -0.07694313 -0.11142837 -0.030315004
0.024068104 -0.11479287 0.031934284 -0.02949242 -0.0033155535 -0.18041547 0.13428305 -0.23738007
0.28810468 0.034581557 -0.05759579 -0.20503215 -0.25967652 -0.18749802 -0.03372383 -0.10147228
0.13154007 -0.15699673 0.30584294 -0.05597559 -0.28955302 0.04240666 -0.029090129 -0.23437522
-0.0840908 -0.015023996 0.060452692 -0.07327332 0.34072796 0.082544714 -0.30746928 -0.2722702
0.105419055 -0.21054651 0.050614055 -0.28763476 -0.2732294 -0.27956802 0.10042812 -0.27235317
-0.10788504 -0.15921155 0.28471607 0.03100125 0.23686703 0.018704968 0.022057323 -0.059197374

weight f4 [64, 118]
00000000: 7fab 11be 6491 f0bd b685 28bb 7d86 c03d
00000010: 24c8 ceba 78c0 9bbd 357c 16be a370 0f3c
00000020: b3fa 053d 9cbe acbd cc37 37be 382e 143d
00000030: 04e8 03be a953 d13d 503d de3d fd40 b5bc
00000040: 4505 523d df5e f1bd 83b5 93be fc6a 75bd
00000050: 4136 f13d 85ca ccbd 2786 31be 27c6 41bd
00000060: c7e1 0cbe a673 55bd 24a7 9e3d 26bf cc3d
00000070: 12c6 6a3d e1ff bbbd 4421 cebd cff8 493d
00000080: e196 19bc 10b7 9c3d f996 0a3e c361 0a3d
00000090: eda1 5f3d 1ed2 fabd c7a1 66bd 66b7 073e
000000a0: b366 363e 1298 28bd 8efb d33d e121 c73d
000000b0: c794 1a3e 16a9 dabc 20cf 58bd 8111 1d3e
000000c0: 5638 babc f81e 5dbd 4750 e43c a073 f73d
000000d0: 1831 1d3e 9f52 193e 848d 963d a2a5 193e
000000e0: b428 fcbd ea48 433d 9958 10be e5e1 663d
000000f0: 7eab d5bd 88af edbd c09a fe3d 06af 223e
00000100: c689 23be d039 27be 55da 2abe 2cb6 e7bb
00000110: e3d2 2dbd 9f1d ca3d 6ae2 1bbe f0a2 fa3c
00000120: f799 c2bd d8ef ca3d b94b 0cbd b6cb 1f3e
00000130: 6673 573d d0e2 ef3d 4ee9 f13c eda9 063e
00000140: bdf3 a1bd 7e3f 653c 8838 013e 52b2 0abe
00000150: 39ab 133e 4cae d23d 8fbd 25be a2ba 0e3e
00000160: 8d95 babd 1081 6bbd 8397 0d3e ac36 1d3e
00000170: 2f82 fdbd 3417 0cbe 5504 8f3b 884b efbd
00000180: bc6e e5bd d575 243e 77b5 30be 0ef7 a03c
00000190: 7ab0 bdbc b69b 04be 3a99 22be 98b0 133e
000001a0: 860b e53d 0fe4 a53d 724f 80bd 3b36 1cbc
000001b0: 1531 1a3e 8f16 85bb d331 21be 9497 12be
000001c0: e4fe 67bd 597f 073e d159 a8bc 0d30 263e
000001d0: 77b0 0cbe a1e2 93bd 147f d8bd 5d13 4a3d
000001e0: 9b13 9cbd be65 9b3d d8e5 2a3e 9848 5fba
000001f0: 22fe 05be ab19 7ebd 012f 803d c86e 0d3e
00000200: c26b 96bd a7b7 b53d 0107 c73c 7af2 1f3e
00000210: b2ab 87bc 0fc3 c93d b512 333e 92c3 19be
00000220: bf0f 893e 8be6 15bd 2649 8fbc bf3b 363e
00000230: 51e7 363e bdf5 8e3d 76bc b13d 8c21 d53d
00000240: 6b30 9a3d 2c61 353e b22b 3a3d 9933 17be
00000250: 18a3 66bb cb7b 823d 3d18 93bd efd1 2cbe
00000260: d421 10bd 7992 4b3d f537 353e 0aad 94bb
00000270: de85 20bd daac 37be befc 90be 4d98 2bbe
00000280: c441 1c3e c59c 0b3e 6305 8cbd ef76 1e3e
00000290: fbac 233e ab6a 89bd c65e a73d f360 61bc
000002a0: 26d6 733d 8e8e 833d 372d d23a 8872 99bd
000002b0: 9419 393e b5c5 d03b ac87 353d 0bc4 9f3d
000002c0: bbe5 d53d b13a 87bd 067a 1bbe ecb2 793c
000002d0: 3302 233b ce97 dd3d 3568 8b3d 7c51 043e
000002e0: 3979 3cbc e393 87bd c907 87bc 6ae5 cabd
000002f0: 18d4 0b3d fac1 0fbe ba8f 083e 064d c1bc
00000300: 3fc0 6fbd 5517 87bd 3d38 8fbd 34ee 9e3d
00000310: c911 4bbd 298f 8abc 9162 203e 3f90 e7bd
00000320: f6a2 1ebe 9a60 203e 394d 923c 6c82 133e
00000330: 6779 1c3e f678 5f3d 6fb7 c23d 91e7 83bd
00000340: 8b70 c43d 0545 e23d 67ab d23d 2ddc 253e
00000350: dbbd d23d ee9d f0bd 0444 af3d f24f 81bd
00000360: 6ca8 1e3e b0f5 163e 77f4 533d b802 debc
00000370: 7a19 773d 0af3 6bbb 1733 d83c 2f19 193e
00000380: 22f5 bb3d e226 463d 72b8 43bd d26d 8bbd
00000390: 3644 9cbd a84c 033e 0b7a 22bd 4475 633d
000003a0: aec5 a73d cbd7 32be e44a a73d 4261 b13d
000003b0: 0a56 08be 0f8a 993d 88f6 3abd 336b 38bc
000003c0: a15a b6bc 9af5 a4bd 8c81 9fbd 45fe 263e
000003d0: fdba 153d 1b3d 9b3d d18b 143d 455e d13d
000003e0: 69cd 8bbd 1631 213d 088d 15bc f72e 203e
000003f0: eea6 093e 2ded 56bd da86 a5bd 4334 c73d
-0.14225577 -0.11746481 -0.0025714464 0.094006516 -0.0015776199 -0.0760507 -0.14695819 0.008754882
0.03270979 -0.08434793 -0.17892379 0.03617689 -0.12881476 0.10221035 0.10851538 -0.022125715
0.051274557 -0.11785673 -0.2884942 -0.05991648 0.11777926 -0.09999565 -0.17336331 -0.047308113
-0.13758002 -0.052112244 0.07746723 0.09997396 0.0573178 -0.091796644 -0.10064939 0.049309548
-0.009374351 0.07652104 0.13534154 0.03378464 0.054597784 -0.12247108 -0.056306627 0.13253555
0.17812614 -0.04116065 0.103507146 0.09723259 0.15095817 -0.026691955 -0.052931905 0.15338708
-0.022731941 -0.053984612 0.02787031 0.120826006 0.15350759 0.14972924 0.07351211 0.1500459
-0.12312451 0.04767696 -0.14096297 0.056367774 -0.104331 -0.116057456 0.1243186 0.15887079
-0.15970525 -0.16330647 -0.1668485 -0.007071277 -0.042437445 0.09868931 -0.15223089 0.030595273
-0.09502023 0.09909028 -0.034251902 0.15605053 0.052600287 0.11713183 0.029530194 0.13150759
-0.079078175 0.0139921885 0.12619221 -0.13544586 0.14420785 0.10287151 -0.16185592 0.13938382
-0.09110556 -0.05749613 0.13827328 0.15352887 -0.12378346 -0.13680726 0.00436453 -0.11684328
-0.112027615 0.16060574 -0.17256723 0.019649055 -0.02315544 -0.12950024 -0.15878764 0.14422834
0.111838385 0.08100139 -0.06265153 -0.009534414 0.15057786 -0.004061527 -0.15741663 -0.14315635
-0.056639567 0.13232173 -0.02055064 0.16229267 -0.13739191 -0.072209604 -0.10571113 0.049334873
-0.07620927 0.07587765 0.16689241 -0.0008517592 -0.13085225 -0.062036198 0.06258965 0.13811791
-0.07344772 0.088729195 0.024295332 0.15619841 -0.016561363 0.098516576 0.17487605 -0.1501601
0.26769826 -0.036596816 -0.017490935 0.17796229 0.17861678 0.069804646 0.08678524 0.10406789
0.07528766 0.1771285 0.045451827 -0.14765777 -0.0035192426 0.06371268 -0.071823575 -0.16876958
-0.03518851 0.049700234 0.17697127 -0.0045372294 -0.039190166 -0.17937031 -0.28317827 -0.16757317
0.15259463 0.13634022 -0.06836965 0.15475057 0.15983956 -0.067097984 0.081723735 -0.013756025
0.0595304 0.064236745 0.0016035204 -0.07492548 0.18076164 0.0063712248 0.04431884 0.07801064
0.10444208 -0.06602991 -0.15183267 0.015240412 0.0024873137 0.1081997 0.06806985 0.12921709
-0.011503511 -0.06620004 -0.016483204 -0.099070385 0.034137815 -0.1403884 0.13336077 -0.023596298
-0.05853295 -0.06596247 -0.069931485 0.077602774 -0.049577508 -0.016913967 0.156626 -0.1130681
-0.15491852 0.1566185 0.017859088 0.14405221 0.15280686 0.054558717 0.095076434 -0.06440652
0.09591778 0.11048321 0.10286599 0.16197272 0.10290118 -0.11748873 0.08557895 -0.063140765
0.15493935 0.1474216 0.05174681 -0.027100906 0.06032703 -0.0036003017 0.026391549 0.14951013
0.09177615 0.048376925 -0.047783323 -0.06808056 -0.07630198 0.12822211 -0.03966717 0.055531755
0.08192001 -0.17465131 0.08168581 0.086611286 -0.13314071 0.07497036 -0.045645267 -0.011256027
-0.022260012 -0.08054657 -0.07788381 0.16307934 0.03655528 0.07580014 0.03626615 0.102230586
-0.06826288 0.039353453 -0.009127863 0.15642916 0.13442585 -0.052472282 -0.080823615 0.09726765

bias f4 [64]
00000000: 7be9 d2bc 266d d1bc f9f1 71bd 7fb1 07be
00000010: 6edc 553d 276a c33d 7c70 103e 038e 8c3d
00000020: 9d47 8e3d db18 83bd d2b3 c8bd 79ce e33c
00000030: 10c3 2cbd cd92 f23c 7149 d33d 7e1c 3ebc
00000040: e9a5 fbbd efd0 a43d b5bb ff3d a9b9 99bd
00000050: f0f3 283d f9de 903d cbd3 093c 92c3 87bd
00000060: 83c2 bbbd b1a5 343c ac08 423d ad6c 75bc
00000070: 0d70 00be 27c6 0abe 8b55 29bd 1f35 72bd
00000080: f4d2 0c3e 116f bd3d 20d1 323d c6d2 c9bd
00000090: 44cd db3d a64c 013e e53c 233e fb38 663d
000000a0: c3d5 b1bd e948 bf3d 2fbd a1bd a2a1 a03a
000000b0: ae2d 473d e9b8 073e 25e3 a6bc 93eb ec3c
000000c0: 7cd3 c63d 28d4 bebd 5bac 833b 1bda 7ebb
000000d0: a3f1 e8bc 3d3c bbbd d621 e53c bd02 62bd
000000e0: 6f4c 98bd ee9b a1bd 1b2a d23d 6495 d63d
000000f0: e19b 83bc a429 7bbd 6364 e23b 6832 82bc
-0.025746098 -0.025564741 -0.059068654 -0.13251303 0.05221217 0.09541731 0.1410541 0.06863024
0.06947253 -0.06401225 -0.09799923 0.027808415 -0.042178214 0.029611016 0.10316742 -0.011603473
-0.12287504 0.080476634 0.12486974 -0.07506115 0.041248262 0.07073779 0.008412312 -0.06629099
-0.091679595 0.011025832 0.04737155 -0.014979524 -0.12542744 -0.13552152 -0.041341346 -0.05913269
0.13752347 0.092497 0.04365647 -0.09854655 0.10732511 0.12626895 0.15941198 0.056206685
-0.0868335 0.093400784 -0.07897412 0.0012255202 0.048627548 0.13254131 -0.020371983 0.028920924
0.09708306 -0.09317809 0.004018349 -0.0038887325 -0.028435534 -0.09142349 0.027970236 -0.055178393
-0.074364536 -0.07891069 0.10261937 0.10477713 -0.01606554 -0.06131901 0.0069089397 -0.015893176

alpha f4 [1, 64]
00000000: 9ecb 8d3f 443d 903f 58a6 913f ce48 8d3f
00000010: 84dd 8f3f 8b99 8c3f e97a 983f 69de 973f
00000020: 0608 913f 3213 8d3f 5a59 9e3f 31bc 8a3f
00000030: 3c33 903f d89a 903f 9474 913f 1bd9 913f
00000040: dbab 9b3f db9c 8e3f dda8 8c3f 08a7 8f3f
00000050: 2a7b 8c3f f214 8e3f 60a6 8c3f 2551 8b3f
00000060: cc16 8f3f a1e1 943f 7c0c 8b3f 3eec 8d3f
00000070: 4cb5 8c3f 96a9 8d3f c473 953f ff67 963f
00000080: 2338 9f3f 705d 8e3f f516 913f 6ae6 8f3f
00000090: d1e2 8b3f 9da4 8c3f ae95 8b3f f887 903f
000000a0: 32a0 903f 8ec4 893f 2945 8e3f b6ba 8d3f
000000b0: 9d7f 913f 2813 913f 97e8 903f 651b 913f
000000c0: e928 903f 74a3 8d3f 8e1f 8f3f a0e4 8c3f
000000d0: f4e4 8e3f 776a 903f 2e7a 8d3f c9a8 8e3f
000000e0: e72e 8c3f 91c6 9e3f 8025 8d3f db7f 903f
000000f0: 99dc 8e3f 5437 903f 50d3 903f d369 933f
1.1077764 1.1268697 1.1378889 1.1037843 1.1239476 1.0984358 1.1912509 1.1864749
1.1330574 1.1021483 1.2371018 1.0838681 1.1265635 1.1297255 1.1363702 1.139438
1.2161821 1.1141618 1.0989033 1.1222849 1.0975087 1.1100142 1.0988274 1.0884138
1.1178832 1.1631356 1.0863185 1.108772 1.0992827 1.1067379 1.1675954 1.1750487
1.2439007 1.1122265 1.1335131 1.1242192 1.0928594 1.0987736 1.0905054 1.1291494
1.1298888 1.0763109 1.1114856 1.1072605 1.136707 1.1333971 1.1320981 1.1336485
1.1262485 1.1065507 1.1181505 1.1007271 1.1163621 1.128249 1.1052911 1.1145259
1.0951813 1.2404348 1.1027069 1.1289018 1.1161071 1.1266885 1.1314487 1.151667

beta f4 [1, 64]
00000000: 7b14 c83d 3b62 023e 9aec 0b3e 99c7 cd3d
00000010: 5e4c 003e a77a ce3d 3609 383e 1294 423e
00000020: 72ea f63d a882 dd3d be17 7d3e ffdf ab3d
00000030: 8935 043e 64eb 043e fec8 0b3e 137d 123e
00000040: 026c 573e 3b66 dd3d 96db d43d c537 ff3d
00000050: 840c af3d d617 df3d 9bcf d43d 70cc c13d
00000060: 1bc1 ed3d 26d7 2d3e 3cdd b43d cdf7 e23d
00000070: 0704 be3d 70f3 be3d 6ecb 2f3e db0b 3a3e
00000080: 3df8 673e 9fc9 ee3d aed9 063e b325 013e
00000090: 8ffc b83d 0539 b53d 2003 c73d 664c 043e
000000a0: 5dcf 0a3e 3b8c 9f3d 5ed1 ea3d 29cb d63d
000000b0: 3efe 0d3e c8ad fa3d 879e 073e 23a7 0c3e
000000c0: 9190 053e c564 df3d 7465 e23d 1b47 d23d
000000d0: 29c4 f63d b7d2 093e 2600 d13d 5b12 e33d
000000e0: 34e7 b83d df76 703e 8549 d93d 571a f63d
000000f0: 82d3 f33d c735 043e 3fa9 043e 4f7b 193e
0.09769531 0.12732784 0.13664475 0.10047836 0.12529132 0.10081988 0.17972264 0.19001797
0.12056436 0.10815936 0.24716088 0.08392333 0.12911047 0.1298042 0.13650891 0.14305525
0.21037295 0.108105145 0.10393445 0.12461809 0.08547309 0.10893218 0.1039116 0.094628215
0.116090976 0.16976604 0.088312596 0.110824205 0.09278112 0.09323776 0.17167446 0.18168585
0.22653289 0.1165955 0.13168976 0.12612037 0.09032547 0.08848766 0.09717393 0.12919769
0.13555665 0.07790419 0.11465715 0.104879685 0.13866517 0.122401774 0.13244067 0.13735633
0.13043429 0.10907892 0.11054507 0.102674685 0.12049133 0.13459288 0.102051064 0.110874854
0.090284735 0.23482846 0.10609726 0.12016743 0.11905576 0.1291114 0.12955187 0.14988445

weight f4 [24, 64]
00000000: 3ba9 bc3c 34c6 683d ac2e 8cbd 2d25 fc3c
00000010: b913 343e 504d 373d f793 c0bd 8626 37be
00000020: d122 9dbd 4ad7 963c 1b3e 18be 51e8 dbbd
00000030: 45c7 9c3d b56f 9c3c a6fb 29be 9835 2f3e
00000040: 09c4 2bbd b73f ccbb 412c 403d 780b 313e
00000050: 4973 2cbd 38eb eb3c 500a 26bd 3b89 53bb
00000060: 12ad 4fbd f12d 46be cca9 02be b1d5 7ebd
00000070: 40a0 ba3d 4a1a 463d 609e 243e ae30 3cbe
00000080: 407d 09be b956 35be c995 e13d 313b 8fbd
00000090: e177 83bc f323 49bd e9c7 583b d5ed 18be
000000a0: 71b9 3a3e bc5f d4bd 3657 2fbe f28e eabc
000000b0: e512 3c3e 4bc7 b4bd ccd4 693d 709e b1bd
000000c0: ded8 0d3e bb1d 0dbd ecb3 ff3d 3de4 263e
000000d0: 1627 213d 368c 353e d70c a53b 4ad2 113e
000000e0: 02bf a83d 5c4d 673d 5f16 26be be73 aabd
000000f0: a876 383e 0082 f3bd 90da 73bd b1bc ccbd
00000100: 126b abbc 9270 fdba c03f 9b3c 56e5 9fbc
00000110: d9da bdbc 4f81 a73b b6fd af3c ada5 bb3c
00000120: 4fb9 e13c a3b2 90bc 9193 9d3c 183d e23c
00000130: c97f 193a bde5 213a 184f 053d 2062 ea3c
00000140: b632 23bc 3c44 6e3c daef b73b 42aa cdbc
00000150: 1d6b b93c 728f 933b 5613 b9bb d38e 6ebc
00000160: 68be f7b8 bd48 9fbb 7030 ef3c 6187 29bb
00000170: cc67 d2bc 10aa d0bc 002b f3bc 65e2 7f3c
00000180: 121b e83c 22ae 193c f579 95ba e2c8 703a
00000190: db18 823c 8434 b93c 4de6 663c 525d 1b3d
000001a0: e791 b03c 6eab dd3c 059c 9a3c 23fe 93bb
000001b0: bd42 8f3c 1a4b ef3c f626 efbb e6d6 313b
000001c0: dfe2 8f3c ed93 b5bb ccae 38bd 3ad0 c5bc
000001d0: a64f b93b 056c 023d 147f 1b3c 9237 37bd
000001e0: 5b39 06bd 7d5e b5bc 9a52 bc3c d3b0 d93c
000001f0: 5262 19bc 0c10 87bb e08d 223c 51d6 a83c
00000200: 48b7 eb3c d3aa 68bc 00a5 013c 88bc cb3c
00000210: 29a9 243d 5b21 01bc ad98 92bc 8ad8 f7bc
00000220: cca3 07bd 607a d03b 1e0d f2bd 2edf 05bd
00000230: 4234 e7b9 0015 e1bc 8601 f4bc ffa2 a13d
00000240: 7f7b 2bbd dd3f b8bc 6cf0 eaba 2280 063d
00000250: 68d2 fabc f260 88bc 2bb8 9e3b bc90 333c
00000260: 7bde 3a3c a354 9cbd 1438 0fbd 9671 6dbc
00000270: 24af f63c 4fa0 073d d747 493c aeda 99bd
00000280: 90b3 d0bc e053 22bd 0f20 1d3d 09ed 433b
00000290: 1865 b2bc a118 f7bc d9b5 00bc 66e6 49bd
000002a0: 07e6 783d 67d5 0bbd c88e 20bd 543b 703c
000002b0: 87ba 973d a32e 09bd a756 7ebc 4ecf debb
000002c0: a683 6f3d c677 4f3c bba0 4a3d 0d89 153d
000002d0: 4cb2 54bc 303b 883d 7ca9 aabc dc6d 2f3d
000002e0: 76d7 273d a879 51bb 0ea7 09bd 3420 f9bc
000002f0: aaf3 2f3d 6dde 1dbd 4021 343c de38 c93a
00000300: e3bd 2fbd 3caf acbb c5b9 823c 9db6 6dbd
00000310: 3ec2 dabd fdcf db3b d044 873d 6399 cf3d
00000320: 36c3 8f3d 6ab9 84bd a855 3e3d 378d 983d
00000330: 015f 59bc 29e9 cc3b 3e55 c93d e91d 0ebe
00000340: 0220 7dbd 43d4 153d dbc5 ef3b ba59 d0bd
00000350: ddde 6e3d 81dc 393c 5f53 04bc 4266 1bbd
00000360: 6c5a 6f3a c1d1 943d fb82 a23d 7f12 74bb
00000370: 377d 90bd 5265 7ebd 4a86 36bd e2ff 5e3d
00000380: 2820 823d d8bb cd3d b3dc 3bbd f212 423c
00000390: ef55 463d 69ca 7a3d 71f8 203d a6fc 853d
000003a0: abd7 fbbd 646f 933d 834f c13d 2b0a 46bc
000003b0: 603f 04be b498 943d 9b5e f1bb a649 b63c
000003c0: e4cd dfbd 8223 12bc d2f8 88bd 0fb2 bfbd
000003d0: 1105 b53b 64c0 05be b67d c33c 3dfb acbd
000003e0: b844 80bd 7e14 9ebd 0683 bf3d fbb1 933d
000003f0: 45b7 dbbd c15d 7b3d 02d6 0e3c 9aa5 a93c
0.023029914 0.056829646 -0.068448395 0.030779446 0.17585649 0.044751465 -0.09403222 -0.1788579
-0.07672656 0.018413205 -0.14867441 -0.1073767 0.07655195 0.019096235 -0.16599903 0.17110288
-0.041935 -0.0062331813 0.046917204 0.17289531 -0.042102132 0.028798684 -0.04053718 -0.003227784
-0.050702162 -0.19353463 -0.12760085 -0.06221551 0.091125965 0.048364915 0.1607604 -0.18377945
-0.13426685 -0.17708863 0.110148974 -0.06993712 -0.016048374 -0.04910655 0.003307814 -0.14934476
0.18234803 -0.103698224 -0.17123112 -0.028632615 0.18366583 -0.088270746 0.057087705 -0.08672798
0.1385226 -0.03445218 0.12485489 0.16298003 0.039343916 0.17729267 0.005036931 0.14240375
0.08239557 0.05647026 -0.16219471 -0.08322857 0.18014014 -0.1189003 -0.05953461 -0.099969275
-0.020925079 -0.0019335917 0.018951297 -0.019518536 -0.023175644 0.0051118503 0.021483283 0.022906149
0.027554182 -0.017663306 0.019235404 0.027617022 0.0005855528 0.0006175896 0.032546133 0.028611243
-0.009960821 0.0145426355 0.0056133093 -0.0251056 0.022634083 0.004503184 -0.005648057 -0.014560419
-0.00011813344 -0.004860966 0.029197901 -0.0025868046 -0.02568426 -0.025471717 -0.02968359 0.0156179415
0.02833322 0.009379895 -0.0011404144 0.00091852073 0.015880993 0.02260805 0.014092994 0.037930794
0.021553947 0.027059283 0.018873224 -0.0045163794 0.017487878 0.029210616 -0.0072983457 0.0027136146
0.017564235 -0.005541316 -0.045088574 -0.024147142 0.005655247 0.031841297 0.009490747 -0.04473073
-0.032769542 -0.022139782 0.022988606 0.026573574 -0.00936182 -0.004121786 0.009921521 0.020610007
0.028773919 -0.014200884 0.007912874 0.024870172 0.040200386 -0.007881488 -0.017895067 -0.030254621
-0.033115193 0.0063622445 -0.11818908 -0.032683544 -0.00044098689 -0.027475834 -0.029785883 0.07892417
-0.041865822 -0.02249139 -0.0017924435 0.03283704 -0.030617908 -0.01664779 0.004843732 0.0109598
0.011405583 -0.07633331 -0.03496559 -0.014492413 0.03011281 0.033111867 0.012285194 -0.07512413
-0.025476247 -0.03963077 0.03836065 0.0029895923 -0.02177672 -0.030163111 -0.007855856 -0.04929199
0.060766246 -0.034139063 -0.039198667 0.014662582 0.07408624 -0.033491742 -0.015523589 -0.006799615
0.05847516 0.012662834 0.04946969 0.036507655 -0.012981962 0.06651914 -0.02083277 0.04282938
0.040976964 -0.0031963382 -0.03360658 -0.030410863 0.042956986 -0.0385422 0.010994256 0.0015352031
-0.0429057 -0.005269913 0.015957722 -0.05803548 -0.1068158 0.0067081437 0.06604922 0.10136678
0.070196554 -0.064806774 0.046468407 0.074488096 -0.01326728 0.006253381 0.09830712 -0.13878597
-0.061798103 0.03657938 0.0073172874 -0.10173364 0.058318008 0.011344076 -0.008076518 -0.037939318
0.00091306004 0.0726657 0.07935139 -0.003724247 -0.07055133 -0.062108345 -0.04456166 0.054443248
0.063537896 0.10045594 -0.045864772 0.011845337 0.048421796 0.06122819 0.039299432 0.065423295
-0.12296995 0.071989805 0.09438994 -0.012087385 -0.129148 0.07255688 -0.007366014 0.022251915
-0.109279424 -0.008919599 -0.06688084 -0.09360134 0.0055242856 -0.13061672 0.023863655 -0.084463574
-0.06263107 -0.07718752 0.093511626 0.072116815 -0.10728315 0.061368708 0.008718016 0.020708848

bias f4 [24]
00000000: 3c7e 44bd 25a7 e53b c17b 47bc e8b9 363d
00000010: da9e 103d 3d9e 85bb 1e2b f23b 6021 953c
00000020: 75c4 793f cb6e 843f ea96 803f 2043 823f
00000030: c069 813f bb0b 813f 1665 793f c9b1 853f
00000040: fe8d 243e 2688 0240 0b47 c33f c592 1040
00000050: 097a e53e 5207 623f 84c6 0b40 5346 0f40
-0.04797195 0.0070084506 -0.012175501 0.044610888 0.035307743 -0.0040777014 0.007390394 0.018204391
0.97565395 1.0346311 1.0046055 1.0176735 1.0110397 1.0081705 0.9741987 1.0444881
0.1606979 2.0395598 1.5256056 2.258958 0.44819668 0.8829242 2.1839914 2.2386672

weight f4 [64, 118]
00000000: 47d3 9a3d c9f4 0abe c7a7 2c3e 2c6a 743d
00000010: 4a8b 8ebe fcd6 ffbd d861 f83d 0a2a a83d
00000020: e7e4 efbc d96c 15bd 5561 39be 4d32 9abc
00000030: c506 1ebe 627e 083d 10b1 0cbe 13fe d73d
00000040: a3a8 48bd f267 44bd eb6a 363b 90ab c8bd
00000050: 0ad4 e13d 4a0b fbbd 477f f23b 01fc f5bc
00000060: 9b68 89bd ff22 373e ae79 b1bd 86f4 253d
00000070: 5712 f2bc 998a bd3d 20e3 31be 29ad cc3d
00000080: 4e20 23be 9905 cf3b 3359 463d f991 5d3d
00000090: 159f a8bd fad1 16be 7b5a d7bd b5a2 813d
000000a0: b385 1e3e 18f2 a33c 201c 02be 4b8a abbd
000000b0: 1a6f 18be 2b49 333d 1bdb 61bb 5b12 b0bd
000000c0: 3853 c13d 82b7 8c3b bfbe 063d e6fc 0fbe
000000d0: d82e 0bbe 673d 083c 3540 873d 59a9 803d
000000e0: 9f17 22be d631 213e 1015 ecbd a64c 3cbc
000000f0: d562 da3d 5209 3fbc 13ea 743d 2209 febd
00000100: 6361 023d 8865 f43d bc5c 09bd 392a 693d
00000110: ffca c0bd f262 e13d c7ad cabd 4877 22be
00000120: 0ff2 a8bc 9851 503d 694b 1d3e 164c 0d3e
00000130: 1313 163d 7597 373e 7dde f4bc 7c3c 073e
00000140: 7f0e 7abc 557e 21be d160 3bbd f6cb 093e
00000150: 3869 fabd 68ea 2c3e 7fff b43b 9080 fabd
00000160: 8af3 f73a 1b06 063e e115 e6bc 8bd6 12be
00000170: 7a9f 5d3d f618 b73d 5690 213e 07ea 87bd
00000180: cabc 023e eeef 75bd eb88 1b3e 6878 393e
00000190: 1747 033e 6876 363e 31c2 c5bd aa35 8e3c
000001a0: 401f 033b 7eff dbbd 9337 1c3e 478d abbc
000001b0: 68d4 37be 6bcd 163e 0391 1abd 0efc cb3d
000001c0: 5e74 06bc 9b48 2e3e 51df 6f3d 3a46 c83d
000001d0: f21a ae3d 16e5 473d 008e 63bd db86 9dbd
000001e0: 3989 06be ee33 1a3e 3488 48be 1586 053e
000001f0: 7fbe 7d3d 26ec 27bd 24b9 93bd 6eda 223e
00000200: faf7 e73d 0fd8 16be a1be 2a3e 0fea 2d3e
00000210: cc95 d23c a400 aa3b 9e6b 1abe 6b31 043a
00000220: e949 6cbe 5c21 c6bd ea72 d0bb 2de3 98bd
00000230: fbdb 94bd 19b1 eb3d cf25 13be d0f1 113e
00000240: 8677 acbd 0a5f 87bd f72b 073e f3c0 753c
00000250: 0413 253c 5a35 c5bd 33f3 0b3e 40b9 b4bd
00000260: 36a5 18be e00e 9cbd 6649 06be e787 0a3e
00000270: 32e9 abbd 7c08 34be 420f ae3d 87cb f13c
00000280: ce92 34bd f536 033e 5d7e d0bd 0da8 1cbe
00000290: d7f5 49bd 0e0d 32bd 05e2 75bd cc4b dfbd
000002a0: ab8f 243e dc5f 2b3e 2d67 8a3d 331d ddbd
000002b0: c006 9a3d f0ad f1bc 6142 f2bd 3fbb 493b
000002c0: 4983 eabd ad51 c3bc 2235 74bd c18f 9dba
000002d0: 2543 18be 17b4 363d 12d3 1e3e 0209 0b3e
000002e0: 7793 073e 34c7 0b3e 807e ae3d 2cd2 1bbe
000002f0: 38db 953d 03fd 0c3e 5214 97bd f104 293d
00000300: 5850 ec3d 030a dd3d 2f8f c4bd ca54 ff3d
00000310: c1bc 0ebe 2d59 1fbe 174d 24be e832 efbd
00000320: d225 a03d 9af4 3c3d 6850 2b3d e98f a7bc
00000330: 3999 5cbd 561e e83d e049 073d 3f54 91bd
00000340: d8b3 f7bd 1bdf 0bbe e8a1 c9bc 9d99 05be
00000350: 12f8 66bb 9c7b 963c 80b7 d0bc 088c 29be
00000360: db96 20be 93e9 813d fc52 a23c 5e5a ee3c
00000370: 7851 f1bc 65e1 ee3d c41e a03c 86ed 223e
00000380: a5da 2abe 156c ed3d 67b0 8dbd bf78 ddbd
00000390: 8211 08bb ed9a d23d d281 fabc 9dcf 6f3d
000003a0: 6ef1 a23b 93ab 74bd 3aed 0ebd 20b5 14bd
000003b0: 3aae e73c 9b25 9a3d ee8f e6bd 564a bcbc
000003c0: 6462 583e ada9 fdbd f720 8c3d 1c2c 0fbe
000003d0: e6cc ac3d 8e2d bb3d 1ff5 d23b edad aa3d
000003e0: c1c3 e13d 7c0f c6bc da84 73bd a168 333e
000003f0: 4e31 19be 675e 1fbe b3fc 223e f250 81bd
0.07559829 -0.1356994 0.16860877 0.059671566 -0.27840644 -0.12492177 0.12128037 0.08211143
-0.029283954 -0.03648076 -0.18103535 -0.018822813 -0.1543227 0.033323653 -0.13739419 0.10546508
-0.04898895 -0.047950692 0.0027834724 -0.09798348 0.11026771 -0.122580126 0.0074004265 -0.030027391
-0.06709405 0.17884444 -0.08665787 0.0405164 -0.02954976 0.09254951 -0.17371798 0.09993965
-0.15930292 0.006317806 0.04842491 0.05409429 -0.082334675 -0.14728537 -0.10515305 0.06329862
0.1548069 0.0200129 -0.12706041 -0.08375987 -0.14886132 0.04377095 -0.0034462872 -0.08597251
0.09439701 0.004294337 0.032896753 -0.14061317 -0.13592088 0.008315421 0.066040434 0.062823005
-0.15829323 0.15741667 -0.11527455 -0.011492884 0.10663382 -0.011659937 0.059793543 -0.12404086
0.031831156 0.11933428 -0.033535704 0.056925032 -0.094137184 0.110052004 -0.09896427 -0.15865815
-0.020623235 0.050859064 0.15360798 0.13798556 0.036639284 0.1792887 -0.029891247 0.13206667
-0.015262245 -0.15770848 -0.04574663 0.13456711 -0.122271 0.16886294 0.0055236216 -0.122315526
0.0018917185 0.13088267 -0.028086605 -0.14339654 0.054107167 0.08940308 0.15777716 -0.06636434
0.1276733 -0.060043268 0.15188949 0.18112338 0.12820087 0.17818606 -0.0965618 0.017359573
0.002000764 -0.10742091 0.15255575 -0.02094139 -0.1795212 0.14726798 -0.03773595 0.09960185
-0.008206455 0.17019884 0.05856258 0.0977902 0.08501233 0.048802458 -0.055555344 -0.07691737
-0.13138284 0.15058872 -0.19583207 0.1303943 0.06194925 -0.040996693 -0.07213047 0.15903637
0.11326595 -0.14730857 0.16674282 0.16983818 0.025706194 0.0051880646 -0.15080115 0.0005042764
-0.2307507 -0.096743315 -0.006361355 -0.07465205 -0.072685204 0.11508388 -0.14369892 0.142524
-0.08421235 -0.06609924 0.13200365 0.014999616 0.010075334 -0.09629317 0.13666992 -0.08824396
-0.14906773 -0.07620025 -0.13113937 0.13528405 -0.08394088 -0.17581362 0.08499004 0.029515995
-0.044085316 0.12813933 -0.10180352 -0.15298481 -0.049306717 -0.04346948 -0.060030002 -0.10903129
0.1607043 0.16735786 0.067579605 -0.10796585 0.07520819 -0.029501885 -0.11829067 0.0030781773
-0.11450822 -0.023842657 -0.059620984 -0.0012020991 -0.14869364 0.04460534 0.15510204 0.13577655
0.13239847 0.13650209 0.08520222 -0.15216893 0.07317203 0.13768391 -0.07376923 0.041264478
0.11538762 0.10792925 -0.095976226 0.12467344 -0.13939191 -0.15561362 -0.16045032 -0.116796315
0.07819714 0.046131708 0.04182473 -0.020454364 -0.053857062 0.11333911 0.033029437 -0.07096147
-0.12094849 -0.13659327 -0.024613336 -0.1304688 -0.0035243076 0.018369488 -0.025478125 -0.16557324
-0.15682547 0.06343379 0.01981496 0.029095825 -0.029457793 0.11664084 0.01954592 0.1591092
-0.16684969 0.11592881 -0.06918412 -0.10814046 -0.0020762389 0.10283456 -0.030579481 0.058547605
0.0049726283 -0.05973394 -0.034894206 -0.036305547 0.02828132 0.07526704 -0.11257921 -0.022984665
0.21131283 -0.12385879 0.06842225 -0.1398167 0.08437519 0.09139548 0.006437912 0.08333955
0.11023665 -0.024177305 -0.05945287 0.17520382 -0.14960214 -0.15563355 0.1591671 -0.06314267

bias f4 [64]
00000000: 5e93 8c3d e8f1 2e3d 6079 bcbc b988 0ebd
00000010: 2aca 093d 424e 81bd 8a5d 493d a30f acbd
00000020: fc4d ce3c 508e 99bd 2dd9 7cbd d104 ab3d
00000030: 8ef0 87bb 82d5 513c 4aa3 49bd 0948 16bd
00000040: 513c 84bd 75e8 46bd f6a2 8abd 1e63 673d
00000050: a6c7 883d 748b dd3c 0e1a d3bd 2e4c cfbd
00000060: b645 213d 6c21 423d c44b 823d f115 aebc
00000070: 5de1 943d 3062 53bd f2bf c236 ae02 c6bc
00000080: 852f 073d 3fd5 15bd 0074 9abd d241 02bc
00000090: a2ae 5dbd 4aa4 973d 24fc 48bd 53e3 45bd
000000a0: 7e6c bdbd 17ed 91bd b154 aa3c 8c90 4d3d
000000b0: 27b5 73bc 1945 023d 246b 7c3c 7334 883d
000000c0: d926 3bbd 4e5f a1bc 615f 0e3d 4a37 1f3d
000000d0: 7f7d 923d 0d53 c73c 17f2 283d 2784 71bc
000000e0: 87dd bfbb f665 ed3a 1f3a ee3d a48b 043d
000000f0: 73e8 9abc 4524 bb3c 1314 b9b9 d332 313d
0.068640456 0.04271117 -0.023007095 -0.034798358 0.033640064 -0.063137546 0.04916147 -0.0840142
0.02518367 -0.07497847 -0.061730552 0.08350528 -0.0041485494 0.012807252 -0.04922799 -0.03668979
-0.06456817 -0.048561532 -0.067693636 0.05649101 0.06678705 0.027044035 -0.10307704 -0.10121952
0.039373122 0.047395155 0.063621074 -0.021250697 0.07269547 -0.05160731 5.803996e-06 -0.0241712
0.033004303 -0.03658032 -0.075416565 -0.007950263 -0.05412162 0.074043825 -0.049068585 -0.048312496
-0.09249209 -0.071252994 0.020792337 0.05018668 -0.014874733 0.031804178 0.015406404 0.06650629
-0.045691345 -0.019698765 0.03475893 0.038871087 0.07152843 0.024331594 0.0412465 -0.01474098
-0.0058552655 0.0018112052 0.116321795 0.032359734 -0.018909669 0.022844443 -0.00035300906 0.04326136

alpha f4 [1, 64]
00000000: 9b13 8c3f 3990 893f e940 8a3f 8111 893f
00000010: 17dc 883f e08b 8d3f c733 893f 9218 853f
00000020: 3044 883f fbb0 883f 1da8 8c3f 61d0 883f
00000030: a0f8 8c3f 2989 8c3f c247 7d3f 33f5 893f
00000040: 52e8 813f dffd 8b3f 9997 8a3f 7f09 893f
00000050: b6c0 883f 0f38 8c3f 0df6 893f 812a 8a3f
00000060: 5c41 803f 2910 893f 298e 873f 00fd 893f
00000070: ef63 893f ca8a 863f 6183 8c3f 81de 883f
00000080: b26b 8b3f d639 893f 0a1f 8b3f e2e9 813f
00000090: 5402 883f 64d4 8b3f 3f32 8a3f 4e44 8e3f
000000a0: fc4a 8a3f d8de 893f 93ae 893f 31c8 883f
000000b0: e4d1 883f 28bd 8a3f 3d61 873f c61b 893f
000000c0: 10c8 8b3f 651f 873f a7d6 853f 2377 883f
000000d0: c322 8b3f f914 923f 9a74 8e3f bc35 893f
000000e0: e46e 813f 4067 853f 1c73 8b3f 5760 873f
000000f0: 5da3 873f d188 883f 6620 893f 9981 8a3f
1.0943483 1.0747138 1.0801059 1.0708467 1.0692166 1.1058311 1.0718926 1.0398123
1.0645809 1.067901 1.0988804 1.0688592 1.1013374 1.0979358 0.9893762 1.0777954
1.0149024 1.093685 1.0827514 1.0706023 1.0683811 1.0954608 1.0778214 1.0794221
1.0019946 1.0708057 1.0590259 1.0780334 1.0733622 1.0511105 1.0977594 1.0692903
1.0892241 1.0720775 1.0868847 1.01495 1.062571 1.0924191 1.0796584 1.1114595
1.0804133 1.0771132 1.0756401 1.0686094 1.0689054 1.0838976 1.057655 1.0711601
1.0920429 1.0556456 1.0456132 1.0661358 1.0869983 1.141265 1.1129334 1.0719523
1.0111966 1.0422134 1.0894504 1.0576276 1.059673 1.0666753 1.0713012 1.08208

beta f4 [1, 64]
00000000: 4dad d13d 98f6 ab3d 064a b53d 3fff a43d
00000010: ad55 a33d 4c90 e63d fe16 a83d d81e 493d
00000020: 2f0e 9c3d 9e7c 973d b202 dc3d 4055 9f3d
00000030: e273 db3d 6748 dd3d d905 1e3b 6375 b13d
00000040: 924a eb3c 93bd d23d e61e ba3d 55a9 a43d
00000050: c7c3 9a3d dca7 d13d c80d ae3d 088e b13d
00000060: dd2f 9c3c c4b4 9f3d dcd3 8b3d 2c8a b23d
00000070: 86d7 a83d 000d 823d b6e1 d63d 2746 9f3d
00000080: 52a7 c73d 9601 a73d 433e c33d 538b eb3c
00000090: a467 973d a921 d0bd 6dce b63d 85cd f13d
000000a0: 2e10 b63d c436 b03d 9ed8 ad3d 43cc a13d
000000b0: 7773 9a3d 2968 bb3d 3398 923d e5ee a23d
000000c0: 2e48 ce3d 108b 883d 2453 723d 8077 9f3d
000000d0: 4fdf c23d 980c 13be 44e7 ed3d ddd7 a73d
000000e0: 5f3d df3c 1de4 593d 65af b63d e708 8c3d
000000f0: 83e6 913d 118b 9f3d 8f85 9b3d 5ac3 b83d
0.102381326 0.083966434 0.088520095 0.08056497 0.07975326 0.11257991 0.082075104 0.04910168
0.07619893 0.07396816 0.107427016 0.07779932 0.10715462 0.10804825 0.0024112372 0.08664968
0.028722081 0.10290065 0.09087925 0.0804011 0.07556873 0.10237095 0.08498722 0.086696684
0.019065792 0.0779815 0.06827518 0.087177604 0.08244233 0.06350136 0.1049227 0.077770524
0.09748711 0.08154599 0.0953336 0.028752958 0.07392815 -0.1016267 0.08926091 0.11806778
0.08889805 0.08604196 0.08488582 0.07900288 0.075415544 0.09150726 0.07157936 0.07955722
0.10072361 0.06667149 0.05916132 0.07786465 0.09515249 -0.14360273 0.11616376 0.081954695
0.027250944 0.05319606 0.089201726 0.068376355 0.07124045 0.07790197 0.07593834 0.09021635

weight f4 [108, 64]
00000000: 5aca 46bd 6a23 89bd b1fd 823d ae16 1b3d
00000010: 0be5 46bd a9c7 003d 0046 5ebd c860 4dbc
00000020: 523b 86bd 34dd 48bd 803c 183d f8b2 d9bc
00000030: 6062 19bc 7b39 613d 972b 9d3b c9b5 74bd
00000040: b30e b43c fbcf 7fbd 67d8 683b 6433 133d
00000050: f9d8 563d a272 6ebd f22c 7a3c 23f3 9d3c
00000060: 762e 173b 04c5 6c3d b847 2f3d cc3e 61bd
00000070: b4ce 843d ab12 08bd 1d0c b5b8 5e83 0a3d
00000080: 3dfd 5f3d 58d3 88bd c045 5abd eeba 66bc
00000090: c5a8 35bd f6ca 53bd 231d 88bd f4d7 cf3c
000000a0: 16be d63b dc6c 283d f5e8 77bd 064a 8b3d
000000b0: a4d2 4a3d 4c5d 783d 31d7 573d e783 803d
000000c0: 9a27 4d3d 69b3 3dbd ed37 18bd ef7b 74bd
000000d0: 9ab4 6c3d 1405 bebc e57c 2fbd 5261 683d
000000e0: 52f5 dc3b 525e fdbc 8181 04bd edc3 3abd
000000f0: a41b 313d 44c0 803d f7cf 413d 5637 80bd
00000100: 9305 81bd 3b72 acbd 4e46 a73d befc 3e3d
00000110: e2e4 8fbd 4cb6 683d d6e6 9abd 7b01 223d
00000120: 244d 9abd f4c2 62bd f25c 5d3d 570e 4fbd
00000130: 62fa 043d 51ae 873d 3758 943a cced a3bd
00000140: 9633 fa3c 36e8 8ebd 2c4c 153d 627e 3d3d
00000150: aa8c 823d a7db 89bd f93c 173d 2f6d 393d
00000160: 7545 033c ee8c 8e3d 679c 3c3d ea86 9ebd
00000170: 1508 a93d 650d fbbc de84 043d 0f54 733d
00000180: 3902 973d 39db abbd 1dbe 99bd 0976 87bc
00000190: e8b7 81bd 38d2 7cbd f57a a8bd 1c55 633d
000001a0: bb51 0e3d eadd 5f3d dfe9 a4bd e6fb a53d
000001b0: ec2e 663d b3db 9e3d 9641 863d e4bb 9d3d
000001c0: 40f2 803d 08ed 56bd 29cb 4fbd c990 9cbd
000001d0: 3f2b 9f3d 665b 63bd 0fed 42bd 2028 9e3d
000001e0: c1a8 9f3b 2272 16bd 247c 69bd 0c6f 57bd
000001f0: 72c6 793d de9a 9f3d 62ee 6a3d 312e a6bd
00000200: 4413 82bc 5f67 1bbd 4c39 f43c 32a9 153c
00000210: 3543 a7bc 7019 063c 0d71 c7bc d069 3a3b
00000220: 9d98 43bd e475 1ebd af06 7bbb 99c0 90bc
00000230: 19f3 b0bc c112 4b3c 2df7 30ba 4995 dcbc
00000240: ee02 653c ab06 76bc 794e f0bc e7d4 f43b
00000250: be8f 3d3d d4b2 97bb dbb3 1d3c f091 1f3c
00000260: 69ce 943b e201 3c3d ec31 093d 4839 a4bc
00000270: e014 243d b841 aabc 7e83 c1bc 9f53 6a3c
00000280: 3806 313c 9006 30bd f8f9 20bc 7979 a4bc
00000290: 2437 adbc 5129 eabb b43a debc a97e 3a3b
000002a0: 488b d0bc 7523 9e3c 0a02 f1bc aa76 4a3d
000002b0: af76 1f3d c32c cd3c 0a89 243d 3940 3f3d
000002c0: 4c2a 943c 8e97 acbc 9915 d5bc 8bc7 0ebd
000002d0: a02b 853c 7afe 933c 7039 29bd 8537 e83c
000002e0: 4a74 db3b f302 7fbc 140d 71bc 5714 c2bc
000002f0: a304 e13c 9618 2c3d b85a 373d 5105 d5bc
00000300: aac7 4eba 0acc 3b3d 0096 26bd a258 813c
00000310: fd8e 7f3c c91e 183c 2e68 b73c 653f 9c3c
00000320: a279 213d f1b0 463d a7d6 2b3b a7d4 a9bc
00000330: a176 be3c 05c5 5cbc 04fa 833c db6f 013d
00000340: 7b9c 8d3c 90d5 9b3c e427 2f3c 8c91 5c3c
00000350: 776c 50bd a4dd cf3c 1120 d73c ec29 d23c
00000360: c507 9f3c df5a 60bd 67b9 34bd db2e bb3c
00000370: 6d9b 34bd 7eb9 0a3d b24b 9c3c 3884 823c
00000380: b218 98bc 1cb3 3e3d 2fe6 7b3c 28e6 bc3c
00000390: 4d7b 313c a16c 073d c785 393d c60e 123c
000003a0: 5a24 1b3c 3b0d 383c f8bd 053d e36d 42bd
000003b0: b50c 47bd 8d5e 18bd 69bd c2bc 03f7 62bd
000003c0: aedd 38b9 596c 82bb 536f dc3b a693 023d
000003d0: cf25 d0bc eba2 ee3c 7a1b c73c 19f8 ddbc
000003e0: fc91 acbc 1547 a6bc 0a05 0dbc 991e afbb
000003f0: 822a 44bc fac9 1bbd 2632 35bd c391 163d
-0.04853282 -0.06696208 0.06396044 0.037863426 -0.048558276 0.03144041 -0.054265976 -0.0125352815
-0.06554283 -0.04903908 0.037167072 -0.026574597 -0.009361833 0.05498646 0.004796456 -0.059743676
0.021979665 -0.062454205 0.0035529376 0.03593768 0.052453015 -0.05821479 0.015269505 0.019280976
0.0023068464 0.057805076 0.042793006 -0.05499153 0.06484738 -0.03322093 -8.633009e-05 0.033816688
0.054684866 -0.066809356 -0.053289175 -0.014082653 -0.044350404 -0.05170723 -0.066461824 0.02537153
0.0065534217 0.04111944 -0.0605249 0.06801228 0.04951729 0.06063585 0.052695457 0.062751584
0.050086595 -0.046313677 -0.03716271 -0.059688505 0.057789423 -0.02319578 -0.042843718 0.056733437
0.0067431116 -0.030928764 -0.032350067 -0.045597006 0.04323925 0.06286672 0.04731747 -0.062605545
-0.06299891 -0.08420225 0.081677064 0.046627752 -0.07026078 0.056814477 -0.0756356 0.039552193
-0.07534245 -0.055361703 0.054043718 -0.050550785 0.032465346 0.06625045 0.0011317794 -0.080043405
0.030542176 -0.069778845 0.036449596 0.046263106 0.06374486 -0.067313485 0.036923382 0.04527014
0.008012165 0.06960474 0.046047594 -0.077405766 0.08253495 -0.030646035 0.032353275 0.059406336
0.07373471 -0.08391423 -0.07506964 -0.016535776 -0.063339055 -0.061723918 -0.08226577 0.05550109
0.034745913 0.054654993 -0.0805242 0.081046864 0.056197092 0.07756748 0.06555478 0.07701853
0.062962055 -0.052472144 -0.050730858 -0.07644803 0.077719204 -0.055507086 -0.047589358 0.07722497
0.004872412 -0.03672994 -0.057003155 -0.052596137 0.060980268 0.077932104 0.057356246 -0.08114279
-0.015878327 -0.03794038 0.029812478 0.009134578 -0.020417789 0.008184776 -0.024345899 0.0028444417
-0.047752965 -0.038686648 -0.0038303544 -0.017669963 -0.021600293 0.012394608 -0.0006750699 -0.026926653
0.013977749 -0.015016238 -0.029334294 0.007471669 0.04627966 -0.0046294723 0.0096254 0.009739384
0.0045412076 0.045900233 0.033494875 -0.020046845 0.04005897 -0.02078329 -0.02362227 0.014302163
0.010804705 -0.04297501 -0.009825222 -0.020077454 -0.021144457 -0.0071460386 -0.027127601 0.0028456843
-0.02545704 0.019304017 -0.029419918 0.049429573 0.038931545 0.025045758 0.040169753 0.046692107
0.018086575 -0.02106836 -0.026011275 -0.034858268 0.016256154 0.01806568 -0.041314542 0.028346786
0.0066972123 -0.015564668 -0.014712591 -0.02369134 0.027468031 0.042015634 0.04476425 -0.026003512
-0.00078880286 0.045848884 -0.040670395 0.015789334 0.015598056 0.0092846835 0.022388544 0.019073198
0.03942264 0.04850859 0.0026220472 -0.020731283 0.023249926 -0.0134747075 0.016110428 0.031600814
0.01728653 0.019022733 0.010690663 0.013462435 -0.05088469 0.025374241 0.026260408 0.025654756
0.019412884 -0.05477416 -0.044122126 0.02284949 -0.044093538 0.033868305 0.019079063 0.015932187
-0.018566463 0.04655753 0.015374704 0.023058966 0.01083262 0.03306258 0.045293596 0.008914655
0.009469116 0.011233623 0.03265187 -0.047468077 -0.048596103 -0.037199546 -0.023771958 -0.05541135
-0.0001763019 -0.003980201 0.006727138 0.03187909 -0.025408654 0.02913042 0.024305094 -0.027095841
-0.021065705 -0.020297566 -0.008607158 -0.0053442237 -0.011973025 -0.038034417 -0.04423728 0.036760103

bias f4 [108]
00000000: dbf0 8bbb 2127 a7ba bc6a 2fbb 7d16 48bc
00000010: b7ac 4b3c d4bf 3fbc d882 d9bc 8ef1 95bb
00000020: e842 95bc 40a3 7bbc a3d8 58bc 7d4f 8fbc
00000030: 4af2 6a3c eef9 693c 8858 5abb 1e3b 12bd
00000040: bcca b73b 52ba f9bc 6508 8dbc b80e 29bc
00000050: d070 38bc 888b dd3a d259 64bc c273 273c
00000060: 4b47 7b3b b4f1 dbbb aba3 fabc ca51 0abb
00000070: 574d 5ebc 2037 693a 6e94 033c a206 1c3b
00000080: 40b4 62bc 271d 3dbc 69fa eebb 10b6 9b3a
00000090: 0543 ed3b 2bd3 3a3b 6d06 b9bc 2686 8cbc
000000a0: c405 e33b a7ae 813b a0d0 cfba 82ea 783b
000000b0: 16df 55bc c683 233d 7fe4 3ebc 0cc0 18bb
000000c0: 57b9 39bd c5a0 a83a 6863 b0bc 5a78 7cbb
000000d0: aed4 82bc bddf d53c b762 b236 dff1 973b
000000e0: afc6 75bc a93a 0dbc 2853 93bc 23e7 d5bc
000000f0: d2cc bbba 5c75 673b 6a4e 293c 9e1d 2e3b
00000100: 00c0 81bb cd79 723b 396b 0ebc c227 e239
00000110: 0bfe 323b 0f4a 09bd ab73 2b3c 0674 69bc
00000120: 8233 013c 9b93 0a3b 43cb 8ebb 8040 cfba
00000130: 364a 95bc 092f 6f3c f8fe 7ebb 61a4 1abc
00000140: c612 123c 274f a33b 5ab9 3c3c 131b 27bc
00000150: 805e 843b 4c80 03bc a9cc bfbc a6b1 4b3c
00000160: 4134 6f3b cc4c a139 4489 bb3b 2ee8 3a3c
00000170: ecf2 b53b 8d6e 8d3b 1170 71ba 2a32 8fbc
00000180: ecac 89bc cefb d13c f2a0 1c3c de19 f63b
00000190: 4be2 ad3b 2402 3f3c 20f8 38bc 47e7 03bc
000001a0: 100f 093d 2287 42bc 393a f1bb 6fb1 963c
-0.0042706556 -0.001275275 -0.00267665 -0.012212393 0.012431315 -0.01170345 -0.026551649 -0.0045759147
-0.01822038 -0.015358746 -0.013235244 -0.017493958 0.014339993 0.014280779 -0.003331693 -0.03570091
0.0056088846 -0.030484352 -0.017215917 -0.010318451 -0.011257365 0.0016902545 -0.01393743 0.01022047
0.0038342054 -0.006712163 -0.030595621 -0.002110588 -0.013568244 0.0008896459 0.008030994 0.0023807664
-0.01383692 -0.011542595 -0.007293035 0.001187982 0.0072406554 0.0028507214 -0.022586072 -0.01715381
0.0069281776 0.0039575878 -0.0015855022 0.0037981574 -0.013053676 0.03992059 -0.011651157 -0.0023307828
-0.04534277 0.0012865296 -0.021531776 -0.0038523884 -0.015970554 0.026107663 5.3163053e-06 0.0046369876
-0.015000983 -0.008619943 -0.017983988 -0.026111191 -0.0014328009 0.0035317754 0.010333637 0.0026567946
-0.0039596558 0.0036998868 -0.008692556 0.000431357 0.0027312066 -0.033517893 0.010464589 -0.014248854
0.007885816 0.0021145109 -0.004357727 -0.0015812069 -0.018223863 0.014598616 -0.0038909297 -0.009438605
0.008915609 0.004983801 0.011518801 -0.010199326 0.0040395856 -0.008026194 -0.02341302 0.012432491
0.0036499652 0.0003076553 0.0057231504 0.011407895 0.00555264 0.004316157 -0.00092101196 -0.017479975
-0.016806088 0.025632765 0.009559857 0.007510408 0.0053065172 0.011658225 -0.011289626 -0.008050746
0.03346163 -0.0118730385 -0.007361677 0.018395154

weight f4 [16, 108]
00000000: 86a0 373d b60e 0e3e b6cb 693e 0dd3 1ebe
00000010: e9c3 adbd 4e0f 4abe c2a2 ca3d 2919 5e3c
00000020: f17e c63d dc68 953d e4bd b53d b9c0 85bd
00000030: 91ea c73b b100 033e 98fd 3e3d 432f 1fbe
00000040: 0ef8 91bd 9f05 cdbd 159a 0cbe 68bc 38bd
00000050: 5e4a f1bd dfa4 493e 8d21 3c3e 0702 9dbd
00000060: 2fa0 9ab9 2ab6 c33d ad34 1bbe 2734 46be
00000070: f019 4ebe 27ed 273e bbec d2bd c546 4a3e
00000080: ee0a b0bd 739d 94bc 9378 92bd 08c8 dbbc
00000090: fa5d ecbc 460d 3dbd d6e2 303d cfb7 efbd
000000a0: ce25 e2bd d779 41be bbf8 473e 7032 83bc
000000b0: 115c 3cbe 0b19 923d 8f0d 633d 71f9 6fbe
000000c0: d410 08be 1ff3 25be a48b 303e 71cc c9bc
000000d0: 0ff1 1dbe 3246 21be 04e9 e33b 4d27 64be
000000e0: 0e5a 513e e3e2 19bd f5eb 21be 5618 b6bb
000000f0: 475a c8bd 5caf fa3c 7909 0c3e 167e 543e
00000100: d861 4a3e 8481 dbbb 8693 e23d 6b75 fdbd
00000110: 67f9 953d 60aa b13d bd43 083c 42da 1b3e
00000120: 6609 f4bd e4c7 883d 0c10 a13d 6862 553e
00000130: 25d2 233e d1b4 c6bd 3d8a 463d 7253 7c3d
00000140: d981 b23d 2800 fcbd 0517 463e cfc6 2cbd
00000150: d551 253d f731 0a3e b5d3 7d3d e68d 453e
00000160: 3342 70bd 4cf6 d0bd 8047 7fbd f0ba 71be
00000170: 6c44 a5bd 32fa cf3d d330 213d 7da8 5fbe
00000180: 1611 073e 71d1 9a3d 5220 e8bc 7fe5 4f3e
00000190: ad87 7ebd cc0d 84bc 5a17 5dbe 2134 833d
000001a0: b9a0 4bbe e8a6 4e3e f1bb bf3d f49f 28be
000001b0: d15e a23d 9054 c7bd 2072 393e 2eb4 eabd
000001c0: c3a4 5dbd a663 b83d d634 04be e6aa 97bd
000001d0: 5b29 143d e3d5 023e 9693 bebc 9a98 9bbc
000001e0: ef9d 453e 3403 89ba 7164 1c3d 2f04 313e
000001f0: b81e 2abe a1ac cabd a8a9 873d c8fe 753d
00000200: 46dc 10be af36 6c3e b38a 443e c921 ea3d
00000210: 68ba 1a3e 8f43 f2bd d7ec 8e3c 1960 f5bd
00000220: bca1 863e 620d 603e f906 cdbd 845d de3d
00000230: 26e3 c2bc bb5e 323e ef57 383e 2c98 293d
00000240: aa33 433d 9bc1 00be 7c83 37bd afbc 183e
00000250: 8850 673e d1c1 13bd 29d0 84bd ff4c 51be
00000260: efd9 933a da0b 1b3e aec4 093e 0521 8a3d
00000270: 215a cd3d 0534 28be 5225 0d3d dcb0 3f3e
00000280: 2bf6 36be e99d 923d 25ce 273e b230 613d
00000290: 5bfa de3d d6e2 c5bd 231e c63d c526 d23d
000002a0: 533c 9f3c 83ba 153e e50d ebbc d621 6c3e
000002b0: 1086 1bbd 95d2 eebd 0b02 b1bc 96dd 973d
000002c0: 005e 553e 2377 9ebd b6db e13c 6f2b 00be
000002d0: 74bf 063e e568 be3c 8666 d33d 662c 6e3e
000002e0: ea2c 813c 55e1 cdbd de79 133e 510c 0b3d
000002f0: 1321 363c ade7 96bd 3e54 4e3d 5ca8 843d
00000300: 45a0 71bd a469 333e 94e5 98bc 4170 59bd
00000310: 4d13 e33d 7b9f 4d3e 3764 593e 3f46 53be
00000320: 9883 2e3d d292 3a3e 6e4a 133e e390 b9bd
00000330: 2c8e 4dbd f6d5 74bd d176 6a3d de00 f73d
00000340: 49c9 223e 48a2 023e acda 203e 7f9a 503d
00000350: 848c 52bd af00 5bbe efd4 9fbd 53c5 15be
00000360: d4f1 5ebe a74f 7ebb 3b6e 7a3d b3fa fcbd
00000370: 2586 1dbe 0662 263e 4ee1 03be d830 1ebe
00000380: ae25 e0bd 4d4c eabd 58af f3bd 00d1 483e
00000390: e303 233e 5e51 063e 267d 2cbe 127c 133e
000003a0: 2d04 dabd c567 14bd 438e 063e 84cc 0f3e
000003b0: 1b17 0cbe efcc 0c3e 905d 5c3c 4694 2ebe
000003c0: 59a8 ee3d e23d 2f3e 378f 94bc c413 cb3d
000003d0: 090c e43d d95e eabd 7706 2b3e c6cc dabc
000003e0: 9170 65bd 48a9 533d e50f 0fbe 32e0 56be
000003f0: fe76 36bd 9922 703c 658b ebbd 7a4a 25be
0.04483082 0.138728 0.22831616 -0.15510197 -0.084846325 -0.19732401 0.09894325 0.013555803
0.09692181 0.07295391 0.088741094 -0.065308996 0.0061009605 0.12793233 0.046628565 -0.15545373
-0.07127391 -0.10010838 -0.13730653 -0.045101553 -0.117817625 0.196918 0.18372174 -0.07666402
-0.00029492515 0.095562294 -0.15156813 -0.19355832 -0.20127082 0.1639906 -0.10299059 0.19753559
-0.08595835 -0.018141484 -0.07151904 -0.02682878 -0.028853405 -0.046155237 0.043185078 -0.117049806
-0.11042367 -0.18894134 0.19528477 -0.016015261 -0.18394496 0.07133683 0.055432852 -0.23434998
-0.1328767 -0.16206025 0.17240769 -0.024633618 -0.15423988 -0.15749434 0.006955268 -0.22280617
0.2044451 -0.03756989 -0.15812667 -0.0055571003 -0.09782844 0.030601196 0.13675489 0.20751223
0.19763887 -0.006698789 0.11063294 -0.12375911 0.0732296 0.086750746 0.008316931 0.15219977
-0.11915855 0.06678751 0.07864389 0.2083832 0.15998133 -0.09702457 0.048471678 0.061603017
0.08716173 -0.12304717 0.19344719 -0.042181786 0.040361244 0.13495623 0.061969478 0.19292411
-0.058656882 -0.102032274 -0.062324047 -0.23606467 -0.08069691 0.10155143 0.039353203 -0.21841617
0.13190112 0.07559479 -0.028335724 0.2030239 -0.06214111 -0.01611986 -0.21590939 0.06406427
-0.1988553 0.20180857 0.09362019 -0.16467267 0.07928241 -0.09732926 0.18109941 -0.11460148
-0.054112207 0.090033814 -0.1291078 -0.07405643 0.036172252 0.12776904 -0.023263734 -0.018993665
0.19298528 -0.0010453225 0.038181726 0.17286752 -0.16613281 -0.098962076 0.06624156 0.06005743
-0.14146528 0.23067735 0.19193535 0.11432225 0.15110171 -0.11829292 0.017446918 -0.1198122
0.2629527 0.21880105 -0.100110956 0.108576804 -0.023789953 0.1741895 0.18002294 0.041404888
0.047656693 -0.12573855 -0.044803128 0.14915727 0.22589314 -0.03607351 -0.06485016 -0.20439528
0.0011280159 0.1514124 0.13453934 0.06744579 0.10026956 -0.16426094 0.03445942 0.1871981
-0.17867343 0.07159025 0.16387232 0.05497808 0.10887595 -0.09662406 0.09673717 0.10261301
0.019437945 0.1462193 -0.028693149 0.23059782 -0.03796965 -0.11661259 -0.02160742 0.07415311
0.2083664 -0.07737567 0.027570587 -0.12516569 0.13158971 0.023243377 0.10322289 0.23259124
0.015768487 -0.10052744 0.14401957 0.033947293 0.011116284 -0.073684074 0.05037331 0.064774245
-0.058990736 0.17520767 -0.018664159 -0.05308557 0.11087666 0.20080368 0.21229635 -0.20632266
0.042605966 0.1822007 0.14383861 -0.09060838 -0.050184414 -0.05977436 0.05724222 0.12060712
0.15897097 0.12757218 0.15708417 0.05092859 -0.051403537 -0.2138698 -0.07804286 -0.14626054
-0.21771938 -0.00388048 0.06114028 -0.123525046 -0.15383203 0.1624833 -0.12878916 -0.1544832
-0.10944687 -0.114403345 -0.118986785 0.19610977 0.15919451 0.13116977 -0.16844615 0.14402798
-0.10645328 -0.036231775 0.13140206 0.1404286 -0.13680689 0.13750051 0.013450041 -0.1704875
0.116532035 0.1711345 -0.018134696 0.09915879 0.11135108 -0.11443872 0.16701685 -0.026708972
-0.056015555 0.05167511 -0.13970907 -0.20983961 -0.044547074 0.014656686 -0.11501197 -0.16141692
