reann2.0_20250825/example/LYC/REANN_PES_DOUBLE.pt (torch, 534515 bytes, 93 tensors)

contracted_coeff f8 [4, 3, 8, 108]
0.3444731533527374 -0.2065274566411972 -0.009115937165915966 -0.2709293067455292 -0.3882344961166382 -0.31202393770217896 -0.35982686281204224 0.17227284610271454
0.1728413999080658 -0.21648940443992615 0.38865306973457336 0.20723176002502441 -0.32828545570373535 0.3390251696109772 0.03586217388510704 -0.3316628038883209
-0.2308652549982071 -0.04424411430954933 0.06700541824102402 0.17254292964935303 0.35477811098098755 0.13639578223228455 -0.34009480476379395 -0.34223294258117676
-0.2887269854545593 -0.2351776510477066 0.30297136306762695 -0.328860342502594 -0.2917671799659729 -0.35184377431869507 0.03220246732234955 -0.33565977215766907
-0.1334703415632248 -0.09729740768671036 0.24558837711811066 0.31875213980674744 0.2768067717552185 0.3034560978412628 0.26203465461730957 0.34442630410194397
-0.2423824667930603 0.09678290784358978 0.24211569130420685 -0.10999283939599991 -0.07373496890068054 0.001440269174054265 0.2895960509777069 0.29760557413101196
-0.31186017394065857 0.315192312002182 -0.09891290217638016 0.23374982178211212 -0.31415224075317383 -0.13264399766921997 0.3171447217464447 0.32666870951652527
0.3536315858364105 -0.3498212397098541 -0.3300561010837555 0.28123748302459717 -0.19898417592048645 0.3317166864871979 0.13622930645942688 0.3487779498100281
0.20503047108650208 0.24555490911006927 0.10654977709054947 -0.14651374518871307 -0.04600618779659271 0.22343136370182037 -0.16383324563503265 0.40935787558555603
0.3561633825302124 0.32776448130607605 -0.4269596040248871 -0.32722294330596924 0.0220541600137949 0.20117494463920593 0.3629053831100464 0.2867774963378906
-0.3016759157180786 0.29968318343162537 -0.3271813690662384 -0.30374547839164734 0.38606905937194824 0.32363295555114746 -0.24909166991710663 -0.3311232924461365
-0.11811859160661697 -0.3480653166770935 0.2541227340698242 0.09725818037986755 0.36293402314186096 -0.23380936682224274 0.4233027994632721 -0.20827004313468933
0.3688558340072632 -0.31951022148132324 -0.3434184789657593 -0.2979509234428406 -0.036668866872787476 -0.20333996415138245 0.3306470215320587 -0.338890939950943
-0.24061425030231476 -0.29604828357696533 -0.2872139513492584 0.3832724094390869 -0.0068939076736569405 -0.23747286200523376 0.24246372282505035 0.030004918575286865
-0.07679270207881927 0.08339692652225494 -0.012286127544939518 0.09486668556928635 -0.27305787801742554 -0.09253537654876709 0.004258779343217611 0.08360490947961807
-0.046842508018016815 0.16070355474948883 -0.04889805614948273 -0.08628294616937637 -0.13201481103897095 0.05023108422756195 -0.04596828296780586 0.09631258994340897
0.06527720391750336 -0.24858173727989197 -0.04843873530626297 -0.1030229777097702 -0.1299937218427658 -0.04971044138073921 0.014018219895660877 0.22634899616241455
0.002655183430761099 -0.05875270441174507 -0.12957382202148438 0.02892296016216278 -0.08860386908054352 -0.0587330088019371 0.05897661671042442 -0.030766000971198082
0.12358848750591278 0.19448475539684296 -0.002574698533862829 0.09515761584043503 -0.08627068251371384 -0.07107701897621155 0.09681863337755203 0.02913569286465645
0.21054737269878387 0.09845194965600967 0.10499304533004761 0.0050802528858184814 -0.04402150586247444 -0.025096211582422256 0.09583490341901779 0.07697179913520813
-0.04004773870110512 -0.12897303700447083 0.05106623098254204 0.0024394728243350983 -0.003628159873187542 -0.03745459392666817 -0.06182564049959183 0.15873895585536957
-0.09327536821365356 0.0923619270324707 -0.05492747575044632 0.0007832289556972682 -0.2355215698480606 0.08620457351207733 0.13974633812904358 0.018601393327116966
-0.1760946661233902 0.1529010832309723 0.28744763135910034 0.05384032055735588 0.10450863838195801 -0.07220464944839478 -0.024972477927803993 -0.00298345391638577
-0.2910865843296051 0.05091406777501106 -0.059967052191495895 -0.027041442692279816 -0.029740333557128906 -0.055001530796289444 0.1840725988149643 0.011891654692590237
0.016081519424915314 0.03674323111772537 -0.04346159100532532 -0.020752154290676117 -0.021081533282995224 0.013361719436943531 0.10830645263195038 0.09708991646766663
-0.0033673562575131655 -0.09375827014446259 0.03595298156142235 -0.033095356076955795 0.01370465848594904 -0.07694312930107117 -0.11142837256193161 -0.030315004289150238
0.024068104103207588 -0.11479286849498749 0.031934283673763275 -0.029492419213056564 -0.0033155535347759724 -0.18041546642780304 0.13428305089473724 -0.23738007247447968
0.28810468316078186 0.03458155691623688 -0.057595789432525635 -0.20503215491771698 -0.2596765160560608 -0.18749801814556122 -0.03372383117675781 -0.10147228091955185
0.13154007494449615 -0.1569967269897461 0.30584293603897095 -0.05597558990120888 -0.2895530164241791 0.042406659573316574 -0.02909012883901596 -0.2343752235174179
-0.08409079909324646 -0.015023996122181416 0.060452692210674286 -0.07327332347631454 0.34072795510292053 0.0825447142124176 -0.30746927857398987 -0.27227020263671875
0.10541905462741852 -0.21054650843143463 0.05061405524611473 -0.2876347601413727 -0.2732293903827667 -0.27956801652908325 0.10042811930179596 -0.2723531723022461
-0.10788504034280777 -0.15921154618263245 0.28471606969833374 0.031001249328255653 0.2368670254945755 0.018704967573285103 0.022057322785258293 -0.05919737368822098
00000000: 0000 0020 d90b d63f 0000 00e0 7d6f cabf
00000010: 0000 0060 60ab 82bf 0000 00e0 e756 d1bf
00000020: 0000 0080 d5d8 d8bf 0000 0040 33f8 d3bf
00000030: 0000 0040 6707 d7bf 0000 0060 090d c63f
00000040: 0000 00c0 aa1f c63f 0000 00c0 ecb5 cbbf
00000050: 0000 0020 b1df d83f 0000 0000 9286 ca3f
00000060: 0000 0000 a102 d5bf 0000 00a0 96b2 d53f
00000070: 0000 00e0 865c a23f 0000 00a0 f639 d5bf
00000080: 0000 0020 fe8c cdbf 0000 0020 2aa7 a6bf
00000090: 0000 0060 4427 b13f 0000 0000 e315 c63f
000000a0: 0000 0040 afb4 d63f 0000 00c0 6a75 c13f
000000b0: 0000 0000 1dc4 d5bf 0000 0000 25e7 d5bf
000000c0: 0000 00c0 807a d2bf 0000 0020 4d1a cebf
000000d0: 0000 0000 e263 d33f 0000 0040 0c0c d5bf
000000e0: 0000 0040 50ac d2bf 0000 00c0 9b84 d6bf
000000f0: 0000 0080 d77c a03f 0000 0020 737b d5bf
00000100: 0000 0060 8e15 c1bf 0000 00a0 7be8 b8bf
00000110: 0000 00a0 706f cf3f 0000 0060 6f66 d43f
00000120: 0000 00c0 33b7 d13f 0000 0020 d36b d33f
00000130: 0000 0000 2dc5 d03f 0000 00a0 140b d63f
00000140: 0000 0080 6306 cfbf 0000 00c0 c3c6 b83f
00000150: 0000 00a0 a5fd ce3f 0000 00a0 7d28 bcbf
00000160: 0000 0080 4be0 b2bf 0000 0040 ed98 573f
00000170: 0000 00e0 bd88 d23f 0000 0040 f80b d33f
00000180: 0000 0060 84f5 d3bf 0000 0060 1c2c d43f
00000190: 0000 0020 5b52 b9bf 0000 00a0 83eb cd3f
000001a0: 0000 0000 121b d4bf 0000 0080 7afa c0bf
000001b0: 0000 0060 194c d43f 0000 00e0 23e8 d43f
000001c0: 0000 0060 e6a1 d63f 0000 00a0 7863 d6bf
000001d0: 0000 00a0 a31f d5bf 0000 0080 cbff d13f
000001e0: 0000 0040 5078 c9bf 0000 00a0 d83a d53f
000001f0: 0000 0040 f66f c13f 0000 00c0 6052 d63f
00000200: 0000 0040 703e ca3f 0000 00e0 576e cf3f
00000210: 0000 00a0 d846 bb3f 0000 0060 f6c0 c2bf
00000220: 0000 0080 1f8e a7bf 0000 0020 6699 cc3f
00000230: 0000 00e0 7cf8 c4bf 0000 0060 eb32 da3f
00000240: 0000 0080 61cb d63f 0000 00e0 17fa d43f
00000250: 0000 0060 4e53 dbbf 0000 0080 38f1 d4bf
00000260: 0000 00a0 5d95 963f 0000 00c0 19c0 c93f
00000270: 0000 0080 d739 d73f 0000 0000 905a d23f
00000280: 0000 0080 a84e d3bf 0000 0060 022e d33f
00000290: 0000 0020 8af0 d4bf 0000 00e0 9070 d3bf
000002a0: 0000 0000 5bb5 d83f 0000 0000 67b6 d43f
000002b0: 0000 0060 3ce2 cfbf 0000 00c0 1f31 d5bf
000002c0: 0000 0020 053d bebf 0000 00c0 b346 d6bf
000002d0: 0000 0000 8c43 d03f 0000 0080 e9e5 b83f
000002e0: 0000 00a0 4f3a d73f 0000 0020 77ed cdbf
000002f0: 0000 00a0 6417 db3f 0000 00c0 97a8 cabf
00000300: 0000 0080 559b d73f 0000 0000 db72 d4bf
00000310: 0000 0080 91fa d5bf 0000 00c0 a011 d3bf
00000320: 0000 0000 43c6 a2bf 0000 0040 0b07 cabf
00000330: 0000 0020 5229 d53f 0000 00a0 63b0 d5bf
00000340: 0000 00a0 72cc cebf 0000 0080 74f2 d2bf
00000350: 0000 00a0 b661 d2bf 0000 0000 8987 d83f
00000360: 0000 0040 c93c 7cbf 0000 00c0 8265 cebf
00000370: 0000 0020 0d09 cf3f 0000 0000 9cb9 9e3f
00000380: 0000 00c0 afa8 b3bf 0000 0040 8059 b53f
00000390: 0000 0020 7829 89bf 0000 00e0 2e49 b83f
000003a0: 0000 00c0 c779 d1bf 0000 0000 66b0 b7bf
000003b0: 0000 0060 a771 713f 0000 00a0 2167 b53f
000003c0: 0000 00c0 bdfb a7bf 0000 0020 ef91 c43f
000003d0: 0000 0080 2a09 a9bf 0000 00a0 a316 b6bf
000003e0: 0000 0080 dce5 c0bf 0000 0080 e3b7 a93f
000003f0: 0000 00a0 2789 a7bf 0000 0020 f1a7 b83f
00000400: 0000 00c0 01b6 b03f 0000 00c0 86d1 cfbf
00000410: 0000 0040 f6cc a8bf 0000 00c0 b65f babf
00000420: 0000 0060 a2a3 c0bf 0000 00a0 a573 a9bf
00000430: 0000 00a0 95b5 8c3f 0000 0000 01f9 cc3f
00000440: 0000 00c0 52c0 653f 0000 00a0 d514 aebf
00000450: 0000 0000 e095 c0bf 0000 0000 fb9d 9d3f
00000460: 0000 0040 beae b6bf 0000 00c0 4012 aebf
00000470: 0000 00e0 2e32 ae3f 0000 0060 1f81 9fbf
00000480: 0000 00c0 7ea3 bf3f 0000 0060 e0e4 c83f
00000490: 0000 00c0 8817 65bf 0000 00e0 3f5c b83f
000004a0: 0000 00e0 d515 b6bf 0000 0080 1a32 b2bf
000004b0: 0000 0020 1bc9 b83f 0000 0040 bfd5 9d3f
000004c0: 0000 0060 37f3 ca3f 0000 00a0 2534 b93f
000004d0: 0000 0000 d3e0 ba3f 0000 0000 08cf 743f
000004e0: 0000 00a0 fc89 a6bf 0000 0040 d2b2 99bf
000004f0: 0000 00e0 a288 b83f 0000 0080 6cb4 b33f
00000500: 0000 0020 2381 a4bf 0000 0040 3082 c0bf
00000510: 0000 0060 5a25 aa3f 0000 0000 f2fb 633f
00000520: 0000 0080 cdb8 6dbf 0000 00a0 3f2d a3bf
00000530: 0000 0040 9ca7 afbf 0000 00e0 8e51 c43f
00000540: 0000 0000 e5e0 b7bf 0000 0000 08a5 b73f
00000550: 0000 0040 741f acbf 0000 0060 33aa 493f
00000560: 0000 0020 9225 cebf 0000 00c0 8011 b63f
00000570: 0000 0040 35e3 c13f 0000 0060 3e0c 933f
00000580: 0000 0020 458a c6bf 0000 0040 4392 c33f
00000590: 0000 00c0 8a65 d23f 0000 0060 f590 ab3f
000005a0: 0000 0000 14c1 ba3f 0000 0000 017c b2bf
000005b0: 0000 00a0 6292 99bf 0000 00a0 c170 68bf
000005c0: 0000 00a0 29a1 d2bf 0000 00a0 6811 aa3f
000005d0: 0000 0060 00b4 aebf 0000 0080 c0b0 9bbf
000005e0: 0000 0000 4074 9ebf 0000 0020 2929 acbf
000005f0: 0000 00e0 b08f c73f 0000 00e0 a65a 883f
00000600: 0000 0080 ac77 903f 0000 0040 02d0 a23f
00000610: 0000 0000 9940 a6bf 0000 0080 0d40 95bf
00000620: 0000 00c0 6596 95bf 0000 00a0 635d 8b3f
00000630: 0000 00c0 f8b9 bb3f 0000 0080 e2da b83f
00000640: 0000 00a0 db95 6bbf 0000 00c0 8a00 b8bf
00000650: 0000 00e0 6d68 a23f 0000 00e0 dff1 a0bf
00000660: 0000 0020 3011 8c3f 0000 0080 8bb2 b3bf
00000670: 0000 00e0 9186 bcbf 0000 0080 e50a 9fbf
00000680: 0000 0020 4fa5 983f 0000 00c0 1063 bdbf
00000690: 0000 00c0 b059 a03f 0000 00c0 4233 9ebf
000006a0: 0000 0040 3829 6bbf 0000 00a0 da17 c7bf
000006b0: 0000 00e0 2f30 c13f 0000 0060 7862 cebf
000006c0: 0000 00a0 4e70 d23f 0000 0080 acb4 a13f
000006d0: 0000 0000 327d adbf 0000 0060 7e3e cabf
000006e0: 0000 0040 8a9e d0bf 0000 0060 efff c7bf
000006f0: 0000 0000 4044 a1bf 0000 0060 16fa b9bf
00000700: 0000 0020 4ed6 c03f 0000 0000 7818 c4bf
00000710: 0000 0040 ee92 d33f 0000 0020 d5a8 acbf
00000720: 0000 0060 0988 d2bf 0000 0060 53b6 a53f
00000730: 0000 0080 cdc9 9dbf 0000 00e0 0100 cebf
00000740: 0000 0080 f986 b5bf 0000 00a0 e6c4 8ebf
00000750: 0000 00c0 a7f3 ae3f 0000 0060 0ac2 b2bf
00000760: 0000 00a0 7cce d53f 0000 0080 a621 b53f
00000770: 0000 00a0 93ad d3bf 0000 0000 e06c d1bf
00000780: 0000 0040 befc ba3f 0000 0020 30f3 cabf
00000790: 0000 00e0 15ea a93f 0000 00a0 9b68 d2bf
000007a0: 0000 0020 977c d1bf 0000 0040 71e4 d1bf
000007b0: 0000 0040 a8b5 b93f 0000 0000 3c6e d1bf
000007c0: 0000 00a0 5a9e bbbf 0000 0040 0b61 c4bf
000007d0: 0000 00c0 c938 d23f 0000 00a0 cabe 9f3f
000007e0: 0000 00a0 a851 ce3f 0000 0020 6527 933f
000007f0: 0000 00e0 3196 963f 0000 0040 1e4f aebf

cutoff f8 [1]
5.5
00000000: 0000 0000 0000 1640

initpot f8 [1]
-4.2263336181640625
00000000: 0000 0000 c4e7 10c0

initpot f8 [1]
0.0
00000000: 0000 0000 0000 0000

weight f8 [64, 118]
-0.1422557681798935 -0.1174648106098175 -0.002571446355432272 0.09400651603937149 -0.0015776199288666248 -0.07605069875717163 -0.14695818722248077 0.008754882030189037
0.03270978853106499 -0.0843479335308075 -0.17892378568649292 0.0361768901348114 -0.12881475687026978 0.10221035033464432 0.10851538181304932 -0.022125715389847755
0.051274556666612625 -0.11785673350095749 -0.28849419951438904 -0.059916481375694275 0.11777926236391068 -0.09999565035104752 -0.1733633130788803 -0.04730811342597008
-0.1375800222158432 -0.05211224406957626 0.07746723294258118 0.09997396171092987 0.05731780081987381 -0.0917966440320015 -0.1006493866443634 0.04930954799056053
-0.009374351240694523 0.07652103900909424 0.13534153997898102 0.033784639090299606 0.05459778383374214 -0.12247107923030853 -0.0563066266477108 0.13253554701805115
0.17812614142894745 -0.04116065055131912 0.1035071462392807 0.09723258763551712 0.15095816552639008 -0.02669195458292961 -0.052931904792785645 0.15338708460330963
-0.02273194119334221 -0.053984612226486206 0.027870310470461845 0.12082600593566895 0.15350759029388428 0.14972923696041107 0.07351210713386536 0.15004590153694153
-0.12312451004981995 0.04767695814371109 -0.14096297323703766 0.056367773562669754 -0.10433100163936615 -0.11605745553970337 0.12431859970092773 0.15887078642845154
-0.159705251455307 -0.16330647468566895 -0.16684849560260773 -0.007071277126669884 -0.04243744537234306 0.09868931025266647 -0.1522308886051178 0.03059527277946472
-0.09502022713422775 0.09909027814865112 -0.034251902252435684 0.15605053305625916 0.05260028690099716 0.11713182926177979 0.029530193656682968 0.13150759041309357
-0.07907817512750626 0.0139921884983778 0.12619221210479736 -0.13544586300849915 0.14420785009860992 0.10287150740623474 -0.16185592114925385 0.13938382267951965
-0.09110555797815323 -0.05749613046646118 0.13827328383922577 0.1535288691520691 -0.12378346174955368 -0.13680726289749146 0.004364530090242624 -0.11684328317642212
-0.1120276153087616 0.16060574352741241 -0.1725672334432602 0.01964905485510826 -0.023155439645051956 -0.12950024008750916 -0.15878763794898987 0.14422833919525146
0.11183838546276093 0.0810013934969902 -0.06265152990818024 -0.009534413926303387 0.1505778580904007 -0.004061527084559202 -0.15741662681102753 -0.14315634965896606
-0.05663956701755524 0.13232173025608063 -0.020550640299916267 0.16229267418384552 -0.13739190995693207 -0.07220960408449173 -0.10571113228797913 0.049334872514009476
-0.07620926946401596 0.07587765157222748 0.166892409324646 -0.0008517592214047909 -0.13085225224494934 -0.06203619763255119 0.06258965283632278 0.13811790943145752
-0.07344771921634674 0.08872919529676437 0.02429533191025257 0.1561984121799469 -0.016561362892389297 0.09851657599210739 0.17487604916095734 -0.15016010403633118
0.2676982581615448 -0.036596816033124924 -0.0174909345805645 0.1779622882604599 0.17861677706241608 0.06980464607477188 0.08678524196147919 0.10406789183616638
0.07528766244649887 0.17712849378585815 0.045451827347278595 -0.14765776693820953 -0.0035192426294088364 0.06371267884969711 -0.07182357460260391 -0.16876958310604095
-0.03518851101398468 0.049700234085321426 0.17697127163410187 -0.004537229426205158 -0.03919016569852829 -0.17937031388282776 -0.28317826986312866 -0.16757316887378693
0.15259462594985962 0.1363402158021927 -0.06836964935064316 0.15475057065486908 0.15983955562114716 -0.0670979842543602 0.08172373473644257 -0.013756024651229382
0.05953039973974228 0.06423674523830414 0.0016035203589126468 -0.0749254822731018 0.18076163530349731 0.006371224764734507 0.04431883990764618 0.07801064103841782
0.10444208234548569 -0.06602991372346878 -0.1518326699733734 0.015240412205457687 0.002487313700839877 0.10819970071315765 0.06806985288858414 0.12921708822250366
-0.011503511108458042 -0.06620004028081894 -0.016483204439282417 -0.09907038509845734 0.03413781523704529 -0.1403883993625641 0.13336077332496643 -0.023596297949552536
-0.0585329495370388 -0.06596247106790543 -0.06993148475885391 0.07760277390480042 -0.0495775081217289 -0.016913967207074165 0.15662600100040436 -0.1130680963397026
-0.15491852164268494 0.15661850571632385 0.017859088256955147 0.14405220746994019 0.1528068631887436 0.05455871671438217 0.09507643431425095 -0.06440652161836624
0.09591778367757797 0.11048320680856705 0.10286598652601242 0.16197271645069122 0.10290118306875229 -0.11748872697353363 0.08557894825935364 -0.06314076483249664
0.15493935346603394 0.14742159843444824 0.05174681171774864 -0.027100905776023865 0.06032703071832657 -0.0036003016866743565 0.02639154903590679 0.14951013028621674
0.09177614748477936 0.04837692528963089 -0.047783322632312775 -0.06808055937290192 -0.07630197703838348 0.12822210788726807 -0.039667170494794846 0.05553175508975983
0.08192001283168793 -0.17465130984783173 0.08168581128120422 0.08661128580570221 -0.1331407129764557 0.07497035712003708 -0.04564526677131653 -0.011256027035415173
-0.022260012105107307 -0.08054657280445099 -0.07788380980491638 0.16307933628559113 0.03655527904629707 0.07580014318227768 0.03626615181565285 0.10223058611154556
-0.06826288253068924 0.03935345262289047 -0.009127862751483917 0.15642915666103363 0.13442584872245789 -0.05247228220105171 -0.080823615193367 0.09726765006780624
00000000: 0000 00e0 6f35 c2bf 0000 0080 2c12 bebf
00000010: 0000 00c0 b610 65bf 0000 00a0 cf10 b83f
00000020: 0000 0080 04d9 59bf 0000 0000 0f78 b3bf
00000030: 0000 00a0 86cf c2bf 0000 0060 14ee 813f
00000040: 0000 0060 56bf a03f 0000 0080 d397 b5bf
00000050: 0000 0080 f9e6 c6bf 0000 0000 c785 a23f
00000060: 0000 0080 007d c0bf 0000 0020 752a ba3f
00000070: 0000 0000 aac7 bb3f 0000 00a0 1fa8 96bf
00000080: 0000 00a0 a840 aa3f 0000 00e0 db2b bebf
00000090: 0000 0060 b076 d2bf 0000 0080 5fad aebf
000000a0: 0000 0020 c826 be3f 0000 00a0 5099 b9bf
000000b0: 0000 00e0 c430 c6bf 0000 00e0 c438 a8bf
000000c0: 0000 00e0 389c c1bf 0000 00c0 74ae aabf
000000d0: 0000 0080 e4d4 b33f 0000 00c0 e497 b93f
000000e0: 0000 0040 c258 ad3f 0000 0020 fc7f b7bf
000000f0: 0000 0080 28c4 b9bf 0000 00e0 193f a93f
00000100: 0000 0020 dc32 83bf 0000 0000 e296 b33f
00000110: 0000 0020 df52 c13f 0000 0060 384c a13f
00000120: 0000 00a0 3df4 ab3f 0000 00c0 435a bfbf
00000130: 0000 00e0 38d4 acbf 0000 00c0 ecf6 c03f
00000140: 0000 0060 d6cc c63f 0000 0040 0213 a5bf
00000150: 0000 00c0 717f ba3f 0000 0020 3ce4 b83f
00000160: 0000 00e0 9852 c33f 0000 00c0 2255 9bbf
00000170: 0000 0000 e419 abbf 0000 0020 30a2 c33f
00000180: 0000 00c0 0a47 97bf 0000 0000 dfa3 abbf
00000190: 0000 00e0 088a 9c3f 0000 0000 74ee be3f
000001a0: 0000 0000 23a6 c33f 0000 00e0 532a c33f
000001b0: 0000 0080 b0d1 b23f 0000 0040 b434 c33f
000001c0: 0000 0080 1685 bfbf 0000 0040 1d69 a83f
000001d0: 0000 0020 130b c2bf 0000 00a0 3cdc ac3f
000001e0: 0000 00c0 6fb5 babf 0000 0000 f1b5 bdbf
000001f0: 0000 0000 58d3 bf3f 0000 00c0 e055 c43f
00000200: 0000 00c0 3871 c4bf 0000 0000 3ae7 c4bf
00000210: 0000 00a0 4a5b c5bf 0000 0080 c5f6 7cbf
00000220: 0000 0060 5cba a5bf 0000 00e0 b343 b93f
00000230: 0000 0040 4d7c c3bf 0000 0000 5e54 9f3f
00000240: 0000 00e0 3e53 b8bf 0000 0000 fb5d b93f
00000250: 0000 0020 7789 a1bf 0000 00c0 76f9 c33f
00000260: 0000 00c0 6cee aa3f 0000 0000 5afc bd3f
00000270: 0000 00c0 293d 9e3f 0000 00a0 3dd5 c03f
00000280: 0000 00a0 773e b4bf 0000 00c0 efa7 8c3f
00000290: 0000 0000 1127 c03f 0000 0040 4a56 c1bf
000002a0: 0000 0020 6775 c23f 0000 0080 c955 ba3f
000002b0: 0000 00e0 b1b7 c4bf 0000 0040 54d7 c13f
000002c0: 0000 00a0 b152 b7bf 0000 0000 2270 adbf
000002d0: 0000 0060 f0b2 c13f 0000 0080 d5a6 c33f
000002e0: 0000 00e0 45b0 bfbf 0000 0080 e682 c1bf
000002f0: 0000 00a0 8ae0 713f 0000 0000 71e9 bdbf
00000300: 0000 0080 d7ad bcbf 0000 00a0 ba8e c43f
00000310: 0000 00e0 ae16 c6bf 0000 00c0 e11e 943f
00000320: 0000 0040 0fb6 97bf 0000 00c0 7693 c0bf
00000330: 0000 0040 2753 c4bf 0000 0000 1376 c23f
00000340: 0000 00c0 70a1 bc3f 0000 00e0 81bc b43f
00000350: 0000 0040 ee09 b0bf 0000 0060 c786 83bf
00000360: 0000 00a0 2246 c33f 0000 00e0 d1a2 70bf
00000370: 0000 0060 3a26 c4bf 0000 0080 f252 c2bf
00000380: 0000 0080 dcff acbf 0000 0020 ebef c03f
00000390: 0000 0020 3a0b 95bf 0000 00a0 01c6 c43f
000003a0: 0000 00e0 0e96 c1bf 0000 0020 547c b2bf
000003b0: 0000 0080 e20f bbbf 0000 00a0 6b42 a93f
000003c0: 0000 0060 7382 b3bf 0000 00c0 b76c b33f
000003d0: 0000 0000 bb5c c53f 0000 0000 13e9 4bbf
000003e0: 0000 0040 c4bf c0bf 0000 0060 35c3 afbf
000003f0: 0000 0020 e005 b03f 0000 0000 d9ad c13f
00000400: 0000 0040 78cd b2bf 0000 00e0 f4b6 b63f
00000410: 0000 0020 e0e0 983f 0000 0040 4ffe c33f
00000420: 0000 0040 76f5 90bf 0000 00e0 6138 b93f
00000430: 0000 00a0 5662 c63f 0000 0040 7238 c3bf
00000440: 0000 00e0 f721 d13f 0000 0060 d1bc a2bf
00000450: 0000 00c0 24e9 91bf 0000 00e0 77c7 c63f
00000460: 0000 0020 eadc c63f 0000 00a0 b7de b13f
00000470: 0000 00c0 8e37 b63f 0000 0080 31a4 ba3f
00000480: 0000 0060 0d46 b33f 0000 0080 25ac c63f
00000490: 0000 0040 7645 a73f 0000 0020 73e6 c2bf
000004a0: 0000 0000 63d4 6cbf 0000 0060 794f b03f
000004b0: 0000 00a0 0763 b2bf 0000 00e0 3d9a c5bf
000004c0: 0000 0080 3a04 a2bf 0000 0020 4f72 a93f
000004d0: 0000 00a0 fea6 c63f 0000 0040 a195 72bf
000004e0: 0000 00c0 bb10 a4bf 0000 0040 9bf5 c6bf
000004f0: 0000 00c0 971f d2bf 0000 00a0 0973 c5bf
00000500: 0000 0080 3888 c33f 0000 00a0 9873 c13f
00000510: 0000 0060 ac80 b1bf 0000 00e0 ddce c33f
00000520: 0000 0060 9f75 c43f 0000 0060 552d b1bf
00000530: 0000 00c0 d8eb b43f 0000 0060 1e2c 8cbf
00000540: 0000 00c0 c47a ae3f 0000 00c0 d171 b03f
00000550: 0000 00e0 a645 5a3f 0000 0000 512e b3bf
00000560: 0000 0080 3223 c73f 0000 00a0 b618 7a3f
00000570: 0000 0080 f5b0 a63f 0000 0060 81f8 b33f
00000580: 0000 0060 b7bc ba3f 0000 0020 56e7 b0bf
00000590: 0000 00c0 406f c3bf 0000 0080 5d36 8f3f
000005a0: 0000 0060 4660 643f 0000 00c0 f9b2 bb3f
000005b0: 0000 00a0 066d b13f 0000 0080 2f8a c03f
000005c0: 0000 0020 278f 87bf 0000 0060 7cf2 b0bf
000005d0: 0000 0020 f9e0 90bf 0000 0040 ad5c b9bf
000005e0: 0000 0000 837a a13f 0000 0040 3ff8 c1bf
000005f0: 0000 0040 f711 c13f 0000 00c0 a029 98bf
00000600: 0000 00e0 07f8 adbf 0000 00a0 eae2 b0bf
00000610: 0000 00a0 07e7 b1bf 0000 0080 c6dd b33f
00000620: 0000 0020 3962 a9bf 0000 0020 e551 91bf
00000630: 0000 0020 520c c43f 0000 00e0 07f2 bcbf
00000640: 0000 00c0 5ed4 c3bf 0000 0040 130c c43f
00000650: 0000 0020 a749 923f 0000 0080 4d70 c23f
00000660: 0000 00e0 2c8f c33f 0000 00c0 1eef ab3f
00000670: 0000 00e0 ed56 b83f 0000 0020 f27c b0bf
00000680: 0000 0060 118e b83f 0000 00a0 a048 bc3f
00000690: 0000 00e0 6c55 ba3f 0000 00a0 85bb c43f
000006a0: 0000 0060 bb57 ba3f 0000 00c0 bd13 bebf
000006b0: 0000 0080 80e8 b53f 0000 0040 fe29 b0bf
000006c0: 0000 0080 0dd5 c33f 0000 0000 b6de c23f
000006d0: 0000 00e0 8e7e aa3f 0000 0000 57c0 9bbf
000006e0: 0000 0040 2fe3 ae3f 0000 0040 617e 6dbf
000006f0: 0000 00e0 6206 9b3f 0000 00e0 2523 c33f
00000700: 0000 0040 a47e b73f 0000 0040 dcc4 a83f
00000710: 0000 0040 0e77 a8bf 0000 0040 ba6d b1bf
00000720: 0000 00c0 8688 b3bf 0000 0000 9569 c03f
00000730: 0000 0060 414f a4bf 0000 0080 a86e ac3f
00000740: 0000 00c0 b5f8 b43f 0000 0060 f95a c6bf
00000750: 0000 0080 5ce9 b43f 0000 0040 282c b63f
00000760: 0000 0040 c10a c1bf 0000 00e0 4131 b33f
00000770: 0000 0000 d15e a7bf 0000 0060 660d 87bf
00000780: 0000 0020 54cb 96bf 0000 0040 b39e b4bf
00000790: 0000 0080 31f0 b3bf 0000 00a0 c8df c43f
000007a0: 0000 00a0 5fb7 a23f 0000 0060 a367 b33f
000007b0: 0000 0020 7a91 a23f 0000 00a0 c82b ba3f
000007c0: 0000 0020 ad79 b1bf 0000 00c0 2226 a43f
000007d0: 0000 0000 a1b1 82bf 0000 00e0 de05 c43f
000007e0: 0000 00c0 dd34 c13f 0000 00a0 a5dd aabf
000007f0: 0000 0040 dbb0 b4bf 0000 0060 88e6 b83f

bias f8 [64]
-0.025746097788214684 -0.02556474134325981 -0.05906865373253822 -0.13251303136348724 0.052212171256542206 0.0954173132777214 0.14105409383773804 0.06863024085760117
0.0694725289940834 -0.06401225179433823 -0.09799923002719879 0.0278084147721529 -0.042178213596343994 0.02961101569235325 0.10316742211580276 -0.011603472754359245
-0.12287504225969315 0.08047663420438766 0.12486974149942398 -0.07506114989519119 0.04124826192855835 0.07073778659105301 0.008412311784923077 -0.06629098951816559
-0.09167959541082382 0.011025832034647465 0.047371551394462585 -0.014979523606598377 -0.12542743980884552 -0.1355215162038803 -0.04134134575724602 -0.059132691472768784
0.13752347230911255 0.09249699860811234 0.04365646839141846 -0.09854654967784882 0.10732510685920715 0.12626895308494568 0.1594119817018509 0.056206684559583664
-0.08683349937200546 0.09340078383684158 -0.07897412031888962 0.001225520158186555 0.048627547919750214 0.13254131376743317 -0.02037198282778263 0.02892092429101467
0.09708306193351746 -0.09317809343338013 0.004018349107354879 -0.003888732520863414 -0.028435533866286278 -0.09142348915338516 0.02797023579478264 -0.05517839267849922
-0.07436453551054001 -0.078910693526268 0.10261937230825424 0.10477712750434875 -0.01606553979218006 -0.061319008469581604 0.006908939685672522 -0.015893176198005676
00000000: 0000 0060 2f5d 9abf 0000 00c0 a42d 9abf
00000010: 0000 0020 3f3e aebf 0000 00e0 2ff6 c0bf
00000020: 0000 00c0 8dbb aa3f 0000 00e0 446d b83f
00000030: 0000 0080 0f0e c23f 0000 0060 c091 b13f
00000040: 0000 00a0 f3c8 b13f 0000 0060 1b63 b0bf
00000050: 0000 0040 7a16 b9bf 0000 0020 cf79 9c3f
00000060: 0000 0000 6298 a5bf 0000 00a0 5952 9e3f
00000070: 0000 0020 2e69 ba3f 0000 00c0 8fc3 87bf
00000080: 0000 0020 bd74 bfbf 0000 00e0 1d9a b43f
00000090: 0000 00a0 76f7 bf3f 0000 0020 3537 b3bf
000000a0: 0000 0000 7e1e a53f 0000 0020 df1b b23f
000000b0: 0000 0060 793a 813f 0000 0040 72f8 b0bf
000000c0: 0000 0060 5078 b7bf 0000 0020 b694 863f
000000d0: 0000 0080 1541 a83f 0000 00a0 95ad 8ebf
000000e0: 0000 00a0 010e c0bf 0000 00e0 c458 c1bf
000000f0: 0000 0060 b12a a5bf 0000 00e0 a346 aebf
00000100: 0000 0080 5e9a c13f 0000 0020 e2ad b73f
00000110: 0000 0000 245a a63f 0000 00c0 583a b9bf
00000120: 0000 0080 a879 bb3f 0000 00c0 9429 c03f
00000130: 0000 00a0 9c67 c43f 0000 0060 1fc7 ac3f
00000140: 0000 0060 b83a b6bf 0000 0020 1de9 b73f
00000150: 0000 00e0 a537 b4bf 0000 0040 3414 543f
00000160: 0000 00c0 b5e5 a83f 0000 0020 1df7 c03f
00000170: 0000 00a0 64dc 94bf 0000 0060 729d 9d3f
00000180: 0000 0080 6fda b83f 0000 0000 85da b7bf
00000190: 0000 0060 8b75 703f 0000 0060 43db 6fbf
000001a0: 0000 0060 341e 9dbf 0000 00a0 8767 b7bf
000001b0: 0000 00c0 3aa4 9c3f 0000 00a0 5740 acbf
000001c0: 0000 00e0 8d09 b3bf 0000 00c0 7d33 b4bf
000001d0: 0000 0060 4345 ba3f 0000 0080 acd2 ba3f
000001e0: 0000 0020 7c73 90bf 0000 0080 3465 afbf
000001f0: 0000 0060 8c4c 7c3f 0000 0000 4d46 90bf

alpha f8 [1, 64]
1.107776403427124 1.1268696784973145 1.1378889083862305 1.1037843227386475 1.1239476203918457 1.0984357595443726 1.1912509202957153 1.1864749193191528
1.1330573558807373 1.1021482944488525 1.2371017932891846 1.083868145942688 1.126563549041748 1.129725456237793 1.1363701820373535 1.1394380331039429
1.2161821126937866 1.1141618490219116 1.0989032983779907 1.1222848892211914 1.0975086688995361 1.1100142002105713 1.0988273620605469 1.0884138345718384
1.1178832054138184 1.1631356477737427 1.0863184928894043 1.1087720394134521 1.0992827415466309 1.1067378520965576 1.167595386505127 1.1750487089157104
1.2439006567001343 1.1122264862060547 1.13351309299469 1.1242191791534424 1.0928593873977661 1.0987735986709595 1.0905053615570068 1.1291494369506836
1.1298887729644775 1.0763108730316162 1.1114856004714966 1.1072604656219482 1.1367069482803345 1.133397102355957 1.1320980787277222 1.1336485147476196
1.1262484788894653 1.106550693511963 1.1181504726409912 1.1007270812988281 1.1163620948791504 1.1282490491867065 1.1052911281585693 1.1145259141921997
1.0951813459396362 1.2404347658157349 1.1027069091796875 1.1289018392562866 1.1161071062088013 1.1266884803771973 1.131448745727539 1.1516669988632202
00000000: 0000 00c0 73b9 f13f 0000 0080 a807 f23f
00000010: 0000 0000 cb34 f23f 0000 00c0 19a9 f13f
00000020: 0000 0080 b0fb f13f 0000 0060 3193 f13f
00000030: 0000 0020 5d0f f33f 0000 0020 cdfb f23f
00000040: 0000 00c0 0021 f23f 0000 0040 66a2 f13f
00000050: 0000 0040 2bcb f33f 0000 0020 8657 f13f
00000060: 0000 0080 6706 f23f 0000 0000 5b13 f23f
00000070: 0000 0080 922e f23f 0000 0060 233b f23f
00000080: 0000 0060 7b75 f33f 0000 0060 9bd3 f13f
00000090: 0000 00a0 1b95 f13f 0000 0000 e1f4 f13f
000000a0: 0000 0040 658f f13f 0000 0040 9ec2 f13f
000000b0: 0000 0000 cc94 f13f 0000 00a0 246a f13f
000000c0: 0000 0080 d9e2 f13f 0000 0020 349c f23f
000000d0: 0000 0080 8f61 f13f 0000 00c0 87bd f13f
000000e0: 0000 0080 a996 f13f 0000 00c0 32b5 f13f
000000f0: 0000 0080 78ae f23f 0000 00e0 ffcc f23f
00000100: 0000 0060 04e7 f33f 0000 0000 aecb f13f
00000110: 0000 00a0 de22 f23f 0000 0040 cdfc f13f
00000120: 0000 0020 5a7c f13f 0000 00a0 9394 f13f
00000130: 0000 00c0 b572 f13f 0000 0000 ff10 f23f
00000140: 0000 0040 0614 f23f 0000 00c0 9138 f13f
00000150: 0000 0020 a5c8 f13f 0000 00c0 56b7 f13f
00000160: 0000 00a0 f32f f23f 0000 0000 6522 f23f
00000170: 0000 00e0 121d f23f 0000 00a0 6c23 f23f
00000180: 0000 0020 1d05 f23f 0000 0080 6eb4 f13f
00000190: 0000 00c0 f1e3 f13f 0000 0000 949c f13f
000001a0: 0000 0080 9edc f13f 0000 00e0 4e0d f23f
000001b0: 0000 00c0 45af f13f 0000 0020 19d5 f13f
000001c0: 0000 00e0 dc85 f13f 0000 0020 d2d8 f33f
000001d0: 0000 0000 b0a4 f13f 0000 0060 fb0f f23f
000001e0: 0000 0020 93db f13f 0000 0080 ea06 f23f
000001f0: 0000 0000 6a1a f23f 0000 0060 3a6d f23f

beta f8 [1, 64]
0.09769531339406967 0.1273278445005417 0.13664475083351135 0.10047835856676102 0.12529131770133972 0.10081987828016281 0.1797226369380951 0.190017968416214
0.12056435644626617 0.10815936326980591 0.2471608817577362 0.0839233323931694 0.12911047041416168 0.12980419397354126 0.13650891184806824 0.1430552452802658
0.2103729546070099 0.1081051453948021 0.10393445193767548 0.12461809068918228 0.08547309041023254 0.10893218219280243 0.10391160100698471 0.0946282148361206
0.11609097570180893 0.16976603865623474 0.08831259608268738 0.11082420498132706 0.09278111904859543 0.09323775768280029 0.1716744601726532 0.18168585002422333
0.22653289139270782 0.11659549921751022 0.13168975710868835 0.12612037360668182 0.09032546728849411 0.0884876623749733 0.09717392921447754 0.12919768691062927
0.1355566531419754 0.07790418714284897 0.11465714871883392 0.10487968474626541 0.13866516947746277 0.12240177392959595 0.13244067132472992 0.13735632598400116
0.1304342895746231 0.10907892137765884 0.1105450689792633 0.1026746854186058 0.12049133330583572 0.13459287583827972 0.10205106437206268 0.11087485402822495
0.09028473496437073 0.23482845723628998 0.1060972586274147 0.12016742676496506 0.11905576288700104 0.1291113942861557 0.12955187261104584 0.1498844474554062
00000000: 0000 0060 8f02 b93f 0000 0060 474c c03f
00000010: 0000 0040 937d c13f 0000 0020 f3b8 b93f
00000020: 0000 00c0 8b09 c03f 0000 00e0 54cf b93f
00000030: 0000 00c0 2601 c73f 0000 0040 8252 c83f
00000040: 0000 0040 4edd be3f 0000 0000 55b0 bb3f
00000050: 0000 00c0 f7a2 cf3f 0000 00e0 ff7b b53f
00000060: 0000 0020 b186 c03f 0000 0080 6c9d c03f
00000070: 0000 00c0 1f79 c13f 0000 0060 a24f c23f
00000080: 0000 0040 80ed ca3f 0000 0060 c7ac bb3f
00000090: 0000 00c0 729b ba3f 0000 00a0 f8e6 bf3f
000000a0: 0000 0080 90e1 b53f 0000 00c0 fae2 bb3f
000000b0: 0000 0060 f399 ba3f 0000 0000 8e39 b83f
000000c0: 0000 0060 23b8 bd3f 0000 00c0 e4ba c53f
000000d0: 0000 0080 a79b b63f 0000 00a0 f95e bc3f
000000e0: 0000 00e0 80c0 b73f 0000 0000 6ede b73f
000000f0: 0000 00c0 6df9 c53f 0000 0060 7b41 c73f
00000100: 0000 00a0 07ff cc3f 0000 00e0 33d9 bd3f
00000110: 0000 00c0 35db c03f 0000 0060 b624 c03f
00000120: 0000 00e0 911f b73f 0000 00a0 20a7 b63f
00000130: 0000 0000 64e0 b83f 0000 00c0 8c89 c03f
00000140: 0000 00a0 eb59 c13f 0000 0060 87f1 b33f
00000150: 0000 00c0 2b5a bd3f 0000 0020 65d9 ba3f
00000160: 0000 00c0 c7bf c13f 0000 0000 b955 bf3f
00000170: 0000 00e0 d0f3 c03f 0000 0060 e494 c13f
00000180: 0000 0020 12b2 c03f 0000 00a0 98ec bb3f
00000190: 0000 0080 ae4c bc3f 0000 0060 e348 ba3f
000001a0: 0000 0020 85d8 be3f 0000 00e0 563a c13f
000001b0: 0000 00c0 0420 ba3f 0000 0060 4b62 bc3f
000001c0: 0000 0080 e61c b73f 0000 00e0 db0e ce3f
000001d0: 0000 00a0 3029 bb3f 0000 00e0 4ac3 be3f
000001e0: 0000 0040 707a be3f 0000 00e0 b886 c03f
000001f0: 0000 00e0 2795 c03f 0000 00e0 692f c33f

weight f8 [24, 64]
0.023029914125800133 0.05682964622974396 -0.06844839453697205 0.03077944554388523 0.17585648596286774 0.04475146532058716 -0.09403222054243088 -0.17885789275169373
-0.07672656327486038 0.018413204699754715 -0.14867441356182098 -0.10737670212984085 0.07655195146799088 0.019096234813332558 -0.16599902510643005 0.1711028814315796
-0.04193500056862831 -0.0062331813387572765 0.046917203813791275 0.17289531230926514 -0.042102131992578506 0.02879868447780609 -0.04053717851638794 -0.003227784065529704
-0.050702162086963654 -0.19353462755680084 -0.12760084867477417 -0.06221551075577736 0.0911259651184082 0.04836491495370865 0.16076040267944336 -0.18377944827079773
-0.13426685333251953 -0.1770886331796646 0.11014897376298904 -0.06993711739778519 -0.01604837365448475 -0.049106549471616745 0.003307814011350274 -0.14934475719928741
0.18234802782535553 -0.10369822382926941 -0.17123112082481384 -0.028632614761590958 0.18366582691669464 -0.08827074617147446 0.05708770453929901 -0.08672797679901123
0.13852259516716003 -0.034452181309461594 0.12485489249229431 0.16298003494739532 0.03934391587972641 0.17729267477989197 0.0050369310192763805 0.1424037516117096
0.08239556849002838 0.05647026002407074 -0.16219471395015717 -0.08322857320308685 0.18014013767242432 -0.11890029907226562 -0.05953460931777954 -0.0999692752957344
-0.02092507854104042 -0.0019335916731506586 0.01895129680633545 -0.01951853558421135 -0.023175643756985664 0.005111850332468748 0.02148328348994255 0.022906148806214333
0.027554182335734367 -0.01766330562531948 0.019235404208302498 0.027617022395133972 0.0005855528288520873 0.0006175896269269288 0.03254613280296326 0.02861124277114868
-0.009960820898413658 0.014542635530233383 0.00561330933123827 -0.02510559931397438 0.022634083405137062 0.004503183998167515 -0.005648056976497173 -0.014560419134795666
-0.00011813343735411763 -0.004860966000705957 0.029197901487350464 -0.002586804563179612 -0.025684259831905365 -0.02547171711921692 -0.029683589935302734 0.01561794150620699
0.02833322063088417 0.009379895403981209 -0.0011404143879190087 0.000918520730920136 0.015880992636084557 0.02260804921388626 0.014092993922531605 0.037930794060230255
0.021553946658968925 0.02705928310751915 0.018873224034905434 -0.004516379442065954 0.01748787797987461 0.029210615903139114 -0.007298345677554607 0.002713614609092474
0.017564235255122185 -0.005541315767914057 -0.045088574290275574 -0.024147141724824905 0.005655246786773205 0.03184129670262337 0.00949074700474739 -0.04473073035478592
-0.032769542187452316 -0.022139782086014748 0.022988606244325638 0.026573574170470238 -0.009361820295453072 -0.00412178598344326 0.009921520948410034 0.020610006526112556
0.028773918747901917 -0.01420088391751051 0.007912874221801758 0.024870172142982483 0.04020038619637489 -0.007881487719714642 -0.017895067110657692 -0.03025462105870247
-0.033115193247795105 0.006362244486808777 -0.11818908154964447 -0.03268354386091232 -0.0004409868852235377 -0.027475833892822266 -0.0297858826816082 0.07892417162656784
-0.04186582192778587 -0.022491389885544777 -0.0017924434505403042 0.03283704072237015 -0.030617907643318176 -0.016647789627313614 0.004843731876462698 0.010959800332784653
0.011405582539737225 -0.07633330672979355 -0.03496558964252472 -0.014492413029074669 0.03011281043291092 0.03311186656355858 0.012285194359719753 -0.07512412965297699
-0.02547624707221985 -0.039630770683288574 0.03836065158247948 0.0029895922634750605 -0.021776720881462097 -0.0301631111651659 -0.007855855859816074 -0.04929199069738388
0.06076624616980553 -0.03413906320929527 -0.03919866681098938 0.01466258242726326 0.07408624142408371 -0.03349174186587334 -0.015523589216172695 -0.006799614988267422
0.05847515910863876 0.01266283355653286 0.04946969076991081 0.036507654935121536 -0.012981962412595749 0.06651914119720459 -0.020832769572734833 0.04282937943935394
0.04097696393728256 -0.003196338191628456 -0.03360658138990402 -0.03041086345911026 0.04295698553323746 -0.03854219987988472 0.010994255542755127 0.0015352030750364065
-0.04290569946169853 -0.005269913002848625 0.015957722440361977 -0.058035481721162796 -0.10681580007076263 0.006708143744617701 0.06604921817779541 0.10136678069829941
0.07019655406475067 -0.06480677425861359 0.04646840691566467 0.0744880959391594 -0.013267279602587223 0.006253380794078112 0.09830711781978607 -0.1387859731912613
-0.0617981031537056 0.03657938167452812 0.007317287381738424 -0.10173363983631134 0.05831800773739815 0.01134407613426447 -0.008076517842710018 -0.037939317524433136
0.0009130600374191999 0.07266569882631302 0.07935138791799545 -0.003724246984347701 -0.0705513283610344 -0.062108345329761505 -0.044561661779880524 0.054443247616291046
0.06353789567947388 0.10045593976974487 -0.0458647720515728 0.011845337226986885 0.048421796411275864 0.0612281896173954 0.039299432188272476 0.06542329490184784
-0.12296994775533676 0.07198980450630188 0.09438993781805038 -0.012087385170161724 -0.12914800643920898 0.07255688309669495 -0.007366014178842306 0.0222519151866436
-0.10927942395210266 -0.008919598534703255 -0.06688083708286285 -0.09360133856534958 0.005524285603314638 -0.13061672449111938 0.02386365458369255 -0.08446357399225235
-0.06263107061386108 -0.07718752324581146 0.09351162612438202 0.07211681455373764 -0.10728315263986588 0.061368707567453384 0.008718015626072884 0.020708847790956497
00000000: 0000 0060 2795 973f 0000 0080 c618 ad3f
00000010: 0000 0080 d585 b1bf 0000 00a0 a584 9f3f
00000020: 0000 0020 7782 c63f 0000 0000 aae9 a63f
00000030: 0000 00e0 7e12 b8bf 0000 00c0 d0e4 c6bf
00000040: 0000 0020 5aa4 b3bf 0000 0040 e9da 923f
00000050: 0000 0060 c307 c3bf 0000 0020 0a7d bbbf
00000060: 0000 00a0 e898 b33f 0000 00a0 f68d 933f
00000070: 0000 00c0 743f c5bf 0000 0000 b3e6 c53f
00000080: 0000 0020 8178 a5bf 0000 00e0 f687 79bf
00000090: 0000 0020 8805 a83f 0000 0000 6f21 c63f
000000a0: 0000 0020 698e a5bf 0000 0000 677d 9d3f
000000b0: 0000 0000 4ac1 a4bf 0000 0060 2771 6abf
000000c0: 0000 0040 a2f5 a9bf 0000 0020 bec5 c8bf
000000d0: 0000 0080 3955 c0bf 0000 0020 b6da afbf
000000e0: 0000 0000 0854 b73f 0000 0040 49c3 a83f
000000f0: 0000 0000 cc93 c43f 0000 00c0 1586 c7bf
00000100: 0000 0000 a82f c1bf 0000 0020 d7aa c6bf
00000110: 0000 0020 b932 bc3f 0000 0020 66e7 b1bf
00000120: 0000 0020 fc6e 90bf 0000 0060 7e24 a9bf
00000130: 0000 0020 fd18 6b3f 0000 00a0 ba1d c3bf
00000140: 0000 0020 2e57 c73f 0000 0080 f78b babf
00000150: 0000 00c0 e6ea c5bf 0000 0040 de51 9dbf
00000160: 0000 00a0 5c82 c73f 0000 0060 e998 b6bf
00000170: 0000 0080 993a ad3f 0000 0000 ce33 b6bf
00000180: 0000 00c0 1bbb c13f 0000 0060 b7a3 a1bf
00000190: 0000 0080 7df6 bf3f 0000 00a0 87dc c43f
000001a0: 0000 00c0 e224 a43f 0000 00c0 86b1 c63f
000001b0: 0000 00e0 9aa1 743f 0000 0040 493a c23f
000001c0: 0000 0040 e017 b53f 0000 0080 abe9 ac3f
000001d0: 0000 00e0 cbc2 c4bf 0000 00c0 774e b5bf
000001e0: 0000 0000 d50e c73f 0000 0000 4070 bebf
000001f0: 0000 0000 527b aebf 0000 0020 9697 b9bf
00000200: 0000 0040 626d 95bf 0000 0040 12ae 5fbf
00000210: 0000 0000 f867 933f 0000 00c0 aafc 93bf
00000220: 0000 0020 5bbb 97bf 0000 00e0 29f0 743f
00000230: 0000 00c0 b6ff 953f 0000 00a0 b574 973f
00000240: 0000 00e0 2937 9c3f 0000 0060 5416 92bf
00000250: 0000 0020 72b2 933f 0000 0000 a347 9c3f
00000260: 0000 0020 f92f 433f 0000 00a0 b73c 443f
00000270: 0000 0000 e3a9 a03f 0000 0000 444c 9d3f
00000280: 0000 00c0 5666 84bf 0000 0080 87c8 8d3f
00000290: 0000 0040 fbfd 763f 0000 0040 48b5 99bf
000002a0: 0000 00a0 632d 973f 0000 0040 ee71 723f
000002b0: 0000 00c0 6a22 77bf 0000 0060 dad1 8dbf
000002c0: 0000 0000 cdf7 1ebf 0000 00a0 17e9 73bf
000002d0: 0000 0000 0ee6 9d3f 0000 0020 ec30 65bf
000002e0: 0000 0080 f94c 9abf 0000 0000 4215 9abf
000002f0: 0000 0000 6065 9ebf 0000 00a0 4cfc 8f3f
00000300: 0000 0040 6203 9d3f 0000 0040 c435 833f
00000310: 0000 00a0 3eaf 52bf 0000 0040 1c19 4e3f
00000320: 0000 0060 1b43 903f 0000 0080 9026 973f
00000330: 0000 00a0 c9dc 8c3f 0000 0040 aa6b a33f
00000340: 0000 00e0 3c12 963f 0000 00c0 6db5 9b3f
00000350: 0000 00a0 8053 933f 0000 0060 c47f 72bf
00000360: 0000 00a0 57e8 913f 0000 0040 63e9 9d3f
00000370: 0000 00c0 dee4 7dbf 0000 00c0 dc3a 663f
00000380: 0000 00e0 5bfc 913f 0000 00a0 7db2 76bf
00000390: 0000 0080 d915 a7bf 0000 0040 07ba 98bf
000003a0: 0000 00c0 f429 773f 0000 00a0 804d a03f
000003b0: 0000 0080 e26f 833f 0000 0040 f2e6 a6bf
000003c0: 0000 0060 2bc7 a0bf 0000 00a0 cfab 96bf
000003d0: 0000 0040 538a 973f 0000 0060 1a36 9b3f
000003e0: 0000 0040 4a2c 83bf 0000 0080 01e2 70bf
000003f0: 0000 0000 bc51 843f 0000 0020 ca1a 953f
00000400: 0000 0000 e976 9d3f 0000 0060 5a15 8dbf
00000410: 0000 0000 a034 803f 0000 0000 9177 993f
00000420: 0000 0020 2595 a43f 0000 0060 2b24 80bf
00000430: 0000 00a0 1553 92bf 0000 0040 11fb 9ebf
00000440: 0000 0080 79f4 a0bf 0000 0000 4c0f 7a3f
00000450: 0000 00c0 a341 bebf 0000 00c0 e5bb a0bf
00000460: 0000 0040 88e6 3cbf 0000 0000 a022 9cbf
00000470: 0000 00c0 3080 9ebf 0000 00e0 5f34 b43f
00000480: 0000 00e0 6f6f a5bf 0000 00a0 fb07 97bf
00000490: 0000 0080 0d5e 5dbf 0000 0040 04d0 a03f
000004a0: 0000 0000 4d5a 9fbf 0000 0040 1e0c 91bf
000004b0: 0000 0060 05d7 733f 0000 0080 1772 863f
000004c0: 0000 0060 cf5b 873f 0000 0060 948a b3bf
000004d0: 0000 0080 02e7 a1bf 0000 00c0 32ae 8dbf
000004e0: 0000 0080 e4d5 9e3f 0000 00e0 09f4 a03f
000004f0: 0000 00e0 fa28 893f 0000 00c0 553b b3bf
00000500: 0000 0000 7216 9abf 0000 0000 7c4a a4bf
00000510: 0000 00e0 01a4 a33f 0000 0020 a17d 683f
00000520: 0000 0000 a34c 96bf 0000 0020 14e3 9ebf
00000530: 0000 0020 bb16 80bf 0000 00c0 cc3c a9bf
00000540: 0000 00e0 c01c af3f 0000 00e0 ac7a a1bf
00000550: 0000 0000 d911 a4bf 0000 0080 6a07 8e3f
00000560: 0000 00e0 50f7 b23f 0000 0060 d425 a1bf
00000570: 0000 00e0 d4ca 8fbf 0000 00c0 e9d9 7bbf
00000580: 0000 00c0 74f0 ad3f 0000 00c0 f8ee 893f
00000590: 0000 0060 1754 a93f 0000 00a0 21b1 a23f
000005a0: 0000 0080 4996 8abf 0000 0000 6607 b13f
000005b0: 0000 0080 2f55 95bf 0000 0080 bbed a53f
000005c0: 0000 00c0 eefa a43f 0000 0000 352f 6abf
000005d0: 0000 00c0 e134 a1bf 0000 0080 0624 9fbf
000005e0: 0000 0040 75fe a53f 0000 00a0 cdbb a3bf
000005f0: 0000 0000 2884 863f 0000 00c0 1b27 593f
00000600: 0000 0060 bcf7 a5bf 0000 0080 e795 75bf
00000610: 0000 00a0 3857 903f 0000 00a0 d3b6 adbf
00000620: 0000 00c0 4758 bbbf 0000 00a0 ff79 7b3f
00000630: 0000 0000 9ae8 b03f 0000 0060 2cf3 b93f
00000640: 0000 00c0 66f8 b13f 0000 0040 2d97 b0bf
00000650: 0000 0000 b5ca a73f 0000 00e0 a611 b33f
00000660: 0000 0020 e02b 8bbf 0000 0020 259d 793f
00000670: 0000 00c0 a72a b93f 0000 0020 bdc3 c1bf
00000680: 0000 0040 00a4 afbf 0000 0060 88ba a23f
00000690: 0000 0060 bbf8 7d3f 0000 0040 370b babf
000006a0: 0000 00a0 dbdb ad3f 0000 0020 903b 873f
000006b0: 0000 00e0 6b8a 80bf 0000 0040 c86c a3bf
000006c0: 0000 0080 4deb 4d3f 0000 0020 389a b23f
000006d0: 0000 0060 5f50 b43f 0000 00e0 4f82 6ebf
000006e0: 0000 00e0 a60f b2bf 0000 0040 aacc afbf
000006f0: 0000 0040 c9d0 a6bf 0000 0040 fcdf ab3f
00000700: 0000 0000 0544 b03f 0000 0000 7bb7 b93f
00000710: 0000 0060 967b a7bf 0000 0040 5e42 883f
00000720: 0000 00e0 bdca a83f 0000 0020 4d59 af3f
00000730: 0000 0020 0e1f a43f 0000 00c0 94bf b03f
00000740: 0000 0060 f57a bfbf 0000 0080 ec6d b23f
00000750: 0000 0060 f029 b83f 0000 0060 45c1 88bf
00000760: 0000 0000 ec87 c0bf 0000 0080 1693 b23f
00000770: 0000 0060 d32b 7ebf 0000 00c0 34c9 963f
00000780: 0000 0080 bcf9 bbbf 0000 0040 7044 82bf
00000790: 0000 0040 1a1f b1bf 0000 00e0 41f6 b7bf
000007a0: 0000 0020 a2a0 763f 0000 0080 0cb8 c0bf
000007b0: 0000 00c0 b66f 983f 0000 00a0 679f b5bf
000007c0: 0000 0000 9708 b0bf 0000 00c0 8fc2 b3bf
000007d0: 0000 00c0 60f0 b73f 0000 0060 3f76 b23f
000007e0: 0000 00a0 e876 bbbf 0000 0020 b86b af3f
000007f0: 0000 0040 c0da 813f 0000 0040 b334 953f

bias f8 [24]
-0.047971948981285095 0.007008450571447611 -0.012175501324236393 0.0446108877658844 0.03530774265527725 -0.004077701363712549 0.007390393875539303 0.01820439100265503
0.9756539463996887 1.0346311330795288 1.0046055316925049 1.0176734924316406 1.0110397338867188 1.008170485496521 0.9741986989974976 1.0444880723953247
0.16069790720939636 2.039559841156006 1.52560555934906 2.258958101272583 0.448196679353714 0.8829241991043091 2.1839914321899414 2.2386672496795654
00000000: 0000 0080 c78f a8bf 0000 00a0 e4b4 7c3f
00000010: 0000 0020 78ef 88bf 0000 0000 3dd7 a63f
00000020: 0000 0040 db13 a23f 0000 00a0 c7b3 70bf
00000030: 0000 00c0 6345 7e3f 0000 0000 2ca4 923f
00000040: 0000 00a0 8e38 ef3f 0000 0060 d98d f03f
00000050: 0000 0040 dd12 f03f 0000 0000 6448 f03f
00000060: 0000 0000 382d f03f 0000 0060 7721 f03f
00000070: 0000 00c0 a22c ef3f 0000 0020 39b6 f03f
00000080: 0000 00c0 bf91 c43f 0000 00c0 0451 0040
00000090: 0000 0060 e168 f83f 0000 00a0 5812 0240
000000a0: 0000 0020 41af dc3f 0000 0040 ea40 ec3f
000000b0: 0000 0080 d078 0140 0000 0060 cae8 0140

initpot f8 [1]
0.0
00000000: 0000 0000 0000 0000
